data/processed/deep_mlp_b2.npy (npy, 2176 bytes, 1 tensors)

array f8 [1, 256]
0.0 -0.0008516454743122095 0.0008472635622747696 -0.0005030994289130806 0.00111001850463539 -0.0001845039685032502 0.0007832634014062645 -0.0014327171536609922
0.0006363501936139203 0.0034421396268636186 0.000424481434269869 -3.2500823658812626e-05 0.0017785629948317272 -0.002583312038939027 0.0008185598831425104 0.0023915331105842028
0.0009259024200739856 -0.00025639295135637463 0.0006393171863391053 0.001691476583457031 -0.0014961104065957438 0.0005969652399787925 0.0047325255687268855 0.0013519928692213837
0.002989788082866497 0.0011157559513019157 -0.0015696229194284077 6.762270057553224e-05 0.0014098336224085185 0.002912143505140165 -0.00019700822710358413 0.0005340583631958397
0.0003591309493501067 -0.0009880596287806633 -0.0003101064222011403 -0.0019508169906079036 -0.0017013025213824021 0.0015733009906329684 -0.002039470118990312 0.002837683631783475
-0.002706452716845917 0.0012544855276862134 8.661697986289505e-05 0.0 -0.000990328344770053 0.005209065759106997 1.4832874142385792e-05 -0.003112592748028477
0.0015231420733867065 0.0002874993828479031 8.083385628287016e-05 0.00047250314482961676 -0.0013453426301795863 -0.001995614249178938 -0.00046569885929457583 0.0007855173955073822
-0.0006427172359733471 0.0013239268596892191 -0.002793478868256327 0.0011815506349849598 -0.0011484105603531574 0.001145607935156253 0.0002462910557819472 -0.002118584575599729
0.0 -0.0038264488635229776 -8.12229711392185e-05 0.0014200658255872222 -0.0005690323630012342 0.0016196694216256001 -0.001473708697066226 -0.0024063809475825034
0.0009194535900869949 -0.0025879912544497295 0.0008348794635766434 0.00034520321733424634 -0.0016486829628488515 0.001077851687760013 -0.00020400549772852725 0.000640188004283218
-0.00022901755693954253 0.0004877756033427421 -0.0008817919042321373 2.811624966607195e-05 -0.0019069446093490454 0.0 0.0003868043646247899 -0.0002764974143903888
0.0010754913643021631 0.0 0.0 -2.734860129354737e-05 -0.0009655212980251368 0.0015004858120895878 0.00011110976789077154 0.0006294556461289291
0.001684293465268067 0.007494914941352643 0.00023566348499055165 -0.0004216368947506731 -0.0008298044866513744 -4.059271174851914e-05 4.1294859956790146e-05 -0.0008073240831770206
-0.001408869448327529 -6.045176890875711e-05 -0.0010196951618703474 0.0009291506245929445 0.0005625474899565067 -0.0008681286955230091 -0.0020790653589860025 0.004468045235118799
0.0017335099377451943 -0.0005232925010133744 -0.0025277525932315735 0.004011755106844703 0.0004367413189740888 -0.001407325946175509 0.0015582682136126337 -0.002138279219845018
-0.00015571154544642772 -6.315465150596774e-05 0.00376057709744149 0.00015510948522565312 0.0004801517945653682 -0.00045567809026483006 0.00034325822026601223 0.0008950510979656445
0.0 0.0007695690365484294 -0.00044419630279797495 -0.0014451232091100752 0.0016186752423168781 0.0022412979113801057 0.003580512331712167 0.00023171062683530482
0.001282350813868235 -0.0033296011500904164 0.0008102568987861927 0.0001974360683639364 -0.0028284121127264508 -0.0008302628888523215 0.0014296523969412882 -0.00045048928329155383
0.00040992656462511166 0.0009204094040780774 -0.0017685059939283423 0.002284789909837531 0.0024579336292868278 -0.003480119140191696 0.0021782250361218306 -0.00019242184490031694
-0.0008839410986997396 7.489024605106998e-05 0.0 -0.000983754178709454 -0.0016401096068803544 -0.0015574653705414962 -0.002875302408992518 0.0006175631528469254
-0.0006701478656292299 0.0028968414518958188 0.0013763778513940425 -0.00023820975717341245 -0.0005670073295693975 -0.0010520250141746797 -0.0012159796471779157 0.00020808705864461212
-0.00047388729641317367 0.00010193409832046968 0.00021361199896263418 0.0017647624308615507 0.0002974500594607241 -0.0005116657193363319 -0.00014799927164370292 -0.000886951718052147
-0.0013524319515042238 0.0003388667208316397 0.0 -0.00015482334816763625 -0.0006820194957222442 0.0007034844594121741 0.0004437143719791538 -0.0021571763060444765
0.000526853327842585 -3.4621822998321707e-05 0.002878627706240225 -0.0018224797757334472 -0.0002832180727858182 1.3462033614490932e-05 0.0011218738547061889 -0.0032571541858376083
-0.0004122721154594294 0.0017989790074971856 0.001512814644862988 -0.0016965158449572771 0.00035001896359220436 -0.0016379379523350677 -0.0020651457261987144 0.0021628119035305175
0.0009136583955468569 -0.0003020805176786468 9.88193442336154e-05 -0.0015887168232422634 -0.000487653270163525 -0.004512266354012124 -0.0011246432318506086 -0.0020676876470584896
-0.0024462481258918914 -0.0006290222236076754 0.0014676561668083745 0.002286657974483428 -0.0013784201545393399 0.0010068475728796896 0.0010029083896841162 -0.003410087694480746
0.001068704433775154 -0.0014393032937318395 -0.0006964257913258954 -0.0003357663153616863 0.0012072744512676965 -0.001984210535746487 -0.0011437071576701286 -0.000848839020397925
-0.0006619657376413994 0.0005974660353478912 0.0020604592441892137 0.0007647398352717026 -0.0016340010338756162 9.32779467022217e-05 -0.0005603666272275368 0.0003382308087193196
-3.737380138159343e-05 -0.00032569484222587245 3.390542995756737e-05 -0.0002649726769113957 -0.0005605064674317029 0.0021929349988475534 -0.0018901156471062244 -0.0014932609443967149
0.0009788789062547588 0.0006597479238973231 -0.0009751233910213768 -0.0008647300850211158 -0.0005013571742271495 -0.0025081321037597093 0.0007517617238260824 -0.0018936199628757627
-0.00025350289371109017 -0.0005685991592371836 -0.000565502237819631 0.001233105628049573 0.00027023944316272117 0.0011805036011889192 -0.0018453367696820064 8.515288986962323e-05
00000000: 0000 0000 0000 0000 e3e1 dfba 1ee8 4bbf
00000010: 038a 41a5 5cc3 4b3f 133a 02cc 4d7c 40bf
00000020: 3129 394b c12f 523f b1f3 7a05 ed2e 28bf
00000030: 9a91 ba58 7daa 493f d9eb 7054 4079 57bf
00000040: 5ba6 9ba2 17da 443f 6c48 05a4 b032 6c3f
00000050: 9d37 c1e0 9dd1 3b3f 0888 33cc 2f0a 01bf
00000060: 7b2c 6379 d523 5d3f 0997 1f17 9929 65bf
00000070: 5fe8 c5f6 93d2 4a3f 708e e98f 6897 633f
00000080: 2355 874e 0857 4e3f d9cf 4b57 8fcd 30bf
00000090: cac2 1b34 fbf2 443f 05cc e726 91b6 5b3f
000000a0: da46 1f51 2483 58bf 070d 5e17 b58f 433f
000000b0: bfff b8a8 6962 733f f743 184a ab26 563f
000000c0: 9c54 3641 0a7e 683f e2de 8dd4 d147 523f
000000d0: dea7 c8c6 79b7 59bf 3b70 5626 15ba 113f
000000e0: 9a55 4453 4519 573f 50ed b423 35db 673f
000000f0: f493 efc8 7fd2 29bf 0c57 1f9a 0180 413f
00000100: a665 b4ae 3789 373f b4f1 b1f2 3830 50bf
00000110: 0de4 0ef1 b852 34bf 2687 35cb 51f6 5fbf
00000120: 16f9 27ac c7df 5bbf 1351 4c13 e7c6 593f
00000130: 0f9c ca2e 14b5 60bf d40e a3cc 0d3f 673f
00000140: 4756 06bd d72b 66bf 3e55 2494 b18d 543f
00000150: 7b9f 1662 c4b4 163f 0000 0000 0000 0000
00000160: 6703 99f6 bc39 50bf aece 3ff1 1956 753f
00000170: d8f6 f8b2 561b ef3e 50a2 df81 947f 69bf
00000180: c962 1c59 85f4 583f 0671 6b72 70d7 323f
00000190: 139d 9a13 ab30 153f cba0 e68d 49f7 3e3f
000001a0: b669 4ea6 c60a 56bf 09e3 f03d 1b59 60bf
000001b0: ab1e d65e 2185 3ebf b620 17c3 65bd 493f
000001c0: 4a91 29c1 800f 45bf a268 23a4 f3b0 553f
000001d0: 1905 338c 59e2 66bf 8d36 7e55 c85b 533f
000001e0: 4a6b 2473 c8d0 52bf 8ae9 6427 07c5 523f
000001f0: 3744 a607 1424 303f a48f e96e fe5a 61bf
00000200: 0000 0000 0000 0000 ae14 5117 a558 6fbf
00000210: 9320 d704 c84a 15bf c230 dc11 3044 573f
00000220: e4b0 d9b1 63a5 42bf c2c1 8ecc 6289 5a3f
00000230: 7540 18aa 2e25 58bf 0c38 17ef 8bb6 63bf
00000240: 0a22 c08c ef20 4e3f cf33 9b39 6933 65bf
00000250: 6838 fffe 795b 4b3f bb99 6787 8c9f 363f
00000260: b1c8 0ada 1303 5bbf 9e72 ed6f d6a8 513f
00000270: 4bf7 c3e1 49bd 2abf b207 5645 49fa 443f
00000280: 34c7 a3d5 8d04 2ebf adec 9e43 84f7 3f3f
00000290: 64b1 fdb1 01e5 4cbf 6e2d fff6 657b fd3e
000002a0: 2642 e02e 4e3e 5fbf 0000 0000 0000 0000
000002b0: c457 9418 8059 393f 5f17 2c5a db1e 32bf
000002c0: a2dd 270f f09e 513f 0000 0000 0000 0000
000002d0: 0000 0000 0000 0000 65b9 0292 55ad fcbe
000002e0: 45a2 0533 61a3 4fbf 8925 6d5f 7e95 583f
000002f0: 7786 0547 7320 1d3f 0044 0bb5 41a0 443f
00000300: 508f 6956 7098 5b3f 5359 f3e8 fcb2 7e3f
00000310: fd88 faeb 8de3 2e3f 8d4c 7aac e4a1 3bbf
00000320: f74b ed90 e730 4bbf 5c4b 90f4 4248 05bf
00000330: c4db 8495 80a6 053f 0f1a 6b44 5374 4abf
00000340: 2516 1d0d 3a15 57bf d4ae adf6 b2b1 0fbf
00000350: 2ddb d057 e9b4 50bf cafe d8c5 4772 4e3f
00000360: a712 3189 fd6e 423f 7818 912d 6472 4cbf
00000370: 8990 23b7 1d08 61bf 8b13 97c2 154d 723f
00000380: 3ca1 5a1f de66 5c3f ddcc cb16 b225 41bf
00000390: 0ac5 0cd7 14b5 64bf 7d3f bc4f a16e 703f
000003a0: 16d0 8aae 4d9f 3c3f 6a03 79ba c00e 57bf
000003b0: 95e4 03c1 d987 593f 32d8 34ea 4b84 61bf
000003c0: 1c3a 98fd cf68 24bf 5a3f b7a6 3c8e 10bf
000003d0: 081f b974 80ce 6e3f 30fc 2a55 9c54 243f
000003e0: e0dd 3841 9c77 3f3f 68d9 c47e 02dd 3dbf
000003f0: f51d 83d4 ea7e 363f 0a5d d598 3b54 4d3f
00000400: 0000 0000 0000 0000 07db 07ec 9c37 493f
00000410: fe04 f197 601c 3dbf 5c12 ff3a 49ad 57bf
00000420: 8f50 a14e 3785 5a3f 6eeb 5ba7 575c 623f
00000430: c39c c3eb e054 6d3f 6928 f820 eb5e 2e3f
00000440: f11c afb3 9102 553f 262f 8c01 ae46 6bbf
00000450: f8be d970 ed8c 4a3f 3b2a d1e9 dae0 293f
00000460: 15ba c230 9c2b 67bf efb6 33fa bf34 4bbf
00000470: 7d58 8792 656c 573f e6e3 2abd f485 3dbf
00000480: baee 5630 6ddd 3a3f a392 0c25 f428 4e3f
00000490: af68 07da a6f9 5cbf 5988 1c3e 8db7 623f
000004a0: 237b b611 a922 643f 82f8 95bc 5682 6cbf
000004b0: b91e 64a9 11d8 613f 58e0 cf0f 9b38 29bf
000004c0: ea0c 250e 09f7 4cbf 2552 5ca1 cca1 133f
000004d0: 0000 0000 0000 0000 4350 9701 2a1e 50bf
000004e0: 8ae4 e547 1edf 5abf 8934 31b5 7b84 59bf
000004f0: 63e8 013a f28d 67bf 4c79 b8c5 7e3c 443f
00000500: 7757 4b95 9bf5 45bf d5da 85e9 1dbb 673f
00000510: db8c f476 f28c 563f 4b46 b93b fe38 2fbf
00000520: a1a8 f2f7 6694 42bf 1df6 f241 833c 51bf
00000530: 4682 4d34 30ec 53bf ed8f 2339 3e46 2b3f
00000540: b15f a970 820e 3fbf 8b1a 7b79 aeb8 1a3f
00000550: 8e3f 6219 a1ff 2b3f 1fa6 3f3b f3e9 5c3f
00000560: 624a 0f47 627e 333f e4ea f8c3 29c4 40bf
00000570: ee35 2610 0866 23bf 2a1a a34f 4a10 4dbf
00000580: 8019 1dc0 8228 56bf 271a d27b 3d35 363f
00000590: 0000 0000 0000 0000 9d80 1f6f 024b 24bf
000005a0: e750 f5b6 3159 46bf d1ac 8a5f 410d 473f
000005b0: 0304 67b7 4a14 3d3f bc14 f535 edab 61bf
000005c0: 2c36 0ce8 9043 413f 8010 b1c7 dc26 02bf
000005d0: ba93 617b eb94 673f ac8d 33c2 08dc 5dbf
000005e0: d06c 395c 9c8f 32bf acbd c3cf 5f3b ec3e
000005f0: fa6d 09e1 7a61 523f 0235 9956 bfae 6abf
00000600: 5165 c140 c704 3bbf ae8e 3700 7779 5d3f
00000610: 5496 2c5b 34c9 583f f126 8f04 b4cb 5bbf
00000620: 5767 6900 58f0 363f d1c0 0a7c 02d6 5abf
00000630: 9b3c 60ab ecea 60bf 06f9 93cc beb7 613f
00000640: 0006 dc76 52f0 4d3f 0b57 b6f1 11cc 33bf
00000650: 74e0 2268 a7e7 193f 627c 19b3 8f07 5abf
00000660: 4827 ded8 76f5 3fbf 6ebd bd46 747b 72bf
00000670: 9b3c a179 186d 52bf 6296 515a 41f0 60bf
00000680: fefc 5a76 270a 64bf 4d3a 7ef0 9e9c 44bf
00000690: d3e8 3ecf cb0b 583f ae1e f626 78bb 623f
000006a0: 691d f85e 8395 56bf 6fdf 7159 067f 503f
000006b0: 8550 03af 806e 503f 6728 fae3 78ef 6bbf
000006c0: ecdb e5a5 7882 513f 5caf d624 e094 57bf
000006d0: 0b14 b9ff 0ad2 46bf 47a7 f457 3901 36bf
000006e0: 797c 4512 adc7 533f fb48 80eb 3041 60bf
000006f0: a440 a835 0ebd 52bf 0ecd 84ea 93d0 4bbf
00000700: bcee dc98 f8b0 45bf 537a 888a e893 433f
00000710: 466d 31a2 18e1 603f 1d68 8d4a 1a0f 493f
00000720: ecd4 2240 7fc5 5abf ae80 0eec c673 183f
00000730: 5f26 3a2b b25c 42bf ca18 0f43 922a 363f
00000740: 14c8 8b09 3a98 03bf e84e 22b2 4058 35bf
00000750: 515e ddb3 b5c6 013f 6498 4efb 805d 31bf
00000760: 5d41 3179 de5d 42bf 1f13 4603 ebf6 613f
00000770: f26a f538 b8f7 5ebf d7bf eaba 3077 58bf
00000780: 1527 e738 b709 503f 8bf3 dce0 5d9e 453f
00000790: 04e1 7889 edf3 4fbf 3c29 afb7 e155 4cbf
000007a0: 53a7 5d55 b06d 40bf 69a0 822b ef8b 64bf
000007b0: 5ff4 5402 3ca2 483f 7852 f1f3 6a06 5fbf
000007c0: bb69 4fa3 129d 30bf 0ffe 8f65 c1a1 42bf
000007d0: 600d 02cf c687 42bf 1342 1416 0534 543f
000007e0: 1087 0a92 ddb5 313f c8df 0817 6457 533f
000007f0: d663 db44 e73b 5ebf ca96 3382 8352 163f
