data/processed/deep_mlp_W1.npy (npy, 8320 bytes, 1 tensors)

array f8 [4, 256]
000000 b3 64 19 a7 33 a7 d0 3f 4c 41 99 13 ea 55 d7 3f
       0.26020518606453463 0.36461879648142737
000010 38 22 ab 30 18 de c4 3f 90 0f fa 25 58 05 de 3f
       0.16302778602973134 0.46907619198486206
000020 49 d4 38 71 88 63 d8 bf af a3 7e 27 be e4 d4 3f
       -0.3810750108417023 0.3264613519373211
000030 06 fa 4b 15 d5 92 e2 3f 63 01 5e f5 de 13 e3 3f
       0.5804238716080483 0.5961756508186621
000040 14 b0 d3 94 b3 d0 e9 bf 86 b5 a1 7f eb 6d e1 bf
       -0.8067262560630319 -0.5446679585272001
000050 d2 0f 8e 14 d7 a0 d9 3f 3a d5 44 d7 5a 78 e4 bf
       0.40044190413777614 -0.6396917538137707
000060 aa 2b db fa 32 de f5 bf a4 7a 12 d8 bd 15 e4 3f
       -1.3667478369777464 0.6276540012512055
000070 a4 2d 32 3f a8 a3 d0 3f e6 5b 6d 52 5c ae f1 bf
       0.2599888436459088 -1.1050685138522964
000080 77 42 10 1f d9 41 f4 3f df e8 35 ea 26 2a 7e 3f
       1.2660762036722681 0.0073644180405329765
000090 ab 74 56 61 23 f7 c9 3f dd ac 73 ea 0a 8a f2 bf
       0.2028545594484162 -1.1587018163943903
0000a0 ae a9 aa d5 2b f6 da 3f 3a e7 47 3f 32 4e da 3f
       0.42127509942897745 0.4110227220513597
0000b0 ae e0 2a 1d a9 c9 d9 bf 74 df 93 fc b8 cf de bf
       -0.40293338631046083 -0.48142838159355184
0000c0 f6 55 98 c2 98 f5 ca bf 2e 17 14 50 3a d4 f7 bf
       -0.21062001706802363 -1.4893134239259314
0000d0 a9 30 6c e4 fc 5b e8 bf 94 e0 90 36 9a c5 b0 bf
       -0.7612289868716476 -0.06551517326522777
0000e0 06 e2 7e d4 89 d2 ef 3f 52 7f 5a 2a 8c 51 c1 3f
       0.9944504881196401 0.1353011328510499
0000f0 2b ab 69 c9 6b 52 ea 3f d1 e4 93 ff 2c 2f c6 bf
       0.8225611623614432 -0.17331469039326078
000100 0a a2 1f ff 0e 8f e1 3f ec a7 01 dc 8d 86 e0 3f
       0.548713205612388 0.5164250657082881
000110 44 f6 21 ce f1 3f d5 bf be 48 3b dd 4e 24 e7 bf
       -0.3320278656973168 -0.7231821366242668
000120 34 d1 b0 f5 56 33 dc 3f 60 bc 68 4e c4 69 c2 bf
       0.44063352578384074 -0.14385274723597075
000130 48 e7 50 9e 5a 6f d4 bf 15 96 ac 73 99 f7 dd 3f
       -0.31929650745916094 0.46823726936631377
000140 ee 12 9a d6 2c 32 d1 3f b2 5a 09 2d 42 88 e6 bf
       0.2686874480935292 -0.7041331176395345
000150 f7 b0 7b 7b 51 28 f1 3f 11 36 d8 f0 39 87 e9 3f
       1.0723433326302805 0.7977571205134969
000160 bb 64 00 30 9a 99 e2 bf d8 7a 79 3c 45 9b c6 bf
       -0.5812502801446934 -0.17661347821100182
000170 7e c6 44 de 95 c4 d5 bf b9 3a 0e ff 4c 83 d2 bf
       -0.340123621997101 -0.28926396281978445
000180 b3 4b 06 3a 32 e9 dd 3f 60 9a 54 7b d5 e5 ee 3f
       0.46735816637481803 0.9655558975981187
000190 b4 93 f2 81 9e 6c e7 bf 7f d8 6e 6b 47 a7 e4 3f
       -0.7320091760672001 0.6454197977352719
0001a0 61 99 1e bf 86 9f e4 bf f5 ec 2f bc 20 64 da 3f
       -0.6444734318545607 0.41236132028252764
0001b0 46 3c 77 69 34 71 ca 3f f4 2f 5d 17 a1 cc c9 3f
       0.20657973432250482 0.20155728951283403
0001c0 2c c8 b5 a0 1c f7 e4 bf 76 ba 72 85 c1 86 ef 3f
       -0.6551650179737911 0.9851997000130968
0001d0 7c 71 46 ec 3f 0e d1 bf d8 c7 18 0f 49 1c f1 bf
       -0.26649473260638223 -1.069405611965058
0001e0 29 2a e0 f5 d9 5d b3 bf 76 52 a5 10 a2 bb f0 bf
       -0.07565080883811305 -1.045808854124656
0001f0 95 2d fe e7 58 11 c4 bf d2 6b f8 cb 71 31 56 3f
       -0.15677939727571003 0.0013545619293668832
000200 2c 7e 91 2d b3 c0 e4 bf 28 07 8b 9a d9 0e f1 bf
       -0.64852293872895 -1.0661254917944891
000210 22 43 ff 2f 62 ae a7 3f 4e 78 a5 44 73 c7 b8 3f
       0.046252315863631446 0.09679336954056447
000220 93 22 60 35 b3 51 e7 bf f9 e0 60 b5 0e 2e f3 3f
       -0.7287231485834859 1.1987444958777458
000230 f3 86 a8 40 0b e2 f5 3f 5e 1c 66 49 1b 74 e6 3f
       1.3676865125384523 0.7016731675693213
000240 58 40 e4 d2 5c 2f d3 3f e7 e6 54 96 8b fb e5 bf
       0.29976578326114156 -0.6869562088170057
000250 a5 35 30 4f 3b 40 ea bf 73 db 9f 81 d1 8b c6 3f
       -0.8203407808920714 0.17614191846197577
000260 08 74 31 43 80 6e fa bf 92 36 27 00 0c b0 f0 3f
       -1.6519777893765895 1.0429801946624235
000270 e0 1b be 1e 32 ed c0 3f 68 93 c1 19 61 2b ea bf
       0.1322386407957472 -0.8177953246164238
000280 f3 85 74 be 28 ec d3 3f 4f 92 63 68 56 44 a5 3f
       0.3112890109933623 0.041536998980323696
000290 d1 ed 18 da 1c 6f ce bf 25 ed c1 93 ad 4a bd 3f
       -0.2377658905914886 0.11442074639665074
0002a0 ae 05 5a 1f 45 28 e7 3f 51 d2 5c ee 5f 0b d3 3f
       0.7236657726609133 0.29756925847622023
0002b0 72 2f 44 65 18 e0 c9 bf ee 67 f8 b6 29 02 e3 bf
       -0.20215134567876764 -0.5940140317572948
0002c0 6c da 0d f8 3c 19 dd bf 56 6a dd a6 9e 0a c2 3f
       -0.4546654150393923 0.14094908855152494
0002d0 5e d3 59 0e 3d 17 f0 3f 52 8e e8 71 4c 40 e2 3f
       1.0056734619695002 0.5703489517949925
0002e0 26 34 16 da a2 14 e3 3f 17 53 59 9f 5c 29 ba bf
       0.5962690600878247 -0.1021936310801944
0002f0 bb 7b e6 d0 92 5e d6 bf 2b 20 5e e1 5e 02 f8 3f
       -0.3495223083536378 1.500578766195768
000300 22 06 f6 42 df 87 f5 bf 4d 92 d9 14 e4 86 77 3f
       -1.345671903196838 0.005743876402992299
000310 93 d0 df 71 8a 45 ac bf 3b a2 bd 24 fb 90 e3 3f
       -0.05521805419985628 0.6114478795617012
000320 e8 69 2b 13 25 f3 e1 3f 76 51 6b 36 eb c4 b1 3f
       0.5609307646184876 0.06941099241823231
000330 68 c7 dd 0d 0c 84 d0 bf ab 6a 48 9f 2c ec ee 3f
       -0.25805951456196974 0.9663298712724403
000340 67 2e 42 8c 84 65 b2 bf 5f 26 41 96 31 5a df bf
       -0.07186153816490447 -0.4898799865082761
000350 bc 28 94 ad ac a3 d8 bf 23 08 86 45 5f 65 d1 3f
       -0.3849899001221606 0.2718122652951271
000360 39 63 f4 32 99 f1 d0 3f b5 0a ee f0 a6 d1 ee bf
       0.26474599815405814 -0.9630922990475798
000370 24 7f ca d1 54 96 e4 bf b3 30 7b 7c de 00 cb 3f
       -0.6433509919624822 0.21096402242836162
000380 a4 82 f7 e1 45 9c c0 bf dc 15 e0 c6 b5 4a ee bf
       -0.1297690728524873 -0.9466198810848101
000390 74 cb 8f 52 04 44 e1 3f c8 8e f3 1a 2d 64 e4 bf
       0.5395528423817795 -0.6372285391230088
0003a0 0c 3f 6e 9e 23 bf d8 bf 31 91 9d 9f 7e 89 d5 3f
       -0.38666620704405896 0.3365170058007321
0003b0 11 81 2b c3 44 f7 d4 3f b0 ea e1 16 80 99 e4 bf
       0.3275920778232982 -0.643737835590704
0003c0 8d bf c4 c4 40 ae d6 bf 3b d0 ed b7 90 d5 f1 3f
       -0.35438555923155307 1.1146399674153276
0003d0 15 a6 ac 42 33 a6 c9 bf d2 18 7c 2f 41 19 02 c0
       -0.2003845286902083 -2.2623313627001176
0003e0 63 9e 68 79 4a ed bd bf 59 6e a6 65 96 6b cf 3f
       -0.11690202201918391 0.24547080958733394
0003f0 a4 1b f4 87 fc 70 8e bf e0 bb a7 b9 2c 8a f1 bf
       -0.0148639420499544 -1.0962340595394764
000400 3d 5c bc d4 07 90 d2 bf b0 24 23 06 7a 9b bc bf
       -0.29004092955569033 -0.11174738550029661
000410 e0 0d 32 71 a7 45 e1 3f 05 eb 09 a2 f4 41 e7 3f
       0.539752694211014 0.726801220399779
000420 0e 79 f8 63 b0 af c9 bf ab 7c a2 65 e5 f1 dc 3f
       -0.2006741035592729 0.4522641651655685
000430 c6 e1 b2 8d af cd dc 3f 79 90 59 67 97 e5 df 3f
       0.45005406224984446 0.4983881482387527
000440 a6 b6 f9 37 b3 9e e4 3f 4c ba 11 61 1a 6f f3 bf
       0.6443725674887062 -1.2146247665183578
000450 6c 9b e3 73 6e 57 e6 bf 30 be ab b8 e7 47 db bf
       -0.6981727851351542 -0.4262637427736733
000460 44 8b a0 46 5b cb fe 3f 43 77 77 44 56 c8 f3 3f
       1.9246475943443366 1.2364103960494084
000470 2a c5 50 b8 31 80 cd 3f bc 74 5a 06 89 c0 f0 3f
       0.23047467708378494 1.0470056770493974
000480 f1 4c d6 5e f8 7b e1 bf 53 00 e2 71 f8 8f cc bf
       -0.5463830807006201 -0.22314363060650297
000490 69 2b 65 1a 49 0a f5 3f bf 57 1a a5 0e 14 be 3f
       1.3150111228048564 0.11749354868729166
0004a0 07 d0 45 aa e3 d9 e8 bf f2 5b b1 86 58 2c e4 3f
       -0.776597817005041 0.6304133063048296
0004b0 d9 48 52 ac ab 5d e8 bf 1f a4 31 7f c3 a1 f8 bf
       -0.7614343991902174 -1.5394930809509402
0004c0 2c 57 d3 b0 4e b7 9c 3f e7 67 8d a9 7a 87 e7 3f
       0.028043012182784086 0.7352879821366941
0004d0 1f eb 04 da 54 be dd bf 35 23 fc 5f 26 a5 b0 3f
       -0.464741909894359 0.06501998752004286
0004e0 53 60 4a fb b9 5d eb bf bd 1b 42 93 22 58 d0 3f
       -0.8551912220018586 0.2553793371266087
0004f0 ca b5 78 32 4d a6 b0 bf 47 4f 31 88 86 59 d4 3f
       -0.0650375602933401 0.3179642038351073
000500 04 3d a9 ca a2 21 fc 3f 81 49 7b ee 64 f4 e7 bf
       1.7582118908356401 -0.7485832841723977
000510 9f de de 83 3d ae f1 3f bd c9 8f 48 17 8b f4 3f
       1.1050391341395096 1.2839577516975702
000520 0e 28 a0 33 57 db e5 bf de 1f db d8 f1 5e f4 bf
       -0.6830249794304579 -1.2731798621116392
000530 e1 31 d6 08 8a a7 ad bf 20 00 a5 4e 70 10 b7 3f
       -0.05791884763593536 0.09009458465607212
000540 26 a8 cf 42 7f be e9 bf e7 65 39 1f 5f 3e e4 bf
       -0.8045040421395739 -0.6326137170646547
000550 b5 c4 1c e7 dc 97 e3 bf a3 9a b2 d4 b1 b3 e1 3f
       -0.6122879518426517 0.5531853822947891
000560 91 46 a9 1a d9 62 e9 bf b4 1f dd 32 d7 96 dc 3f
       -0.7933164139487464 0.4467065808025794
000570 8f 8d 91 2c b0 38 d3 3f ee fa 0b 82 88 e7 86 bf
       0.30033497192763375 -0.011183802098000819
000580 ec 92 ba 64 5d 8b db bf 7d eb b7 c2 bc 7e f3 3f
       -0.43038115345761585 1.2184417349041887
000590 c9 6f 36 ef 37 60 a5 bf 2c 50 3b 8b ac 60 e4 bf
       -0.04174971385074817 -0.6368010253304468
0005a0 a7 89 96 82 99 21 e3 bf 60 41 8e aa f5 de c4 bf
       -0.5978515196368804 -0.1630541880408698
0005b0 ba b2 db fe b8 6f a5 bf 4b 13 05 6d 98 3f d4 bf
       -0.04186800108968698 -0.31638155600039813
0005c0 37 72 c5 69 c7 3a 28 3f c3 95 c8 8a 0f f8 d3 3f
       0.00018485721819673655 0.3120154242809258
0005d0 a9 12 f7 7c 00 f1 c7 bf ac 64 d1 1c 56 b3 ed bf
       -0.1870422945195476 -0.928141647610706
0005e0 ed 50 2f 92 bc 13 ce 3f 99 b5 67 54 16 3c f0 bf
       0.234977313403426 -1.014669732768516
0005f0 a8 a0 78 a2 90 22 e6 3f bd 70 4c d4 df b0 dd bf
       0.6917193578019765 -0.46392055256161396
000600 36 9a ac 0d 65 e5 f4 3f 2a ba 93 30 f6 58 c2 bf
       1.3060045751714262 -0.1433398949806855
000610 51 58 fb ef 26 3f f0 3f 03 61 75 ec a6 e2 e7 3f
       1.0154179930009557 0.7464174860315612
000620 f0 c2 08 95 f8 c0 d7 3f 85 18 9d 3d 9c 61 ce 3f
       0.37115301660655486 0.237353830418389
000630 4f 65 5c 0f f8 8f bb bf af 14 a1 07 d8 d6 b5 bf
       -0.10766554236433488 -0.08530950723896312
000640 30 d5 54 50 72 50 e6 3f 80 27 0b e6 13 22 e4 bf
       0.6973201340648867 -0.6291598790205484
000650 9c 69 f3 74 c5 97 ef bf b5 f3 7a 84 07 dc e1 bf
       -0.9872767719455626 -0.5581090533738605
000660 53 b1 c9 44 6e ea f0 bf 7a 1b 84 59 06 14 e3 bf
       -1.0572340666795597 -0.5961944340095748
000670 02 5f b3 9f 10 8d eb 3f 69 e2 61 28 3c ef ca 3f
       0.8609698409227067 0.21042587253375025
000680 5f f4 99 f6 fe 00 f6 3f 88 af f4 00 57 48 df bf
       1.3752431519381145 -0.4887902745565431
000690 15 c9 d6 28 7b de cd bf ef fd 23 d4 48 c6 dd bf
       -0.23335208410350874 -0.465227324646519
0006a0 53 7b 1e 3a 2a e1 ee bf b8 17 ae 5f 8b 85 ba bf
       -0.964985955728347 -0.10360022626818377
0006b0 05 15 7c 93 d7 21 ba 3f 41 4d cd fc 2d f1 e8 bf
       0.10207888937664585 -0.7794408738649637
0006c0 75 86 56 d5 3f 9c f3 3f 56 1c 23 32 1f 8e ee 3f
       1.2256468137278749 0.9548488597146256
0006d0 72 ff ec c2 14 bf df bf 37 90 ba 19 e2 03 b0 3f
       -0.4960376647541046 0.0625592530073512
0006e0 39 70 61 3b 73 40 f0 bf 73 fd 38 02 c8 0a ef bf
       -1.0157348937564292 -0.970066074696588
0006f0 54 09 38 3e be 8d d4 bf 3d 01 06 06 cc 0a ea 3f
       -0.3211513145071383 0.8138179891248353
000700 39 56 f7 30 5b 25 f6 3f f6 5b 4e ef 3d 69 c4 3f
       1.3841201699009515 0.15946172890536986
000710 8f a2 eb 19 7a 2f de bf 1a 7a 5a c3 ed 9f e7 bf
       -0.47164776355069987 -0.7382725539681048
000720 32 b0 eb 71 45 7b eb bf 29 80 70 ef 92 3f ce 3f
       -0.8587977623951757 0.23631512347583453
000730 0f 2e 56 02 2b cf ba 3f ef c6 8e 00 ae 81 c9 bf
       0.1047236328797043 -0.19927001025421684
000740 da de 1d ce 3c 6f ef bf 58 82 cb 87 fd 76 e0 bf
       -0.9823287988392295 -0.5145251896138445
000750 e3 e0 98 e6 71 79 f5 3f 76 87 bf bd c6 ca de 3f
       1.342149639864197 0.4811264851579077
000760 ea 35 20 3d ff 30 cb bf 44 a2 74 e0 c2 56 c2 bf
       -0.21243277058276472 -0.14327274284120695
000770 5a 98 bb 07 fd 55 c7 bf e5 36 0f cb f8 ab c3 3f
       -0.1823116576917439 0.1536856643200998
000780 fe 64 77 13 2d 84 e1 bf ba c7 a7 15 b2 0b be bf
       -0.5473847751810863 -0.11736596134849622
000790 0e d7 77 2e d1 83 d5 bf b2 ed 20 03 ee 48 02 c0
       -0.33617047822859625 -2.2856102222846966
0007a0 f6 ed f1 fd 91 c9 f1 bf 59 dd 8a 13 a8 bb b8 3f
       -1.1117114944198625 0.09661341168508865
0007b0 01 97 2d fb d2 e2 a2 3f 52 e2 4f c3 a7 c9 f2 bf
       0.03688678089274156 -1.1742322568299142
0007c0 8c a7 15 14 54 f6 a4 3f b1 90 d8 83 9d 75 b7 3f
       0.04094183678792182 0.09163841694732146
0007d0 79 2d f0 dd 37 b9 d1 3f db 13 fa 82 97 ce aa 3f
       0.2769298236241507 0.05235742067183199
0007e0 c2 ec 04 16 36 94 e0 3f 9e 98 8d 70 30 bc e9 3f
       0.5180921964705691 0.8042223165800981
0007f0 93 c2 dc 5b cd 85 f1 bf aa 5e b5 aa 91 1f d4 bf
       -1.095166548573762 -0.31442681952237683
