data/processed/deep_mlp_W1.npy (npy, 8320 bytes, 1 tensors)

array f8 [4, 256]
000000 a3 8a 8a 93 10 ad d1 bf af aa 6e 9c 16 52 e3 3f
       -0.2761880341369453 0.6037705474203302
000010 4f 66 d9 80 96 d8 df bf 27 b4 25 d9 c6 ef e3 bf
       -0.4975944765370501 -0.6230196229131523
000020 cc 6f 5c ff da 91 a4 bf 03 67 97 9b 84 09 c1 3f
       -0.04017528884125418 0.13310296628224458
000030 4d 02 3d 48 f8 de db bf f3 f5 8e 94 11 b9 d1 3f
       -0.43548399977229196 0.2769206953779239
000040 e1 01 3c f8 ab 8e d9 3f a9 f3 25 2e fa 72 d2 3f
       0.3993329929508303 0.28826765543618166
000050 18 c4 35 fc ad 6d e0 bf 94 ad 50 fb 97 bd dd bf
       -0.5133886266686458 -0.46469687979216556
000060 52 7d c7 91 dc 75 e5 bf df 84 5f 08 7e 08 9f 3f
       -0.6706374022723287 0.030305833111815225
000070 f8 26 03 c6 64 b1 bb 3f 20 6c e9 59 16 d3 db 3f
       0.10817556223187441 0.434758746914385
000080 1b 9c a6 0c d5 ac e6 bf 46 ad e9 4f ed 90 e0 3f
       -0.7085976836286848 0.5176912842556838
000090 f9 50 7f 15 f7 ab e2 3f 6b 19 dc 83 d3 23 c2 bf
       0.5834918422574723 -0.14171832979645713
0000a0 19 1b c9 77 90 31 f0 3f d4 0b 23 fa 5d 3a d8 bf
       1.0121006659625833 -0.37856244494849745
0000b0 aa 42 c3 7c e7 a2 8d 3f 56 41 a9 70 fd 97 d5 bf
       0.01447087144370703 -0.33740173341813795
0000c0 ce b4 40 72 cc df e3 bf 12 61 57 6c 0f b6 eb bf
       -0.6210691672801205 -0.8659741512338164
0000d0 cc 84 47 82 c9 2f ec 3f da 33 a5 9d eb 01 e3 bf
       0.8808333916205355 -0.5939844206819729
0000e0 27 b8 37 f8 91 d4 f4 3f e1 04 74 87 e5 21 e0 bf
       1.3018970199586961 -0.5041377683229734
0000f0 e4 b2 99 22 1c 53 f4 3f 0a 70 c1 be 30 39 ef bf
       1.2702905036523413 -0.9757312513061163
000100 03 a1 a5 7b 99 34 ab bf 0e af c9 30 bb fb eb bf
       -0.05313567766535423 -0.874478907860494
000110 8e 1e 18 e5 d0 b0 eb bf d9 4b e7 0b d4 91 df bf
       -0.8653339838501368 -0.4932756534810188
000120 90 0e 9b e7 7b 0a f1 bf d5 68 51 85 7d c1 e1 bf
       -1.0650595709893516 -0.5548694232814123
000130 87 da b2 16 69 06 e4 3f f4 6a 82 a1 67 c0 ae 3f
       0.625782532056136 0.06006168219137989
000140 95 55 e0 90 ce 7e e9 bf 98 74 5c 20 6d 5f d2 bf
       -0.7967293576827382 -0.2870743576075454
000150 07 c3 31 82 66 d3 ed 3f c4 53 81 63 43 b5 af bf
       0.932055715833571 -0.06192980374968429
000160 6f 97 9a c7 42 95 f2 bf 0a 0b 2d c9 03 7b cb bf
       -1.1614406392122552 -0.21469161341709536
000170 7a f1 91 ef 8d 7f d8 bf 14 ab cb 25 c1 74 c8 bf
       -0.38278530498043717 -0.19106306405532136
000180 20 8d 21 26 ae 62 bc bf 19 50 70 9b e7 49 d3 3f
       -0.11088074141439508 0.3013857858616134
000190 39 45 48 2c e0 b6 e0 bf 27 c8 3d f3 c3 70 b8 bf
       -0.5223236908806604 -0.09547066391476787
0001a0 69 b8 9e 2d 2a 8e fb bf 45 d9 44 37 5d 80 b0 3f
       -1.7222081930190376 0.06445868110026705
0001b0 91 dd 89 a7 72 19 e5 bf 8a 32 65 33 e7 90 e8 3f
       -0.6593564293133786 0.7676883701147557
0001c0 1f 47 40 a5 56 52 ee 3f 52 ea 66 2d 09 3f d6 bf
       0.9475510814247378 -0.3475974028948815
0001d0 c9 31 c4 a2 0e b5 f1 3f 44 17 4f 31 be 87 c0 3f
       1.1067034109174634 0.1291425457731582
0001e0 6a bf 27 ea 6d 6d d1 3f 1a b8 42 52 bc 22 dd bf
       0.27230403773045586 -0.45524509461654505
0001f0 32 0e dc cc 8a 10 e6 3f 00 b5 d2 56 75 e5 d9 3f
       0.6895193101085566 0.404630026615294
000200 0f 57 07 ab 24 b1 e8 3f 62 88 ca 26 07 1b b6 3f
       0.7716239300159219 0.08634991356896785
000210 74 3b 8d d9 d1 a2 ba 3f d8 cd 5e bb 32 26 b7 bf
       0.1040469318515827 -0.09042660784216794
000220 d7 b4 30 fc dd 05 f2 3f 72 9c bb 5d f7 dd d0 bf
       1.1264324046308525 -0.2635477462158128
000230 3f 70 e8 bf 17 a4 f1 3f 65 b3 11 1e 79 67 d1 bf
       1.1025617119221491 -0.2719404977458935
000240 5c dd de 69 7e 47 e2 bf 78 05 40 08 e3 2f f2 bf
       -0.5712272708687283 -1.13669112417878
000250 d8 5a 9a 7d 15 a7 e7 3f 07 b1 e2 93 4a 2e d5 3f
       0.7391459897215453 0.3309503978914709
000260 93 c3 77 03 40 3b fa 3f 26 db 18 37 7a 1f d1 3f
       1.639465344949916 0.2675462282235678
000270 10 98 69 34 9a 9a a4 bf 8e 75 be f1 fd cd f1 3f
       -0.04024202241707553 1.1127910082935588
000280 52 cc ce 5d 2d 4a ec bf a0 1f ef f4 3e 01 f1 bf
       -0.8840548355277724 -1.0628041808831554
000290 7f 89 f5 74 72 5d d0 bf ba cc 16 7f 0c f9 ed bf
       -0.255703558175945 -0.9366514665802221
0002a0 f0 98 6f ac 8c d1 f8 3f f5 40 3c 1b a6 75 f1 bf
       1.5511595474031843 -1.0912228645211688
0002b0 c7 af be da 70 8c d8 bf 50 ee d7 55 bb be 61 bf
       -0.38357182847789456 -0.0021661433117950227
0002c0 b9 bc 33 36 e3 31 e5 bf 04 01 22 c5 b8 cb fa 3f
       -0.6623397883066878 1.6747367573262304
0002d0 59 1a f2 7c 28 36 d1 3f 5c 8b e1 bd 40 f5 fc 3f
       0.2689305515454286 1.809876195643219
0002e0 6a 61 2b 98 75 97 d1 3f fb b2 b4 1f 6d cb e1 3f
       0.27486934528635365 0.5560823077445031
0002f0 4e 39 a2 b6 d1 0b d5 3f d5 cd 16 86 2b d5 e9 3f
       0.3288463862926577 0.8072717303206739
000300 d8 e2 24 b2 8b 82 cb 3f fb 9c 39 dd a3 09 f2 bf
       0.21492143820230214 -1.1273535386661127
000310 fd 6f 7b 63 0a b0 c1 bf 5a 29 d9 b4 51 3d f2 3f
       -0.13818483216789437 1.1399704994569988
000320 61 70 ee e1 b7 12 f7 bf fe 4d 26 3b 88 a6 e1 3f
       -1.4420698953099633 0.5515786319032825
000330 50 b8 4b a3 70 a8 bb bf 91 28 51 ae 8b 54 b3 3f
       -0.10803894030297667 0.07550881391321897
000340 a9 c5 13 05 b8 34 c6 bf 19 de f4 09 fb 8e f0 3f
       -0.17348385093604904 1.0349073780943228
000350 00 d7 58 f1 b3 70 f6 3f 07 c3 a9 53 cd b4 eb 3f
       1.4025153567903885 0.8658205637021589
000360 f2 ab 61 13 a5 5d ec bf c2 50 c7 21 f7 d9 fa bf
       -0.8864312532945162 -1.6782141990161539
000370 dd f1 e3 37 c5 72 d3 3f a1 3b 6e 92 d8 85 d3 bf
       0.3038800283245829 -0.3050443105684569
000380 09 0d 3c 6a 4d c4 e5 bf 9a fb 58 67 67 17 d3 bf
       -0.6802126955884954 -0.29830346195734025
000390 62 6b 05 90 d7 15 ce 3f 5c 4a 41 2b 66 c0 e2 bf
       0.23504156620296174 -0.5859862179589288
0003a0 46 a3 fe c7 9f e4 c3 bf 1d 54 aa e4 24 46 da 3f
       -0.15541455521931818 0.4105312569675464
0003b0 e5 11 79 e3 b0 40 da 3f e5 5e fa 5e e4 28 c4 bf
       0.41019842352059604 -0.1574979270706002
0003c0 d5 83 97 6e f6 5e 97 3f ee 92 76 33 17 50 cd bf
       0.022823191165915652 -0.22900667202807007
0003d0 b8 41 b5 7c 52 d8 f3 3f 6e 9b 12 1b 1c 3e f6 3f
       1.2403130408675747 1.390163522484467
0003e0 9a 35 cf 99 c8 4e d0 bf 84 2a 53 2c ea ba d2 bf
       -0.25480856914949757 -0.2926583702907595
0003f0 93 99 ee f8 33 ec 61 3f 88 e8 b7 d5 f3 13 e9 bf
       0.0021878256879574536 -0.7836856054484693
000400 0f d6 c9 3c 15 ff f8 bf a2 d8 36 63 e2 f4 e7 bf
       -1.5622761129901652 -0.7486431062486825
000410 a0 41 80 fe f3 9a 00 c0 22 a1 77 77 de 48 e2 bf
       -2.075660694397996 -0.5713951428743125
000420 26 c2 01 61 99 3b e3 bf 61 d7 d4 83 4d 94 f4 3f
       -0.6010252852120785 1.2862067365326413
000430 6a c8 d6 63 36 02 f2 bf 30 f3 0e c1 a3 b8 ef bf
       -1.1255401515923276 -0.9912890215560761
000440 76 9a 8b 5c 95 e1 d6 3f e7 bf 8d 32 d6 28 ed bf
       0.3575185207140871 -0.9112349498154771
000450 32 50 90 48 30 c3 ea 3f 4a fb 09 5c 69 54 e5 3f
       0.8363267342815617 0.6665541455875907
000460 0e 49 20 ce 62 71 f1 bf c2 c6 f4 96 b8 55 c9 3f
       -1.0901821185876233 0.1979284989443411
000470 00 25 70 75 08 3c c4 bf 7f a5 a1 06 ae da f5 3f
       -0.15808206304817674 1.3658886202850622
000480 36 14 98 f3 d2 6f f5 bf 2e a2 8c 12 c6 5a bd bf
       -1.3398007884400278 -0.11466634705414755
000490 4f 7c 1b 8a e7 01 be 3f 68 bf d7 d5 9c 5f e9 3f
       0.11721655961763243 0.7929214645973675
0004a0 10 23 59 a3 21 39 ee 3f b1 16 da 43 31 6e e7 3f
       0.9444740476984368 0.7322012257797806
0004b0 bd 43 85 db 91 e8 a1 3f ef 89 2e 96 cc c5 d3 bf
       0.03497749142355342 -0.3089477030390801
0004c0 05 fa b8 1e ad 18 d8 bf d9 d9 18 94 cb d8 e5 bf
       -0.3765061187768029 -0.6827142612954119
0004d0 7b c7 02 ca bf 61 c2 3f 3b f0 1b b9 47 b4 f4 3f
       0.1436080681210646 1.2940137129617273
0004e0 9e 55 46 e9 ea b7 e3 3f 3e c9 cc fe c0 7a d1 bf
       0.6162008815905897 -0.27311730273062895
0004f0 00 e7 47 fa 5d 16 ed 3f f1 f8 4e 8f 58 5d e1 3f
       0.9089803589151586 0.5426447676652782
000500 92 36 3b 6a 00 f3 ce bf b1 9a 75 78 56 b4 dc bf
       -0.24179082095217957 -0.4485069443093535
000510 b8 9f c3 9c 96 73 e9 3f 68 39 a1 a3 33 59 e6 bf
       0.795359903507225 -0.6983888812917884
000520 cd b6 3a d0 18 56 b2 bf ee ec 60 66 73 a1 ce bf
       -0.07162623485302362 -0.23930208682018111
000530 14 3e eb 5b 9c 5b c4 3f 09 58 82 af d3 87 f2 bf
       0.15904573906162567 -1.1581608634783171
000540 3d 9d 91 ae 4d 28 de 3f 68 35 b8 51 b3 e0 c6 3f
       0.4712099270604602 0.1787323140164674
000550 12 d0 88 ef b2 66 e4 bf e1 ca df 39 26 b4 eb 3f
       -0.6375364950567948 0.8657408838610899
000560 c0 81 3f bc 20 dc e0 3f 94 19 24 8b cb 58 f3 3f
       0.5268710781784236 1.2091784892269049
000570 36 a0 c0 b7 b9 5e d5 3f aa 51 8b 64 38 1f ee bf
       0.3339065832574336 -0.9413110698465534
000580 9d 73 ce df b9 f1 a8 3f 04 84 ff 2b 6e b6 ee bf
       0.048719223566173066 -0.9597693309152651
000590 5a c8 a5 4c 41 0b da bf 0f 5e db 44 8f ea cc 3f
       -0.40693695531002094 0.2259081922736503
0005a0 55 a4 45 63 6a 1d f1 3f 7d 6d 83 da 07 7d ba bf
       1.069681537419702 -0.10347031674193903
0005b0 bb 08 a5 c2 98 af d8 bf 1b 7d c5 a9 2c a6 e2 3f
       -0.3857175732447435 0.5827849689339105
0005c0 14 3d 0e b6 f6 cc d8 3f eb 2a 03 2f 20 7d df 3f
       0.38750999239796724 0.4920120677094661
0005d0 2e f1 ab 6c a4 1d f1 3f 81 1f 03 3a 60 d9 d4 bf
       1.0697368855463298 -0.3257675711179147
0005e0 63 0e de 61 c1 2c f6 bf be 7f 72 22 c8 68 a8 bf
       -1.3859266112275683 -0.047674421505916595
0005f0 7e c9 46 4b b6 ff c4 bf cd 48 11 ba 97 23 d7 3f
       -0.16405371356593074 0.3615474049630734
000600 16 48 ff a4 15 a0 e4 bf 7a a9 8d 3d 3f e1 b3 3f
       -0.6445415709115447 0.07765574696319347
000610 22 b7 91 35 2c 7b ed 3f fa e1 85 18 58 bf c4 bf
       0.9212857290528726 -0.16208935925875761
000620 ff 81 ae 66 90 03 d8 bf 08 6c 13 15 59 d0 c8 3f
       -0.3752175333738989 0.19385827569098546
000630 d1 bd f1 7b b4 8f dd 3f 1e d6 65 b4 ed fb c6 bf
       0.4618960581201153 -0.17956324871526957
000640 99 51 6e 04 ba 78 f6 3f f3 21 f6 79 ef d9 e6 bf
       1.4044742749293617 -0.7141034490642241
000650 91 d0 21 c5 91 4e e0 3f db dc 7a d6 37 8f e6 3f
       0.5095909929500683 0.704982680231207
000660 1f 61 96 91 a1 91 da 3f aa 91 6d eb 72 81 92 3f
       0.41513861863633567 0.018071933383355145
000670 da ef c9 3d b7 50 ef 3f 41 70 6e da b6 87 f1 3f
       0.9786030012905897 1.0956333668209626
000680 36 45 e1 7b 10 60 de bf e3 45 24 4e 6c 2e 86 3f
       -0.4746133050694711 0.01083073247403638
000690 1b 8f a6 66 95 a7 ef bf b8 60 13 71 d1 23 f3 bf
       -0.9892069821257538 -1.1962446610469168
0006a0 48 ad f6 6f c6 51 ee bf ce c0 8e d1 91 1f bd bf
       -0.9474823176182463 -0.11376296392586768
0006b0 37 2d 49 e1 ae 77 e1 3f 52 05 73 75 7b e7 e0 bf
       0.5458597564806159 -0.5282571119243278
0006c0 96 02 64 24 20 aa b4 3f 70 ce 7f 49 5a b2 b9 bf
       0.08072090996211964 -0.10037769598403101
0006d0 e5 e0 e5 4b 62 b0 bb 3f 4f fe bd dc 52 b8 e5 3f
       0.10816015580155953 0.6787504493112894
0006e0 4e 95 66 4a 05 3a ee bf 79 3e f1 5f ee 89 f1 bf
       -0.9445826008929232 -1.0961745975254458
0006f0 5a 83 4b 21 05 61 6d 3f a4 3f cc 90 c6 d6 d6 3f
       0.0035863018223242617 0.3568588651696649
000700 e3 1f 79 c9 85 9f d7 3f f1 a3 3d 9f 53 d4 00 c0
       0.3691114871512566 -2.10367512137281
000710 4c d3 88 14 9f 12 e5 3f da 6b 14 04 6e 70 bf 3f
       0.6585231209815929 0.12280929183582093
000720 eb ff c3 e6 02 fe c5 bf cd ab 9b ae a1 17 fb 3f
       -0.17181431072094652 1.693269426405766
000730 26 25 be 78 7f 60 e7 3f 84 95 a6 ae 39 3f e3 bf
       0.7305295332199975 -0.601467934717832
000740 ec 13 bf 98 00 5e e2 3f 9c 80 6b f3 d4 a5 e0 3f
       0.5739748938873368 0.5202431444449931
000750 4c b4 cf f1 f9 e8 e4 3f b1 f5 20 08 1b 95 d4 3f
       0.6534394953611211 0.32160068315337315
000760 dc 57 5f cd fe e4 e1 bf bc 5f 0c 42 0b f6 c7 bf
       -0.5592035304241523 -0.18719616627708813
000770 1a b1 d9 04 84 a5 d1 3f b8 9f b2 de 02 78 de bf
       0.27572727655093987 -0.47607490299059974
000780 cb 02 3e 73 5c 0c df bf 58 73 fb 94 d2 80 d5 bf
       -0.4851294637119678 -0.3359877066521242
000790 97 ea 73 6a 80 62 e4 3f a0 9d ee 67 63 38 f6 3f
       0.6370241240650384 1.3887666759345407
0007a0 c7 1e d3 6c 47 d0 ea bf 79 da 77 db c9 a0 cd 3f
       -0.8379246831400103 0.2314693757650337
0007b0 41 80 76 b7 ff 42 01 40 24 b7 60 05 da 47 f8 3f
       2.157714303306449 1.5175419054098223
0007c0 18 7e 81 95 2f 42 d4 bf 4c 85 7b 3d 6b b1 e6 bf
       -0.31653966522387256 -0.7091575814085131
0007d0 11 29 f3 39 1f ed e2 bf fd ee 69 99 c8 cd cf 3f
       -0.5914455539544027 0.24846751681240412
0007e0 cf f0 43 f8 91 4b f9 3f 1b c9 e7 a4 38 2e f1 3f
       1.5809497545115396 1.0737844888322516
0007f0 3e f3 9f f9 61 f4 db 3f fa de cb dd 0a f5 d2 bf
       0.43679093720838924 -0.2962062040310084
