data/processed/deep_mlp_b2.npy (npy, 2176 bytes, 1 tensors)

array f8 [1, 256]
00000000: 6ff3 3af7 470e 58bf 0ca7 4199 feac 5e3f
00000010: 9d21 84fb 353b fdbe bafa c961 f081 4b3f
00000020: 9781 d9dd edb1 53bf 2a7f 84ac f5ba 603f
00000030: e0eb c1ae 9914 5fbf 2b7f ace0 a6aa 5e3f
00000040: 4895 b3e4 8aa1 6cbf 1f87 696d 2512 213f
00000050: c1d4 d392 b32c 56bf a634 bc70 9f38 40bf
00000060: 35b8 09dc c86b 47bf 0e91 13d0 8297 31bf
00000070: d3d8 b974 9c97 56bf 2b36 c7cc 1c9f 00bf
00000080: 8e70 c89f 5806 593f 4f82 e78d dcb7 5d3f
00000090: dcb9 2118 b052 30bf 9ee6 5361 aa59 333f
000000a0: 1f81 c0b9 1f38 503f f547 f887 897c 3cbf
000000b0: d0ff 2798 47c5 593f 5a7b 9d53 256c 6dbf
000000c0: 3452 7a0f 395a 5cbf 1d8c 814b ae2c 37bf
000000d0: 6131 f7ef c77e 51bf 2425 2325 6500 32bf
000000e0: 791d a3fa fa49 67bf 6377 7484 5abb 1f3f
000000f0: 42b9 1f07 39bc 493f 37ff 4da4 00ff 5d3f
00000100: 5053 0e56 87c6 613f 1863 84c7 e250 21bf
00000110: 0000 0000 0000 0000 7f1c fdc5 8d00 4a3f
00000120: 4330 8a78 4daa 71bf 5cbb 70db 009d 443f
00000130: 6af1 c91a 4c79 6e3f 1be8 09a3 18cc 503f
00000140: 39b1 eef4 7303 493f 17fc 818e a1e3 283f
00000150: c0f5 4e0c 9296 383f 6949 2927 ba17 49bf
00000160: 432b 1ba6 f7c3 133f 6be6 d40a 03a1 563f
00000170: 2bfd 17ab 284e 233f 76b0 ee7a 629d 623f
00000180: b922 c9c9 df33 5f3f f58e 760f 6111 2d3f
00000190: 01e8 6b25 b614 58bf d7be 94b5 8971 613f
000001a0: ad83 9bf0 d59c 4b3f 8357 08b3 78e7 26bf
000001b0: 4263 c282 71d2 1f3f 3a9d 4ad8 4bd1 5dbf
000001c0: 52c2 9143 e9a6 46bf 9811 7871 141d 26bf
000001d0: 06fa 91eb 47c0 463f 4d02 9c80 5901 60bf
000001e0: 339e d221 6a19 5fbf 9cd9 af36 1c04 1abf
000001f0: a6d0 2ecf 755b 693f a751 24de cf16 393f
00000200: 5db6 8835 021a 4c3f 4c93 5be5 dddd 0dbf
00000210: fc29 fcb8 9d67 2a3f 0000 0000 0000 0000
00000220: 1d46 9d1e 569f 233f d488 b790 0c79 783f
00000230: af33 5d6d c5f0 4b3f a78a bf4c 695a 543f
00000240: e4a5 1602 5af2 503f 3c77 2cbd dd9e 523f
00000250: 05c4 4687 911c 5abf 4811 73e0 464f 6a3f
00000260: 0668 e3a2 bc72 5a3f bfe9 154b 4d8d 5dbf
00000270: ab0c b0a0 050a 303f 8a7d 8592 6f1f 16bf
00000280: 4386 8acc 364a 453f fed8 593b 2cb6 52bf
00000290: fe95 ea4e b9d8 43bf 6f67 2a98 1dd4 44bf
000002a0: 0000 0000 0000 0000 e59a bff0 0982 5a3f
000002b0: 52d6 180f 7c0d 223f ce8c b74e 7148 603f
000002c0: f8e0 b107 ad68 48bf 7881 6d36 d5a8 5e3f
000002d0: 9d32 6967 aa2f 5b3f c99f 0630 b93e 5d3f
000002e0: 977b 187d b056 50bf 0fe4 7d5d 3fd8 42bf
000002f0: f764 3516 ace5 613f 989d d65a 2176 613f
00000300: 2342 6f0c 11a2 533f 0ea9 58ce 5766 46bf
00000310: aba9 ae8d f6f4 42bf e1e5 c7b1 7595 39bf
00000320: 20a0 bca5 66fa 1a3f 0749 48db 57a8 44bf
00000330: 8781 aae4 1c57 4ebf 6d63 6fe8 6b30 383f
00000340: 0603 46ee 15b6 62bf 4e95 8852 de88 703f
00000350: a95c 8e11 3d41 45bf 7bc5 225a e573 5ebf
00000360: 78d7 f9b1 fb3f 59bf 45a2 cb29 dc14 4ebf
00000370: 09cc 2e61 3ff4 68bf f283 b338 6989 553f
00000380: 93d7 ba9c 241f 293f 2e15 390a 45e4 3dbf
00000390: 0000 0000 0000 0000 8ad0 2c8c 4bc6 6cbf
000003a0: ed07 9004 b078 603f 617e 43e0 49dd 63bf
000003b0: 5708 c113 c7e5 343f b593 19fa b57e 50bf
000003c0: df37 8993 690e 51bf 0000 0000 0000 0000
000003d0: 775c 495e eb25 5dbf 6112 dea0 99a1 603f
000003e0: 9c7d 4342 c40b 54bf 3463 cdbd 5442 583f
000003f0: 4978 28c5 5ee6 53bf 8d73 363c 6f33 43bf
00000400: 7dfe 2d8c 0cec 48bf cc89 ca4e dd5c 36bf
00000410: c133 7fbf a28a 5f3f 0000 0000 0000 0000
00000420: 880e c0d6 12fd 61bf 4aeb 842c c63f 4e3f
00000430: 966f 2187 eb62 32bf 9c8a b986 ecb8 29bf
00000440: c48f 7891 cffd 11bf f0ec 832e c65d 413f
00000450: 2dd3 9b4d f4cb 29bf a85c 779a 2106 65bf
00000460: 8e94 e00a b0f1 313f cba0 e766 a122 53bf
00000470: d4bc 0020 24a4 593f a6cf 7913 12ab 5fbf
00000480: b49a d074 f838 573f 9bc5 fcda 9bb5 5d3f
00000490: d365 0796 eef7 5bbf 48fd 3c95 348a 553f
000004a0: cdb3 4ab3 de1d 67bf a2d7 b121 7727 493f
000004b0: be36 664d cb9d 413f 93f7 8831 329b 3ebf
000004c0: 27bd e71b dcec 44bf 4ba8 11e7 09c2 6abf
000004d0: 9cef f931 3b55 653f ac81 ea4f 091d 38bf
000004e0: 254c e8d6 1239 233f 8b34 3d2d e5f5 233f
000004f0: 24a8 7b8b c7a5 60bf 7d41 d2d6 e232 5e3f
00000500: 1e2b bb7e 2baa 653f 3b2c 5017 d75e 463f
00000510: b5d6 c0db 8aa2 6e3f 5c05 0615 8981 393f
00000520: f08e 6b8c 3d7e 693f c58a 331e ba55 53bf
00000530: 43f2 bd63 d3a2 643f a032 1659 fc0a 42bf
00000540: 2043 13ed d722 3c3f 5e63 e4ca e238 47bf
00000550: 80ed 71f2 5c72 6e3f 6484 f25b ec6c 533f
00000560: 843b 2ccc a779 2b3f 7c60 dfee fc51 293f
00000570: ac09 12e7 d6e3 5abf 68fc 5fa6 41d9 53bf
00000580: bfa3 6841 188f 5dbf 8fb8 2f9a 3b3e 66bf
00000590: 6717 4578 2435 653f 51d8 4a99 e231 41bf
000005a0: 2435 3e35 cb25 51bf bed2 ebbb f616 ffbe
000005b0: 08c5 1a35 432e 4a3f d282 aed5 3f57 423f
000005c0: a109 0e76 d62c 53bf b217 2d21 09ac 37bf
000005d0: 68b7 62c9 3b48 57bf 7778 a26b a013 60bf
000005e0: f63e 6c1b f030 353f 319b af65 e210 693f
000005f0: e3f4 a40a 0c14 3b3f 4484 2ebf a89f 64bf
00000600: 2d76 d9f6 ff98 513f b2bf 0f18 ecc8 573f
00000610: 2993 8c7e 827e 303f 0000 0000 0000 0000
00000620: 297c 4226 f3e2 573f aa4d 386e 5c3f 58bf
00000630: 3879 0475 7900 44bf 181b 0f50 457e 51bf
00000640: 6c09 e96d c8c9 573f 61b2 6074 1ec9 563f
00000650: 9a6f ba64 a06e 5e3f a352 354c 1581 40bf
00000660: d461 b5fd 24ea 603f fa09 62e7 f483 43bf
00000670: 3db1 3490 b4c1 783f 8447 3bd0 31ec 34bf
00000680: 50bf 17e1 ae11 6b3f fb7b 83fe 8813 3c3f
00000690: f7eb 617e 9f8c 4dbf 7b11 1a04 a22d 58bf
000006a0: 2ecb aa4c b63d 4ebf 6e59 73c2 136f 0dbf
000006b0: 0a33 7bfb 5252 503f 1c93 af7d 55ea 43bf
000006c0: ce03 8bb1 17bb 653f faf2 ec15 9366 443f
000006d0: cc6f a334 d394 5bbf 21dc 1b04 aceb 35bf
000006e0: a358 ddd8 a21c 233f 6525 e964 82da 41bf
000006f0: 49f5 bfa7 843c 34bf e80a c62b e43f 593f
00000700: 7fa7 8c3d d8de 213f 1326 142d 6cc7 593f
00000710: ee3b 755c 0f91 45bf 036f 7127 add9 3a3f
00000720: 25a8 6d1c a96a 633f 1c81 1d43 ecab 64bf
00000730: 84ea 72f9 aef5 623f d29e 8197 3137 33bf
00000740: 5b85 7a17 2d3e 4cbf 9379 b164 abf3 70bf
00000750: 58c3 4916 9d16 73bf b79d 8bd3 dc23 543f
00000760: b793 47e1 940c 40bf d699 135a 20a7 603f
00000770: 10d4 0ac8 e11a 143f 0000 0000 0000 0000
00000780: 3d1c 3db2 fc40 6c3f 4cc0 7cde 0d59 6f3f
00000790: 3883 1e95 eb47 5ebf 36cb b491 4d1f 07bf
000007a0: a03a c876 a305 64bf 3b63 bfca 7699 4b3f
000007b0: 2a1d 214b 3c40 37bf 253e 75fb 8628 67bf
000007c0: e132 42f8 a068 56bf ff37 acc2 5f4e 57bf
000007d0: 3cbf d238 4e17 5e3f bf85 7c65 4e3a f1be
000007e0: 26c2 ac9d 082c 40bf 8252 74a9 6aab 61bf
000007f0: 00ca d3a2 3495 36bf cc40 29be 8a24 623f
-0.0014682486334287278 0.001872299796583157 -2.7877132851934783e-05 0.0008394645443131267 -0.001202089587785426 0.002042274314717836 -0.0018970013434500485 0.0018717412628532308
-0.0034949982415236926 0.00013024050595605242 -0.0013534310958765313 -0.0004950312154236205 -0.0007147532233611255 -0.00026843017265167155 -0.0013789203539125619 -3.170305862774629e-05
0.0015273919553982248 0.0018138555384369542 -0.0002490692060125568 0.0002952614753009927 0.0009899434871912317 -0.00043466909116418535 0.001572914043777008 -0.003591607001836844
-0.0017304951888138633 -0.0003536153340119601 -0.0010678246033989024 -0.0002746817527961734 -0.00284289378496155 0.00012104740118387478 0.0007853773552122594 0.0018308168666578259
0.0021698611530588732 -0.00013211029341488804 0.0 0.0007935230496308869 -0.0043128038602269795 0.0006290678201191602 0.0037199484270883836 0.0010252228350098372
0.0007633510775711178 0.00018988940360384406 0.0003751856386847406 -0.000765767951018054 7.539938954008195e-05 0.0013811616621083554 0.00014728781165727323 0.002272312492513302
0.0019044576103103685 0.00022177038020487037 -0.0014697817584292674 0.0021293344149383264 0.0008426708820615713 -0.00017474506741227075 0.00012139146628199502 -0.0018199196503390761
-0.0006912840828033429 -0.00016871332694291525 0.0006943083927948852 -0.0019537685483331014 -0.0018981491514668102 -9.924337579989565e-05 0.003095369430832734 0.0003828294267276496
0.000857592657728733 -5.696614668496708e-05 0.00020145225834540526 0.0 0.00014970709099286573 0.005974816401677258 0.0008526767730728714 0.0012422588651978346
0.0010343436227720987 0.0011365094584969279 -0.001593725316620943 0.003211630278743414 0.001614269461745811 -0.0018037085359013797 0.00024473798174557787 -8.439177020624057e-05
0.0006497161458193862 -0.0011420661880073286 -0.0006056694818041273 -0.0006356377128497857 0.0 0.00161791773552416 0.00013773097411877655 0.0019876683270339873
-0.0007449002145128161 0.0018713075785044813 0.0016593135930122245 0.0017849739525477185 -0.0009972308656711387 -0.000575095119514592 0.002184711558282811 0.002131524225393821
0.0011983076562850435 -0.0006835869541579624 -0.0005785182832956278 -0.00039037822151008315 0.00010291339407031462 -0.0006304196345488241 -0.0009259120063980644 0.00036909708472659155
-0.00228409083700887 0.0040367779224984145 -0.0006486461817186889 -0.0018586864248784907 -0.0015411336861723395 -0.0009180140510496945 -0.0030461538203439037 0.0013144996217351293
0.00019166299749933928 -0.0004561108164334468 0.0 -0.0035125232256181848 0.002010673317728076 -0.0024248545542915755 0.0003188715961678404 -0.0010067727202109748
-0.0010410338419606297 0.0 -0.0017790602224943255 0.0020301819376434137 -0.001223508509660443 0.0014806582978136975 -0.0012145925035223096 -0.0005859654560712455
-0.0007605611102547563 -0.00034122851392673066 0.001925143178584707 0.0 -0.0021958702036515877 0.0009231298109065669 -0.0002805542964148198 -0.00019624602588226992
-6.863192935974068e-05 0.0005299775775990095 -0.00019681317535682458 -0.0025664001766290863 0.0002738051215394687 -0.0011679245177394378 0.0015650131972611463 -0.0019328762554353478
0.0014173914271481793 0.0018133184457379329 -0.0017070608083627938 0.001314689016865449 -0.0028218602768306012 0.0007676440904009661 0.0005376093566142532 -0.00046701407839921347
-0.0006385874510765097 -0.0032663529787458115 0.002604117980636601 -0.0003679416403574952 0.00014665942167421775 0.00015228674475978687 -0.0020321748123608586 0.0018431868768723208
0.002644619895226254 0.0006826925515509627 0.003739615638575023 0.00038919064265748537 0.003111953937478755 -0.0011801068838443324 0.0025190476134737973 -0.0005506260078376908
0.0004293229258794263 -0.0007086856255994302 0.003716641938408649 0.0011856373019230254 0.00020961926755843849 0.0001931782966824203 -0.0016412352236164591 -0.0012114659416509136
-0.0018041359777589553 -0.0027152217967261814 0.0025888168621887478 -0.0005247456016011042 -0.0010466083958563044 -2.964945064838869e-05 0.0007989719544722338 0.0005597173397867367
-0.0011703581187424222 -0.0003612062729881862 -0.0014210304121138 -0.0019624837123748923 0.00032335149755711946 0.003059808904697724 0.0004131822012317222 -0.002517537673569355
0.0010740756655630665 0.0014517121892332172 0.0002516811933211288 0.0 0.001457917643200588 -0.001479950203138051 -0.0006104081203693107 -0.0010677029497274167
0.0014519173925156793 0.0013907239349563382 0.0018574301092604052 -0.0005036691658611602 0.0020647737962173705 -0.0005955644435434164 0.006044106793791135 -0.0003192540755040318
0.0033043304072108218 0.00042841047844704967 -0.000901773336195232 -0.0014757234752390258 -0.0009228840002236444 -5.6140699877071636e-05 0.0009961901068208955 -0.0006077687679605123
0.0026526892437179544 0.0006225794021258162 -0.0016834318690177484 -0.00033448171244238224 0.00014581191902135913 -0.0005448471727699632 -0.00030878294614907327 0.0015411117775278541
0.00013634099630027358 0.0015734249503246464 -0.0006581616407091964 0.0004097030391159025 0.0023701956701431986 -0.0025233854766356766 0.002314416643995289 -0.00029320679414588963
-0.0008619041609173971 -0.004138631348807559 -0.004660237904872876 0.0012292534358325621 -0.000489781089126332 0.0020328170654579742 7.669451771159818e-05 0.0
0.003448957011559921 0.0038266440277752497 -0.0018482018099136976 -4.410224411301735e-05 -0.0024440949112041893 0.0008422689475039222 -0.00035478088387149115 -0.0028269420978757225
-0.001367718884497986 -0.0014224944267797743 0.0018366111647018643 -1.6429671034439696e-05 -0.0004935304708393914 -0.002156933139881468 -0.0003445867067305708 0.002214690191330337
