data/processed/deep_mlp_W4.npy (npy, 524416 bytes, 1 tensors)

array f8 [256, 256]
0	0xbf88430ded60aefa	-0.011846646124545657
1	0xbf8465bc89efb3a4	-0.009959671935541987
2	0xbfb67dcdda1ccdda	-0.08785711836826895
3	0xbf77579364c8c9c0	-0.005698753124806222
4	0x3fc4ca77f3fcc220	0.16242885030216403
5	0x3f7d22f6c7b58128	0.007113422379319702
6	0x3fb4b29a94afd380	0.08085027818726864
7	0xbfbee6a15b83c79d	-0.12070663913962539
8	0xbfad89bbac6bfe17	-0.057691445157612424
9	0x3fa8a577397ad7ec	0.04813740326555646
10	0xbfb5063253337c36	-0.08212580233838271
11	0xbfb72a88e6de90cb	-0.09049277912578473
12	0x3fb3a31a9ad6d58f	0.07670751838926136
13	0xbfb15b76e98418cf	-0.0678018875224524
14	0x3fa40b1509413b53	0.03914705026601575
15	0x3fa0801dcb895260	0.03222745046210629
16	0xbfb48e34da44c7e5	-0.08029489830803944
17	0xbfb0f298bafbfd6d	-0.0662017303948141
18	0x3fb31ce0700b9c6f	0.07465937362177198
19	0x3f8e02b7468ddd3c	0.014653617706911086
20	0x3f86976430f15fca	0.011030943626039309
21	0x3fb059e956bb8560	0.06387194030277987
22	0xbf97fcd0ffd6b933	-0.02342535554424181
23	0x3fbbed30d2994aa9	0.10908799306461482
24	0xbfbd5d72c51ce6ff	-0.11470715820624021
25	0xbfb9a14e364057af	-0.10011757683272891
26	0x3f9b67acde03b7c6	0.026762677241030784
27	0x3fac3a3e4d7e4c16	0.05513186164821364
28	0xbfad589818e09891	-0.05731654456785507
29	0x3fb1003785a89d64	0.06640955937529253
30	0x3fb991ffd3beb1c8	0.09988402289918163
31	0xbfbce57f892391bf	-0.11287686441534726
32	0x3fb47c4402acae27	0.08002114358230782
33	0x3f91b293c209ea76	0.01728278037851757
34	0xbfab5e10ced247aa	-0.053452039000276244
35	0x3fcd3aa0aba3b0e0	0.2283516729434103
36	0x3fc7797abeef20df	0.18339475939706681
37	0xbfb3e2d062575d48	-0.0776796569910988
38	0xbfadb8f1aa60440d	-0.05805163578782677
39	0xbfcb24546fcc8063	-0.21204619845321124
40	0xbfafd195162b9c60	-0.06214586158403601
41	0x3fbb8beb8acea279	0.10760376108977167
42	0x3fb817e669181a34	0.09411468568587439
43	0xbfb566389ed5b564	-0.08359102132609092
44	0xbf9a6355a38f1e90	-0.02576955614838866
45	0x3fc63fa2dede7bfb	0.1738170231082846
46	0x3f817e11df2e9ed5	0.008541240333058845
47	0x3fa3f1f60402f947	0.03895539092035221
48	0x3f98c90a95788c66	0.02420441186235358
49	0xbfc422c253a41e52	-0.1573107632068394
50	0x3fbdab5e1167050b	0.1158961098181132
51	0xbf96389ae1b09663	-0.021700305962573895
52	0x3fa8c21ff6312877	0.04835605507158019
53	0xbfa9453e2fe7aa79	-0.04935640654351387
54	0xbfc053f5c4c3f565	-0.12756225688637382
55	0xbf99d7ad8f250b7b	-0.025236808645114444
56	0xbfa1176a8a73db4d	-0.03338177623839176
57	0x3f89bb0ddfe03471	0.01256380881752703
58	0xbfb1286e08cedada	-0.06702316012420387
59	0x3faebca24270adac	0.060032911882753254
60	0x3fc171946878dbb3	0.13627867795159218
61	0x3fb87f717ec19823	0.0956946310485312
62	0x3f7f40fbfc790cd5	0.0076303332530784545
63	0x3fb215e325d4da39	0.07064647363299849
64	0xbfa64d2be1fc2805	-0.04355752118688375
65	0x3fae238f6c7149e9	0.05886505316506769
66	0xbfb2223b6040aaf0	-0.07083483791272349
67	0x3fa31a37ee2596d1	0.037309406109483974
68	0xbf57769eb14d87bd	-0.0014320897800747933
69	0x3fbca6cd1e1791a0	0.111920184942909
70	0xbfa48795557fc407	-0.040096918761158
71	0xbf9a16d06c9d2629	-0.02547765410353101
72	0x3fa4bcdee55c2c1d	0.040503468988468884
73	0xbfab8f69b39bcea1	-0.05382852857101495
74	0xbf82be3f1b4cc885	-0.009151928921344652
75	0xbf97277e96374f54	-0.022611596983394947
76	0xbf9690c653ec53e6	-0.022036646721136942
77	0xbfa63cbd6c65c29d	-0.04343215892993622
78	0xbfb488af214e18f8	-0.08021063387977623
79	0x3fa591fb1cc75005	0.04212937094021644
80	0x3f9b25faa328e3c7	0.02651206608627257
81	0x3fb5ab6c4c221017	0.08464695795743214
82	0x3f99535c5cf38e8c	0.024732058690359923
83	0x3f981763d0af7bae	0.02352672539916128
84	0x3f5bdef06bb21ca7	0.0017011020525233096
85	0x3fbe304f67df30dc	0.11792465482648445
86	0xbfbee22b7a537b7b	-0.12063857780911562
87	0x3fc1fa9e743ae35f	0.1404607837228253
88	0xbf917be467b9d338	-0.017074173766064876
89	0xbfab863822cb1da3	-0.05375838684772851
90	0x3f950bbeb9191977	0.020552616164672934
91	0x3fa3bdf82af7d7c9	0.03855872654450782
92	0xbfb42150e9bed3d6	-0.07863336283374109
93	0x3fb74d6791395e9d	0.09102484984884503
94	0xbfa45efdadbd9e4f	-0.039787223299580725
95	0xbfa3370adab4352a	-0.03752931518293175
96	0x3fb7e0faa63db342	0.09327665861719672
97	0x3fd4dd6984cf82ca	0.32601392717155575
98	0xbf9102b5771ac7d8	-0.016611895937508198
99	0x3f8a3f333469b689	0.012815856968894994
100	0x3fbc9cccaf61ef6e	0.11176757127571843
101	0x3fc2b30b0bc0834e	0.14608896325901316
102	0x3f933f16879f67e3	0.018795349147559547
103	0xbf99a8f594a5646e	-0.025058591077457164
104	0xbfab4f9999535293	-0.05334167477272902
105	0x3fba0153dd67dc3b	0.10158275752461148
106	0xbfb7d390553d1cfd	-0.09307195740722203
107	0x3fb324eb772ae57a	0.07478210124363285
108	0x3fb62029570c0986	0.08642824530764956
109	0xbfc47b658df87ef1	-0.16001576835787248
110	0x3f7a680255a6f8d3	0.006446847075890899
111	0x3fa64d8b6475f543	0.043560367596891435
112	0x3fb3da4c7e0d5fe2	0.0775497253174531
113	0xbf9d9e571ecb1037	-0.0289243328613937
114	0x3fb413a776dba314	0.07842489864163965
115	0x3fb02001731594fd	0.0629883676497975
116	0xbfbc2c5e7bd1c61d	-0.11005201838431629
117	0x3f74366359f83010	0.0049346810260537805
118	0xbf85412bc4b8f32f	-0.010378210011475623
119	0x3f8fd9b7640c61c6	0.015551979771360257
120	0x3fbe7d08b56f824d	0.11909536771373404
121	0xbfae9ba1ed3243af	-0.05978113193953704
122	0xbf93e34b65829aa0	-0.019421747275056078
123	0xbf937ae5ed3d2a7d	-0.01902350674144281
124	0x3fa5f68ae25baba9	0.04289659512672667
125	0xbf9bcc84b4954776	-0.0271473632067862
126	0xbfc052a67e819723	-0.12752228905736115
127	0x3faa39ac6741d934	0.05122126350845449
128	0x3fa38479b0d298c1	0.03812008174399884
129	0x3fb41d8273b19cf0	0.07857528042369544
130	0xbfa06612060d43c6	-0.032028735388514515
131	0xbfc80d8d74b64784	-0.1879135913737252
132	0x3fc03c7ef07ab7c1	0.1268461870399147
133	0x3fb9f80f983c1667	0.10144135920207874
134	0x3fbf778c142992df	0.12291789524313
135	0x3f96ff9185a9f475	0.022459291251369657
136	0x3f9e06edd1808230	0.029323306953417283
137	0xbfb464bbf7d6d0c0	-0.07966208267936548
138	0x3f9a0ef0beb2351e	0.02544761814038054
139	0x3fadbf79e2177206	0.05810147175700213
140	0xbfb587f4e35df036	-0.08410578299475521
141	0x3fb1f2b4999e799a	0.07010964155640523
142	0xbf9e4ba3da5d091f	-0.029585418894620404
143	0x3fb6dbc9c2726921	0.08929120061148811
144	0xbf983828f8422222	-0.02365173354385964
145	0xbfa36e67e3c3f77c	-0.03795170455303684
146	0xbfacb8662f674c92	-0.056094353949128664
147	0xbfa137c0dcef0b64	-0.03362848946519284
148	0x3fa1bad0c1ca48c0	0.03462841382601445
149	0x3f9e7509a7b70f9c	0.02974333845283149
150	0x3fbbb4de88cb3dfd	0.10822859611220532
151	0xbfb0afdd0b807327	-0.06518346339039437
152	0xbfab5dff1d2474c9	-0.0534515116762378
153	0xbfa78ab5ce3ada09	-0.045980149673983624
154	0xbfa6243480b6451a	-0.04324497290793712
155	0xbf927284c3c2dcd2	-0.018014978836359337
156	0xbf9c3ea998fcefaf	-0.027582788431786017
157	0x3fc450dda777b35d	0.1587178294861599
158	0x3fb0e463c2c68eab	0.06598495011581444
159	0xbf949ecdc486b978	-0.02013703834534783
160	0xbfb3efe8a482af2c	-0.0778794671666076
161	0x3fb8a0d70cf763de	0.09620422426759442
162	0xbfc90e480f5d48e2	-0.19574833631720084
163	0xbfc51d1419da090d	-0.1649499059895522
164	0x3faa18ef4fa52b53	0.050971487495721356
165	0xbfb92b46e2d29382	-0.09831660306606518
166	0x3f7710fd9b92beed	0.0056314379263964045
167	0xbf973609a9a0cfe8	-0.022667075136453635
168	0xbfb1b907d16b4426	-0.0692295919682385
169	0x3fc6d1e84d0026f2	0.17828086623949663
170	0x3f88a0a530e7c2b2	0.012025156550380476
171	0x3fa05401fd9c17be	0.03189092846700657
172	0xbfbd5fe379d44d7c	-0.11474439358089755
173	0x3fb2d373f44e429c	0.07353901590819095
174	0x3f30b3edf5828445	0.0002548652605672312
175	0xbfbf997f8223eb59	-0.12343594481710109
176	0x3f8319f3e438da69	0.009326844599042166
177	0xbfba0bd1168e358d	-0.10174280930205822
178	0xbfc643ba7d143cac	-0.17394190890670325
179	0x3fc38028819a0450	0.1523485787220431
180	0x3f7e4c80c150c77a	0.007397177648316483
181	0x3fbbc4742b26e47e	0.10846639684213419
182	0x3fb518eed9929c33	0.08241169750054737
183	0xbfaf46c6d2127e33	-0.061086857932647474
184	0xbfb60992f4065e58	-0.0860835881961689
185	0x3f7bca76ea047bd9	0.006784882076572318
186	0x3faeb64fe04bc0a8	0.059984680299636495
187	0xbf98ff6ed91f8f9d	-0.024411899568704255
188	0xbfbbe0867cea2860	-0.10889473485636492
189	0x3fc078c411c3ea4f	0.12868548266836163
190	0xbf9f6b736630476a	-0.030683329689117946
191	0xbf4652c59e9cbf73	-0.0006812539042808499
192	0xbf8c674cd5d2907f	-0.013868904376359346
193	0xbfb19128ac052698	-0.06862119865140881
194	0x3fb27f4426b6de4f	0.07225442834066452
195	0x3fb0529c5530aaf8	0.06376053886257782
196	0xbf97d717cb146a1b	-0.023281451959613713
197	0x3fb84c0ea67c75a8	0.09491054119685904
198	0xbf9422d24f01d419	-0.019664083549702924
199	0x3f8991b4aba287c0	0.01248494290149782
200	0xbfb1aaf90eaa0926	-0.06901508911144968
201	0x3fa51552b7931b10	0.04117830744649187
202	0xbfa73d782a8835ef	-0.045390849296477735
203	0xbfbf48d4cec3bcb6	-0.12220506713832688
204	0xbfa30a1afaa0f5f0	-0.037186472982721486
205	0xbfa20e8e3110b1bc	-0.035267299165159
206	0x3fab35ba30e49573	0.05314428183400368
207	0x3fc7f24194550ac6	0.18708057158263197
208	0x3fa8ee6741051225	0.04869387310694532
209	0x3fb40066a51bea5f	0.0781311181162123
210	0x3fa3d18438c394ab	0.03870785897178427
211	0x3fa46a824c7a4d4b	0.039875099025403836
212	0x3fb3bcbd04631f0c	0.0770986686430854
213	0x3fb603448759239c	0.08598736099624066
214	0x3fc05f2c3d409f9e	0.12790444365350323
215	0xbfb6c4746e20a099	-0.08893516243608914
216	0x3fb8630f2cf66a2e	0.09526152465552037
217	0xbf840936ac05c877	-0.009783198475563843
218	0xbfbd16f0888e0ca9	-0.11363128026828186
219	0xbfb8cbe4248ca03b	-0.09686113254849797
220	0x3fb8ad352d9be081	0.09639294017313384
221	0x3fae5351b1f979d7	0.05922942445316764
222	0x3f7eb87fbd57ee36	0.007500170691396904
223	0x3fb48554547daaf9	0.08015944540754195
224	0x3fa2e0119d56ef6e	0.0368657593312197
225	0x3fc9130def2788ac	0.19589399507009853
226	0x3fbdf0194a802d9a	0.11694486683716435
227	0xbfa409835161367d	-0.03913507812886239
228	0xbfb577754ff0aa4b	-0.0838540382543808
229	0x3f8e291d5e52f85e	0.014726857605975304
230	0xbfade602e77d5379	-0.058395472295763313
231	0xbfba058e1e0db474	-0.10164726480225444
232	0x3f96f76a03188eec	0.022428184927902814
233	0x3faf2a667717dc61	0.06087036327147
234	0x3fbceb2a61b417fd	0.11296334157313477
235	0xbfc0fe1727785885	-0.13275422503710757
236	0x3fb3bbe12116bfdb	0.0770855623038637
237	0xbf8aac9e08081779	-0.013024553890328626
238	0xbfb99d69067ccbfa	-0.10005813988099979
239	0x3fbb82f024aac81d	0.10746670623009931
240	0xbfc1a10b48590f60	-0.13772717506992205
241	0xbfa767010c11151b	-0.045707733843793195
242	0xbfbdfd652d64c3bf	-0.11714775427095868
243	0x3f9726add0a1739a	0.022608486040883592
244	0xbf7a1c120dd82b67	-0.006374426387547461
245	0x3fc16c635f094c6e	0.1361202444119018
246	0x3fb82677caea1076	0.09433697418177353
247	0xbfc0be3c871e5649	-0.1308055553205796
248	0xbfc0ddd410b63390	-0.1317696649170128
249	0x3f7ac92ca5038858	0.006539511101637606
250	0x3fa1ae41b2a18cf0	0.034532597594784664
251	0xbfc006bda4b024c7	-0.12520571271332967
252	0x3fa2d4cf4b1d7e55	0.036779859465920474
253	0x3fb110185d1d39db	0.06665184281630536
254	0xbf95b3d17d028e39	-0.02119376492977507
255	0x3fa3d0a5761e03f4	0.03870122019635139
