data/processed/deep_mlp_b3.npy (npy, 2176 bytes, 1 tensors)

array f8 [1, 256]
-0.0016197138862680948 -0.0003218751319257464 -0.0004375449760417437 0.0 0.0004866840336382736 -0.0003051229353157287 0.00018823974242798466 0.00017788292224447597
-0.0010580504260383479 -0.0005897464776817964 -0.0009992573063587538 -0.0005222402957990376 -0.0012349182871367274 0.0014694663849803382 -0.000580898763703048 0.00042563709306782746
-0.001683366821228406 0.0 0.0005090378370232389 0.0016237799876453482 -0.000734105383392995 0.0020356275915815185 -0.00028879494249959414 0.0011348220726733103
-0.00036268983384852313 0.0036685555780237925 -0.000203610752848144 0.0010604697715998288 0.0012624802840169693 0.00359129965797816 -0.0007287998617323698 -0.00028346330675424247
0.0013588627534791796 0.0005316016750818953 -0.0009532338495516402 0.0 -0.0005160813600944477 0.0003082971671675166 -0.0024159788577290567 -0.00034928243397307766
6.096985642095741e-06 -7.773813250136945e-05 6.827193787221069e-05 0.0003955084919668012 -0.0010194049533319982 -0.0038967093732401327 -0.001864771966279955 0.00029718837789844636
-0.0005242116556257998 0.0016947537634258126 0.0009440756823055406 -0.00038984014196946057 9.383705793522021e-05 -0.0005690685646953932 0.0012998480165660837 0.0001295309053551137
0.0005529924246945934 0.0006634169947350464 -0.001173979272051981 0.0004836353560628515 -1.3571349719980071e-05 0.0019533299204549793 0.0023820506118419206 0.0
-0.0006155147748091895 0.004547885718998092 0.00015479904909881064 -0.0011412939355137553 0.0008165156825783263 -0.0004950631947842569 0.0026869602817210683 0.0021682787941494255
-0.00010887736324352472 -0.0008271799835685953 0.0001348111975736079 9.261056863536978e-05 0.0011665292829707212 -0.00023002412783007872 -0.002983766858367137 -0.00019445566681129968
-1.815004510034747e-05 0.0038810585761295986 0.0 -0.0012399023657080198 0.0 0.0003045880018174488 -0.0018651017457073898 -0.0013070157311473114
0.0011099120264942723 0.0003414997317253482 0.0 0.0015437318965511105 0.0014022047616259533 9.618226714275155e-05 8.498820766883807e-05 0.0004049388461564585
0.0 -0.0006389185716372733 -0.0013103559020518117 0.00264765833867421 -0.0014637737357898423 0.00017696268217354366 -0.002794069045484816 -0.00035894268248512517
-0.002104462203569488 -2.0758496087817686e-05 -0.0005791736426687098 0.0028714015138837186 -0.0007620031866501482 -0.0006084139753218645 -0.0005043031643713549 0.0003467810925943955
0.0010492865372669481 0.0010332179654572117 -0.0013222245518516192 -7.510921837649655e-05 9.264563036122062e-05 -0.0008000762619849336 -0.00012402456435472095 5.309339170794896e-05
8.630803596190275e-05 0.00011729422416205614 -0.0009061113002466921 -0.0002447572573192591 -0.0005066728979981069 -3.617562166508932e-05 -0.00011288753170677575 -0.0016035469568186455
0.00011634282503326196 0.0011377646782905948 -0.00026486278972188347 -0.0017546405069230617 0.0007442555338425449 -0.0006434492789419642 0.005324233428195999 0.00013112286272131505
-0.0006001474333038544 -0.0025258835531030786 0.00023572399240673838 0.0016202647566257457 0.0 0.0001568594743786288 -0.0012532083291717365 -0.002073442187570602
-9.232743300824162e-05 -0.0005536161862146911 -0.00011174412694677084 0.0014221019611482082 0.0007036987782893371 -0.0003530722820608409 -0.0003825937968922327 0.0011179394704103386
0.001016604942785827 -0.00048496769795238674 -0.00043341607899481346 0.00022738176598420575 -0.00010027083137175588 0.00039917468586573966 0.002482867829327486 0.00019756704256878988
0.0007780660752858586 0.0006088490999803114 2.433306307511769e-05 -0.0003869284226102332 0.00258067292948035 0.0 0.001758543503074546 0.0002292491008573964
-0.0011291635434299966 -0.00025011370582206946 9.826672988352935e-05 -0.0002686850229966857 0.0020290696633735368 -0.0005840963271362732 -3.7076050655424776e-05 0.003127053497307342
0.0003053505694448133 -0.0004992986491261575 -0.0017862014952742646 0.002608028168604282 -0.002633755371735095 0.0014005963221243147 0.0006898633835489657 0.00024277650524926375
0.003756935559244711 -0.001154302142342289 -0.004002721097042841 -0.0005172661870079343 -2.3226927817468855e-05 0.0012968699157517194 -0.0012380508205476076 -0.001212418206466374
-0.0008051741003017956 -0.0011638092072698137 0.0003747897484765236 -1.0032033734618665e-05 -3.152966673943411e-05 -0.0008305784431795726 -0.0001230053808177512 -0.0009811190315186136
0.0010699715242489358 -0.0006783857254997226 -0.00022279134795063523 0.0025481700584111078 0.0013632429871362685 -0.0005719474666050653 -0.0025144006466464985 -0.00021441958861451632
0.0017678440489603184 7.442661924409306e-05 0.001723608722273991 -0.0005500194164060763 -0.00163589656231654 0.0004733682313579391 -0.002880861752830552 -0.000187440338119719
0.0 0.002280976052425369 3.0384061545348766e-05 0.0015567292983941139 7.621502441911124e-05 0.0011032442892251536 -0.001951973326526444 -0.00024252312609423596
0.00012516751382189877 -0.001724727595348014 0.003433931917440401 -0.0022781214002700525 -0.0007185325592992823 0.00011757022816986126 0.0008900291115222943 -4.626253266630127e-05
-0.0007358059567596218 0.0005551687533776969 0.0006212256085005145 0.0018491774678077856 0.0019244286777439933 0.002515396133926188 -0.0003739356910642249 -0.0005593788448673428
0.0026454025637628123 0.00014428435434663418 -0.0002508883851566317 0.0 -1.662565925668248e-05 0.00012131594935289183 -0.0014223107669560258 -0.00015004932653738697
0.0 -0.0007711816609206687 -0.005355624621102254 -0.0032510415146094537 -0.0008220016917134715 0.0007620351770871769 5.202404604398359e-05 0.0013312970282999981
00000000: 3dcf e78a 9289 5abf ef89 3e2a 2b18 35bf
00000010: df36 d55c c9ac 3cbf 0000 0000 0000 0000
00000020: fcc7 0902 34e5 3f3f b9e1 4707 1dff 33bf
00000030: addf 3713 47ac 283f 80f9 c7aa c250 273f
00000040: fef5 8cfe c855 51bf 6856 d3ea 2653 43bf
00000050: 1ed2 de5c 305f 50bf 3ab3 dc7e de1c 41bf
00000060: e8d7 036a 9f3b 54bf af5b 3a84 6313 583f
00000070: 3b48 a098 ee08 43bf 4375 0a65 01e5 3b3f
00000080: 6c30 705c 8d94 5bbf 0000 0000 0000 0000
00000090: bc7a 646e 1eae 403f 096d 577c a09a 5a3f
000000a0: f0da 864e 1f0e 48bf 417f d83d 05ad 603f
000000b0: 7f3a 52d5 2ced 32bf 561d 17ec c997 523f
000000c0: 6ab4 97f9 ecc4 37bf d0bf 65c7 840d 6e3f
000000d0: e1f0 970c 0bb0 2abf a8da 31bf ee5f 513f
000000e0: af55 07e2 39af 543f 76cc 9852 806b 6d3f
000000f0: 8fec 25c9 9de1 47bf d7f9 d2a1 b993 32bf
00000100: eb21 80c5 7b43 563f d782 8ce7 656b 413f
00000110: af2d c91a 4e3c 4fbf 0000 0000 0000 0000
00000120: b5b1 2648 34e9 40bf 1e70 1c40 5e34 343f
00000130: 2717 d1c5 acca 63bf 6603 88a1 fce3 36bf
00000140: 754d e7a6 9692 d93e 5369 6df2 ea60 14bf
00000150: 9549 2af6 a6e5 113f d838 cd09 88eb 393f
00000160: 8076 e6bb b1b3 50bf c31e 3eea fdeb 6fbf
00000170: 69d5 04a7 6b8d 5ebf 90a4 235d fe79 333f
00000180: fb5c 63f5 672d 41bf f1a4 46ff 4fc4 5b3f
00000190: 3c06 1917 7bef 4e3f 95bb 11a9 6e8c 39bf
000001a0: 7da6 4361 4c99 183f 7d33 f16f b1a5 42bf
000001b0: 2c95 232e f54b 553f 1948 3001 56fa 203f
000001c0: 390a 8330 d61e 423f 1340 e325 25bd 453f
000001d0: f3e7 18a5 063c 53bf af3d 9809 0eb2 3f3f
000001e0: 45a2 4b1a 1076 ecbe 5f89 0d04 6e00 603f
000001f0: df79 35af 8583 633f 0000 0000 0000 0000
00000200: 9b3d fce9 4f2b 44bf 685b ddc6 cda0 723f
00000210: bed6 e7b4 314a 243f d2af 3308 efb2 52bf
00000220: 55cf a013 6ec1 4a3f d019 931d e438 40bf
00000230: a7fc 23d1 f602 663f 67ad 4dd0 35c3 613f
00000240: af27 8ddb a28a 1cbf df3e 197d e31a 4bbf
00000250: debb 925e 83ab 213f 8d34 4774 fd46 183f
00000260: d91e b147 c71c 533f 82b8 6f36 5426 2ebf
00000270: 591d 6ba2 6971 68bf 6bee 7d75 d97c 29bf
00000280: bcae 1e9a 1d08 f3be a818 1175 2bcb 6f3f
00000290: 0000 0000 0000 0000 bdc9 1907 8750 54bf
000002a0: 0000 0000 0000 0000 62e9 ad81 23f6 333f
000002b0: 73ff 18c0 cd8e 5ebf a249 8574 056a 55bf
000002c0: 8c16 bcf6 4e2f 523f 7116 ea2d 6a61 363f
000002d0: 0000 0000 0000 0000 1f4e 9b80 e14a 593f
000002e0: 1d8f fbe5 45f9 563f b4ef 6fc4 ae36 193f
000002f0: fd10 394a 7647 163f 0b21 e319 bf89 3a3f
00000300: 0000 0000 0000 0000 b5cd 5b2f a3ef 44bf
00000310: 142d b5ef 0778 55bf 1e03 38bf 8ab0 653f
00000320: 69c7 bb14 83fb 57bf 27e8 76dd e131 273f
00000330: b639 8a65 96e3 66bf 04f6 1815 0f86 37bf
00000340: ae45 e18a 603d 61bf 1dde 2dfd 50c4 f5be
00000350: eacc 4eed 75fa 42bf 96eb 10f3 c385 673f
00000360: e7e5 0f62 25f8 48bf 6914 2f10 bfef 43bf
00000370: c444 93cc 6686 40bf 0cb4 9973 05ba 363f
00000380: 3901 26d7 0631 513f 6706 c357 a1ed 503f
00000390: 4bac 52cd cfa9 55bf a91e d58b 7eb0 13bf
000003a0: 1113 61cf 5749 183f 9c7a 94b0 8637 4abf
000003b0: b396 46e5 9241 20bf 9be0 530c 13d6 0b3f
000003c0: b246 71c4 08a0 163f a33c 596d 7bbf 1e3f
000003d0: 9619 5733 03b1 4dbf d7b3 676a 580a 30bf
000003e0: 07f8 69c3 479a 40bf 6a65 4de5 68f7 02bf
000003f0: 435a f806 c197 1dbf 2e3e 2d6f c345 5abf
00000400: e1c1 ba83 a27f 1e3f 5703 5d85 21a4 523f
00000410: 8d7c 1005 a95b 31bf 846f fbe5 7ebf 5cbf
00000420: b88d bf96 4463 483f c156 0ace a415 45bf
00000430: 0ab9 3407 ddce 753f f36e 75d0 c02f 213f
00000440: c914 a6cc 66aa 43bf 9470 2168 29b1 64bf
00000450: b9a8 31ad 95e5 2e3f 0615 ff08 e28b 5a3f
00000460: 0000 0000 0000 0000 fc23 03a0 548f 243f
00000470: bdcd 7c32 5688 54bf 752a 58cc 52fc 60bf
00000480: 73ff 9e38 fd33 18bf 10b6 08b5 1124 42bf
00000490: 6394 a77b 054b 1dbf b097 8a5a ba4c 573f
000004a0: 7427 979e 0d0f 473f dc40 92e7 9123 37bf
000004b0: f5e1 65d8 db12 39bf 156b b75d fa50 523f
000004c0: 05a5 dc3e f3a7 503f 8a91 fe66 68c8 3fbf
000004d0: c616 85e2 8367 3cbf 0faa 497f aacd 2d3f
000004e0: 0e7e 14c4 0f49 1abf e18a 9f38 0a29 3a3f
000004f0: eb72 1284 f356 643f c7af 23f9 3fe5 293f
00000500: 2338 7a2c e47e 493f 8aa1 7e7c 65f3 433f
00000510: ffe1 a55c db83 f93e 00e8 c6eb 945b 39bf
00000520: a969 ae3a 1024 653f 0000 0000 0000 0000
00000530: 5425 65b5 ddcf 5c3f 898c 19c8 520c 2e3f
00000540: ba5e 6a1f 0e80 52bf 6a48 d12f 3664 30bf
00000550: 5198 8590 91c2 193f 837e fe62 c99b 31bf
00000560: ad4b 0e7b 449f 603f 2abb b64f c123 43bf
00000570: 0112 7666 4370 03bf e7f1 1e10 e89d 693f
00000580: 7b10 a7b5 ee02 343f 3d39 39af 6b5c 40bf
00000590: 34b7 6640 df43 5dbf 0154 1e76 6e5d 653f
000005a0: 6f16 fea5 6293 65bf 34be 7fd9 86f2 563f
000005b0: 5ffd e455 fe9a 463f a8dc f14c 3ad2 2f3f
000005c0: e53a 866b ddc6 6e3f cb36 de7c 7ee9 52bf
000005d0: 2916 4f43 2865 70bf 52a2 a2ad 24f3 40bf
000005e0: d2b6 6753 ee5a f8be cd3d 0578 773f 553f
000005f0: c50f 3ef2 c248 54bf ab2c ef22 40dd 53bf
00000600: 543c d536 4a62 4abf befa f99e 5e11 53bf
00000610: 75d2 6bb6 ed8f 383f 65fe b937 e809 e5be
00000620: 6b6a 9919 d787 00bf eb2b 07a0 6537 4bbf
00000630: 7dec f92c 601f 20bf 52c5 d889 1c13 50bf
00000640: 3242 132d c987 513f 1df0 a640 b63a 46bf
00000650: 3e7b 471b a333 2dbf d7c1 1862 e6df 643f
00000660: 5dc9 f502 db55 563f 9230 01d5 d7bd 42bf
00000670: 9c02 7c91 1499 64bf aa28 cf3d ba1a 2cbf
00000680: 5b4b fb17 e0f6 5c3f 2c89 1995 af82 133f
00000690: bb16 f8c5 563d 5c3f 8ba7 ebb3 e505 42bf
000006a0: c8c5 068f 72cd 5abf 530a 9912 cd05 3f3f
000006b0: 2d13 68e0 9a99 67bf 52c5 8d3e 7491 28bf
000006c0: 0000 0000 0000 0000 d53f 8ab1 8daf 623f
000006d0: 8aa2 7dcf 28dc ff3e dc91 385b 6581 593f
000006e0: 547c 3d26 b4fa 133f 1ef4 1189 5713 523f
000006f0: 90f6 6766 2bfb 5fbf 5357 4aca b9c9 2fbf
00000700: 3be6 bbc1 ec67 203f b633 7527 0842 5cbf
00000710: 7cf0 0629 7a21 6c3f eca1 221d 91a9 62bf
00000720: 884e f1eb 7c8b 47bf b0e9 cf23 01d2 1e3f
00000730: 96c5 96f6 1a2a 4d3f bc95 c684 4041 08bf
00000740: fe3c 9f42 631c 48bf 4fbc dbd1 1731 423f
00000750: 6a5f 02d6 375b 443f 3e44 eb2f 034c 5e3f
00000760: c753 008f a387 5f3f 55de 3604 2b9b 643f
00000770: f495 5d90 9981 38bf 07bc 21ec 6854 42bf
00000780: 502e e0af cfab 653f 9edc 9e2a 61e9 223f
00000790: dfef c068 3571 30bf 0000 0000 0000 0000
000007a0: 1e2f c19a ea6e f1be 06f2 ca23 60cd 1f3f
000007b0: cf10 a58e 9a4d 57bf 091f 89e6 d1aa 23bf
000007c0: 0000 0000 0000 0000 45aa a701 2445 49bf
000007d0: 5d7c 8e89 c7ef 75bf 4c42 769f eda1 6abf
000007e0: a995 0b31 73ef 4abf 29a8 fd14 6af8 483f
000007f0: b9fe 649c 8c46 0b3f 48ed a84c ddcf 553f
