data/processed/deep_mlp_b1.npy (npy, 2176 bytes, 1 tensors)

array f8 [1, 256]
000000 b9 9c d7 73 13 b2 09 3f 59 e4 d1 b6 2f 4a 4c bf
       4.901048530908101e-05 -0.000863335893554705
000010 ee 11 4a f4 dc 50 4d 3f 5d 0c 4e e0 49 2e 5e 3f
       0.0008946493986319839 0.0018420907447030046
000020 b0 70 8b 08 b9 6e 4d bf 7e f7 f8 7f a3 43 64 3f
       -0.0008982089503564352 0.002473658881881612
000030 aa a3 eb 4a d3 80 4f 3f c6 8e 62 8c 6e 7e 62 3f
       0.0009614021017486558 0.0022575530193352537
000040 54 42 ea 68 85 fb 42 3f 78 5a 16 51 55 7e 60 bf
       0.000579300061717867 -0.002013365396759167
000050 54 b6 12 0f 89 58 42 3f 25 82 73 6d 69 cf 5c bf
       0.0005598706467446293 -0.0017584352079255208
000060 aa 62 75 7b 9c 80 56 3f 57 39 ee 80 88 4a 65 3f
       0.0013734367510861802 0.002599016770040634
000070 64 c1 02 f4 28 7e 41 bf c2 dc 6d be 75 f9 72 3f
       -0.0005338382689128837 0.00463243478485892
000080 66 4b 99 3f e9 1d 69 3f 2e 51 17 7c 66 5b 65 3f
       0.0030660205491498836 0.002607059636583162
000090 d1 9d 38 34 ca 05 52 3f b0 25 68 7c b5 15 64 3f
       0.0011000132225350465 0.0024517578742730625
0000a0 b0 5c e4 d0 88 f1 49 bf 17 9f 76 5d f8 44 63 3f
       -0.0007917326018142181 0.002352223480290304
0000b0 8c 10 db 1a 20 76 52 3f ad 2b 69 14 63 aa 50 3f
       0.0011267961048569168 0.001017185933636293
0000c0 df 02 89 63 27 18 4e bf 89 05 32 dd 64 9c 46 3f
       -0.0009184067085428979 0.0006900303364007358
0000d0 27 be e7 db 75 50 5d 3f 2c 25 99 14 11 ab 4e 3f
       0.0017892027823299768 0.000935920085973018
0000e0 fc ed a2 44 cd 36 38 bf d7 f3 13 42 2e e1 39 3f
       -0.00036947738102430217 0.0003948915419441068
0000f0 b8 85 1d 8f e2 67 62 3f 2b 09 02 03 4d 54 33 3f
       0.0022468018513996622 0.0002949417130439109
000100 6f 82 de 9c f4 64 70 3f d9 dd f7 b3 bc ed 35 3f
       0.004002528685220426 0.00033460480696542516
000110 6a cd c2 84 9d 8a 63 3f da 1d 7f 9d 16 9b df be
       0.0023854328665834828 -7.535413224908172e-06
000120 0b ab 28 fb 9e 66 5f bf 8c 7c 06 03 fb ec 3c 3f
       -0.0019165566014957582 0.00044137123316007813
000130 ee 54 a5 8b 57 87 3c 3f fe 95 2c 3d 20 ef 47 3f
       0.00043531310406781556 0.0007304103295139861
000140 01 ae e9 22 e0 5b 39 bf bf 8d d4 3d c7 07 52 bf
       -0.00038694593505425595 -0.0011004873006833363
000150 d6 90 46 6e 41 f3 63 3f e1 83 c8 dc c6 1a 2d bf
       0.0024353292412389966 -0.00022205045242265547
000160 4e 38 46 24 de e8 5f bf 95 0b 34 0c ed c4 77 3f
       -0.0019476098396782496 0.005803037612397773
000170 a8 bf 41 ec 1d a8 62 bf 35 f4 98 0c d5 c7 2f bf
       -0.002277430003282139 -0.00024246669481611948
000180 c2 a3 c0 cf df d9 66 3f 60 cf aa 47 92 c1 50 bf
       0.0027894374197967317 -0.0010227135195863477
000190 a5 49 10 bb bd 9d 54 bf 76 63 5e 45 79 a9 44 3f
       -0.0012583115424190463 0.0006305544036307859
0001a0 66 a0 4a 6a 18 7d 31 3f 67 58 ef 3c 7c c1 66 3f
       0.0002668556792664367 0.002777807857891768
0001b0 49 49 05 76 f9 9b 11 bf ce 50 1f 4e 42 26 46 3f
       -6.71740540430277e-05 0.0006759475475015765
0001c0 5b 5c de 08 c7 32 5b bf b0 6c 07 49 e5 c4 55 bf
       -0.0016600555131611936 -0.0013286818613014555
0001d0 a3 0d ef d7 6d 86 50 3f 19 b4 bb 71 f6 94 1b 3f
       0.0010086128893228373 0.0001052165429730887
0001e0 ac 5b 53 fa 60 f9 67 3f 58 71 08 f9 58 c5 50 3f
       0.0029265302751854873 0.0010236138224462756
0001f0 5a 54 13 f9 81 c0 65 bf ac 6a 71 d4 95 d0 20 bf
       -0.002655271390362074 -0.00012828663804749973
000200 97 25 3d 5f aa a7 60 3f e0 d6 2d 11 61 71 6a bf
       0.002033074148049162 -0.003227891525450541
000210 8a 13 e5 af 06 48 46 3f d1 cd 62 ff b0 08 f8 3e
       0.0006799729015162109 2.2920561570228586e-05
000220 80 22 4c ae ae 81 6a bf 0b 14 b1 f4 d8 68 5a 3f
       -0.0032356654868446744 0.0016119116505859423
000230 9f 16 9c d1 7f 37 68 bf 97 3c 57 ec de 33 66 3f
       -0.0029561516247465637 0.002710280796896901
000240 fe e7 5a 25 99 df 31 3f 83 ea 76 06 7f 4d 6a 3f
       0.0002727269069101589 0.0032107811891511364
000250 10 ed 42 f1 49 77 47 3f 65 af b1 a9 e4 8b 5b 3f
       0.0007161246344575007 0.0016813023601356056
000260 e6 7a c3 6d c3 1d 71 3f 0c 7e b0 f3 74 c4 37 3f
       0.004178775209054497 0.0003626618888023798
000270 25 14 25 19 a2 b3 1f 3f 17 d1 fc a1 cb 28 43 3f
       0.00012093235844641609 0.0005846971798520198
000280 a8 1a 7b 04 eb e4 5c bf 5e 66 ce b7 24 32 53 bf
       -0.001763562688141521 -0.0011716230940010046
000290 b2 9b e3 b1 d6 51 48 3f 57 7b 49 7d b1 d0 40 3f
       0.000742177802547475 0.000513159432170211
0002a0 d9 eb a1 72 2a 88 4b 3f d1 63 02 43 ff f6 53 3f
       0.0008402068390432851 0.001218556670244054
0002b0 22 32 e4 d5 92 f0 55 3f a8 02 95 41 05 01 15 bf
       0.0013390954914626126 -8.012384968926012e-05
0002c0 5e 68 53 c4 2c 38 14 bf 05 99 48 c5 d4 da 47 bf
       -7.713101611575695e-05 -0.00072799100104673
0002d0 4f dd 65 2e ff a8 40 bf df 1a ee c0 c4 4a 3d 3f
       -0.000508427238670098 0.00044696143680093657
0002e0 b2 34 c6 ea 98 78 59 3f 3c 62 aa 21 cf e1 6d bf
       0.0015546315508772443 -0.003647713235590792
0002f0 26 b9 62 fe 00 91 f7 be 64 9e d7 93 4f 2a 3a 3f
       -2.247469083077008e-05 0.0003992504387881678
000300 ea 5f 05 5f f0 de 43 3f 9d 40 41 cf 7f 0d 67 3f
       0.0006064103782064099 0.0028140541344684037
000310 3f 22 50 41 22 74 44 3f d8 cb ac ea a3 80 6f 3f
       0.000624195791375355 0.0038455201623945716
000320 a9 fe d9 52 fd 54 46 3f 05 cc f7 40 7a 85 4b 3f
       0.0006815182620840315 0.0008398863737383305
000330 01 bb 37 b3 ae 3a 65 3f fe cd 18 c9 1e 5f 64 3f
       0.002591458521912116 0.002486763122556245
000340 6c ab dc 5c 68 ea 4c bf 54 ef f1 d7 2a 45 24 3f
       -0.0008824357589437399 0.00015464923851371082
000350 9c 8d cd 20 f1 82 4c 3f 4a 6b 68 88 e6 29 41 bf
       0.0008701016791800467 -0.000523793759217164
000360 7d 69 c8 28 1f c7 5c 3f bd 80 4f 82 94 3f 3e 3f
       0.001756458691608203 0.0004615533419478726
000370 e8 d9 04 d3 d8 c5 56 3f cd 79 06 d8 1e 69 19 bf
       0.0013899438309415927 -9.693384891427196e-05
000380 33 b6 26 12 62 bf 5e 3f 64 80 a6 b4 b3 13 62 3f
       0.0018766839717544558 0.0022066602588922003
000390 7f aa 2a f2 80 11 54 3f 5a 41 ec 5e b4 1b 45 3f
       0.001224876331131469 0.0006441717831382851
0003a0 c1 6c 98 cb f1 36 55 3f 3d 93 6c 07 ce d2 29 3f
       0.0012948380739377515 0.00019701733591506203
0003b0 3c d6 05 96 ba 12 65 bf 40 c0 5e d6 1f 8d 3b bf
       -0.0025724071749049487 -0.0004203989723192726
0003c0 35 c9 f8 21 e0 17 54 3f 65 23 96 ed c5 32 2b bf
       0.0012263954921648116 -0.00020750681032335596
0003d0 2b dc 8a b8 a1 88 31 3f c6 20 52 71 6c de 31 bf
       0.00026754329932593646 -0.00027265689397683
0003e0 1c 26 0a 78 28 2b 63 bf bf 45 13 85 83 f1 4e bf
       -0.0023399153145120654 -0.0009443180262229052
0003f0 65 05 0b 1a a1 d4 55 3f 19 3a 94 1b 5c b1 4e 3f
       0.0013324330576981122 0.0009366702790048503
000400 f9 90 88 1a bf df 18 3f 17 9d 0f 65 c4 30 56 3f
       9.48868170174733e-05 0.0013544004361792422
000410 95 2e 0c d5 e8 e4 58 bf 0d a8 4b c0 f4 78 3c 3f
       -0.001519420027935069 0.00043445563669186686
000420 89 7b 90 2e 5f bc 47 3f e3 aa 15 ca 0f 96 4e 3f
       0.000724359965832964 0.0009334160896917434
000430 bb b3 2c 26 7b 2f 46 3f d5 ca ba 30 7d 74 37 bf
       0.0006770469011364502 -0.00035789543538126734
000440 38 19 4f b1 ef 17 71 3f 5e c6 77 d4 19 78 46 3f
       0.004173218058843901 0.0006857038615050816
000450 39 10 51 b1 59 24 19 bf 38 3a 36 a1 9b a3 3b 3f
       -9.59090942425641e-05 0.0004217390971569565
000460 53 c8 38 c8 e0 c3 57 3f 45 0c 83 83 ea 02 71 3f
       0.001450509561334208 0.00415317160531276
000470 c6 09 5b 35 e1 04 0c bf 7c b8 e6 98 7b 15 53 3f
       -5.344211846882193e-05 0.0011647898678393267
000480 43 af 7d 71 94 ae 4c 3f a2 b8 58 a2 5c 20 32 bf
       0.000875303728191203 -0.00027658711983037144
000490 0b 29 8e 2c 23 78 36 3f fa 7e 3e 9f 39 d4 65 3f
       0.00034285410634339657 0.0026646733694660725
0004a0 91 5a 1b e2 d0 35 2d bf 5d 4e 9a 8e 68 13 30 3f
       -0.00022285628170122922 0.0002452974573341255
0004b0 df 0a ef f2 d5 cb 57 3f 5f 2d 27 ad e8 da 17 bf
       0.0014524068208038793 -9.100003379740794e-05
0004c0 0e bc 2b 6d 66 1c 42 bf 9a 11 3e 82 96 98 41 bf
       -0.0005527019623893252 -0.0005369887262394624
0004d0 6a 26 05 2a 2e 69 5f 3f aa 09 b6 d5 5f 0c 4b bf
       0.001917166788262393 -0.0008254497474101026
0004e0 1b cf 14 82 d1 48 61 3f 74 77 38 cb 1b a5 60 3f
       0.0021099178271927316 0.0020318549011468182
0004f0 bb b5 32 c7 0f 8a 67 3f a6 8e be b8 b4 35 5d 3f
       0.0028734501043660965 0.001782824026101895
000500 fa db 02 19 e7 bc 46 3f b3 60 b1 87 2a 7a 41 bf
       0.0006939056784379665 -0.0005333621660481763
000510 c6 9e de 93 b3 5a 5d 3f b6 29 43 3c a4 e5 2f 3f
       0.0017916444480565049 0.00024335508181245823
000520 0b db 88 0e be 1f 40 3f 15 ee 5e d5 37 6b 42 bf
       0.0004920652400589321 -0.0005620977997219968
000530 5e b8 af 3f be 27 6c 3f 9f 12 a4 43 b9 52 58 bf
       0.0034369197651278735 -0.001484566614238826
000540 ac d0 ac de ba ea 63 3f 8a 20 1c 67 94 54 6d bf
       0.00243126390469158 -0.0035803698054942034
000550 b5 9d 10 17 40 f9 6e 3f 96 13 56 d6 a1 55 4a 3f
       0.0037809612045014104 0.0008036651822044157
000560 6e 68 1c 06 a4 97 35 3f 36 d9 7c 69 54 25 46 bf
       0.00032947306145703667 -0.0006758367698925019
000570 13 0c eb 91 78 d3 00 3f 78 2e 41 b7 1f e9 4c 3f
       3.2093159679579115e-05 0.000882282720803442
000580 c7 9d d3 db 52 46 53 3f 92 72 81 82 02 b7 66 3f
       0.0011764344374628353 0.0027728127497950806
000590 74 fa 6e de ed 0d 37 3f 76 43 9f 5f c2 ea 34 3f
       0.0003517823919842241 0.0003191685242401246
0005a0 87 b7 ce 6e 23 be 45 3f 0a 4a f9 9a 4c cb 7b 3f
       0.0006635354053423505 0.006785678138458548
0005b0 e2 c3 41 31 dc fb 19 3f eb 73 d8 63 69 b7 63 3f
       9.912043998540302e-05 0.0024067934416636036
0005c0 1f f2 dd 0f af bb 60 3f eb 7a 36 c2 57 99 4a 3f
       0.0020426196269325426 0.0008117369183543143
0005d0 a1 91 5c c2 68 09 3e 3f c4 7f 51 2d 66 61 4e 3f
       0.00045832450483576133 0.0009271382247213402
0005e0 af 62 f9 fc 7c 61 4b 3f 6e 98 1a 9e 12 cb 50 bf
       0.0008355961126183721 -0.0010249788105425556
0005f0 3d 28 ab 5d 3c a9 42 bf 1a 78 c1 5a de a0 44 3f
       -0.0005694908862434799 0.0006295285907176346
000600 87 85 e2 d1 de f7 71 3f 1e 04 d3 b2 ec 55 5b bf
       0.004386778249825147 -0.0016684352406601886
000610 06 39 4e 4c 75 b1 2e 3f 0c 66 a4 44 ae 78 47 3f
       0.000234170502292526 0.0007162905615444872
000620 a3 4f ea 0e b6 db 58 3f 34 c8 e7 79 26 ac 4a 3f
       0.0015172269737932862 0.0008139789459262804
000630 eb 60 5c 74 7c 3b 51 bf 11 49 96 51 38 c1 5b 3f
       -0.0010517802597345648 0.0016940164553927476
000640 36 4f 56 c4 e5 ce 2e bf 77 7e 5e ed c8 3c 61 3f
       -0.0002350478627418607 0.0021041797981096694
000650 31 e1 1d 90 c8 0f 40 bf f2 ec 51 56 96 de 45 bf
       -0.0004901627837475051 -0.0006674036091135745
000660 82 80 79 56 9d eb 54 3f bd b6 fc f3 38 80 53 3f
       0.0012768780233259063 0.001190238588559308
000670 30 79 62 b4 8b a1 4e bf ea 69 e7 4b 7e 62 31 bf
       -0.0009347850944043997 -0.000265270074945838
000680 08 e7 4d dc e4 5c 04 3f ec 74 a7 56 31 42 58 3f
       3.883908679021107e-05 0.00148062532627274
000690 5a 8f e9 40 34 e2 4a 3f cc 78 20 f7 83 11 24 3f
       0.0008204226631502818 0.00015310989289302743
0006a0 ae 59 4b 56 10 5d 47 3f a8 e2 7a 28 48 5b 50 bf
       0.0007129983683523044 -0.000998325793189073
0006b0 8c 34 3e 12 3f 42 50 3f b3 93 32 95 74 e7 00 3f
       0.0009923568659105124 3.2242055249021884e-05
0006c0 f9 42 d0 a0 5e 06 43 3f c7 fc eb 5a d5 a3 11 bf
       0.0005805933047914039 -6.729116169522645e-05
0006d0 d8 9f 94 91 91 ee 64 3f 52 4b 59 78 77 92 61 bf
       0.0025551646364369955 -0.002145036068023223
0006e0 a8 1b 47 a7 2a 98 4b 3f 4d 0c 4b 9a 14 0d 58 bf
       0.000842114283437269 -0.0014679623792950458
0006f0 49 2c 96 e6 ee e5 54 3f e8 1e c3 35 73 e0 42 bf
       0.0012755234732562285 -0.0005760729359502699
000700 4b 5d 93 b9 9b 0a 6b 3f 52 66 80 1c 06 94 68 3f
       0.0033009568693206696 0.0030002707826611097
000710 a8 db 42 c4 21 f0 37 3f f2 6e d9 23 b3 14 66 3f
       0.0003652651250933233 0.0026954172924841197
000720 02 de af 48 6f f5 40 3f 88 04 4b a2 f6 ef 70 3f
       0.0005175393465596814 0.004135096944709045
000730 94 89 b4 a9 32 e7 63 3f 83 6a 27 5b ad 19 27 bf
       0.002429579688070402 -0.00017624131358114436
000740 fe 9b f5 45 26 2f 67 3f 11 8e 45 fc ca f7 60 3f
       0.0028300998234729305 0.002071281867914506
000750 c2 ab 9e c0 21 63 55 bf 78 39 23 3f d9 64 4e 3f
       -0.0013053731549727975 0.0009275494360510414
000760 1a 3e 1d 4c e0 79 59 bf b3 f2 37 e1 63 37 4d bf
       -0.0015549364474799544 -0.000891612786687887
000770 e8 21 85 b6 ef 0f 5f 3f bf d9 f9 f9 d1 ba 40 bf
       0.0018958893725359253 -0.0005105519557691492
000780 f7 b0 d0 69 b0 3d 6b 3f a9 5e 0a 15 56 82 64 bf
       0.0033253140996035674 -0.0025035554211390765
000790 e5 78 c1 2d 31 3b 5a 3f e4 45 16 f8 96 60 62 bf
       0.0016010265599316006 -0.00224332319403041
0007a0 e8 83 4f 4b 21 6f 61 bf ae 96 86 9e ed 94 38 bf
       -0.002128186252307252 -0.0003750877499676214
0007b0 25 fa 1d a2 0b 0e 34 3f 7c 1a 5c 18 48 eb 63 bf
       0.0003060129548585775 -0.0024315269573691994
0007c0 92 31 78 ca 90 f3 26 3f a8 9a 6e 90 00 a5 54 bf
       0.0001751054999065247 -0.0012600427159924852
0007d0 a3 1c 49 d5 af 70 62 3f 03 b9 1f 73 fd 54 60 3f
       0.0022509989014768013 0.001993651408148557
0007e0 d4 23 8b 82 c1 77 46 3f e3 28 0a ae f6 65 4a 3f
       0.0006856627342922647 0.0008056120387476519
0007f0 c3 e1 4e 37 fd f5 35 bf 4d c5 ba 56 69 8a 45 bf
       -0.00033509666473776847 -0.0006573690747783495
