data/processed/deep_mlp_W4.npy (npy, 6272 bytes, 1 tensors)

array f8 [256, 3]
000000 ba 82 fa f2 ff 38 bc bf 99 60 9a 0a bd dc c5 bf
       -0.1102447479447716 -0.1707989026806487
000010 a5 d9 91 3f 7f 6c a6 3f fc 73 cd ea 81 10 98 3f
       0.04379651690480849 0.02350047107335128
000020 04 ed 56 79 ba fe ba 3f d1 51 a3 11 bf 60 c0 3f
       0.1054493471373697 0.1279524646876227
000030 b3 7e e7 1d ac 9f c0 3f da 77 cf de 41 79 bb bf
       0.12987281284494187 -0.107318989655567
000040 70 31 26 de 1d af 87 3f a3 7c dd b8 88 27 a8 bf
       0.011564477292971914 -0.04717662102370326
000050 0d fc 68 78 cb f6 9b 3f 4e c4 b2 05 e5 88 ba 3f
       0.02730863497185614 0.10365134610289425
000060 5c 8a 75 17 66 ff 8a bf 5f 42 a3 b9 10 ed a6 3f
       -0.013182447043338978 0.04477741495214071
000070 6f 80 cb fb a3 e4 a1 3f 8c bb f6 b0 d8 94 98 bf
       0.03494751404446183 -0.02400530414677919
000080 ce 92 e6 17 5c e4 a4 bf 88 4d 07 0d 17 7c d0 bf
       -0.04080474654918974 -0.25757385513608044
000090 3c dc 2a f0 32 ba b3 3f 0d 67 22 5c e1 7b a8 bf
       0.07705992091619945 -0.047820131775735054
0000a0 5f a9 4b 2a e9 7c ce bf 77 e7 b8 2b 5e 09 98 3f
       -0.23818697514736706 0.023473235529514604
0000b0 b6 dc 3e 78 93 7e bc 3f 12 29 71 4f 52 ff b1 3f
       0.11130639730150702 0.07030214728834874
0000c0 49 88 e2 1f e2 64 c1 bf fc 19 da 95 6d 1c c1 bf
       -0.13589121395949835 -0.13368005578031716
0000d0 0f ee 8b 81 6c 53 ae bf 76 d8 9a eb ee b5 ba bf
       -0.059230223478120896 -0.10433858158180151
0000e0 13 97 78 d4 1f 03 93 bf e1 c6 ad bd e4 8b cf bf
       -0.01856660589523702 -0.24645671140347417
0000f0 a0 db 0e e3 f1 48 92 3f 00 43 92 68 9d cc c1 3f
       0.017856387599490042 0.13905685049078187
000100 2b 7b 3e c9 31 af c4 bf 21 8c a1 1b d0 ac cc bf
       -0.16159651113863424 -0.2240238318364343
000110 3a 55 07 24 90 ad c3 3f 2f b4 26 87 17 63 9e 3f
       0.15373422393046515 0.02967488062283879
000120 d3 f4 34 9c a9 03 af bf fd 23 9d ae 53 13 92 3f
       -0.06057481796094923 0.017651851208288594
000130 5f ec e3 70 86 28 45 bf 6e 14 57 9b 99 a5 c7 3f
       -0.0006457001161658363 0.18474121174782304
000140 ee 36 b0 04 4a 45 65 bf 2e 21 13 71 79 d4 a7 bf
       -0.0025965161962692085 -0.046542925885264416
000150 64 d2 6c f0 92 ad 95 bf d6 7b e4 e6 83 24 ba 3f
       -0.021169944691069267 0.10211967837356836
000160 15 76 dc 23 9b 1f aa 3f 0b 27 69 64 83 a6 c1 3f
       0.05102238476522928 0.1378940811430812
000170 06 32 8f 7f 45 37 99 3f 35 84 3f b4 e5 1f b2 3f
       0.024624906454663552 0.07079921389187478
000180 82 0c 18 6c 92 8d b9 bf c3 e4 8d 87 19 05 a2 bf
       -0.09981646670353153 -0.03519515781131013
000190 5d c8 49 1d 7a 2d b1 3f 94 0b 9c 8f 0f f2 76 bf
       0.06710017409366871 -0.005601940903718811
0001a0 d0 4a e2 2b f8 b4 9a 3f cf 63 72 f8 96 c9 70 3f
       0.02608096855017089 0.004098500946519714
0001b0 01 87 31 81 08 e8 95 3f ac 5e 34 0e d7 42 93 3f
       0.021392948994964026 0.018809662096002697
0001c0 30 0f c4 49 d4 a1 97 3f e7 da b1 05 7b 03 b5 bf
       0.023078267099676697 -0.08208435906440635
0001d0 84 c2 a1 18 5a 5f 9f bf f6 47 29 e3 41 e0 78 bf
       -0.03063717627850561 -0.006073243496375716
0001e0 c8 95 b0 52 6a 61 73 3f c5 31 a2 fb b6 30 c0 3f
       0.004731574367757792 0.12648665701671127
0001f0 85 ad 93 46 53 3c ab bf 3e 64 4a 07 2f ff ab bf
       -0.0531946204808618 -0.054681272163357594
000200 17 0b b7 7a cd 7b a7 bf 7f 9d 16 c8 a2 a9 af bf
       -0.045866414289340955 -0.06184109394535663
000210 6f d3 63 b2 18 ed 9f 3f 5c 22 ae 60 f2 af 67 3f
       0.031177888763483205 0.002891515153752784
000220 12 d4 59 f1 3d 64 c0 bf 30 22 c0 5b 02 33 b5 bf
       -0.12805914196692975 -0.08280958881381006
000230 12 20 ff 4f fc ae 95 bf 95 6f db b8 c2 54 b0 bf
       -0.021175329573253583 -0.06379334462275062
000240 a6 0f 25 77 b9 a2 99 3f 36 8d b2 30 43 7f b0 bf
       0.025034807106990485 -0.06444187106040009
000250 05 6f 8f 46 b6 76 67 bf 15 2d ac c4 d7 78 92 3f
       -0.002864223486978792 0.01803910386938153
000260 0a 17 50 9a d6 7d a8 bf ee a1 f1 4e 55 ee b9 3f
       -0.04783506997777749 0.10129292657223463
000270 90 48 22 60 a1 d0 ae bf 56 95 8a cc 5e f3 b1 bf
       -0.06018547342786562 -0.07011978620228851
000280 01 06 0e ae 96 c1 9b bf 66 72 ef 86 b2 32 d1 bf
       -0.027105669377766265 -0.2687193219879077
000290 b0 bb 9c 75 4f 1a bf 3f 1f 8f ef 19 a4 55 b3 bf
       0.12149521466629554 -0.07552552827069946
0002a0 1c 57 fd c1 63 36 99 3f d4 96 4f d2 ee 4f b6 3f
       0.024621542658983406 0.08715717920821514
0002b0 57 17 c6 86 e3 8a c1 bf 6d ea 4b e3 76 e2 b8 bf
       -0.13705104904891627 -0.09720557259780956
0002c0 ce cb a2 3c 59 ec 90 bf 95 04 9a c3 e8 a2 88 3f
       -0.016526598287508958 0.012029474705970858
0002d0 af 6d 6c e5 49 ea c2 bf e0 c8 60 9f 03 25 ab 3f
       -0.1477749223930522 0.053016770558672155
0002e0 cd 27 5b b3 df ef ba 3f f1 86 86 bf 11 34 93 bf
       0.10522268418131304 -0.018753316225803954
0002f0 f7 1e 7c 3e 0c af 7b 3f 92 4f 16 14 5f 48 83 bf
       0.006758735493128879 -0.009415381241332264
000300 17 6b 02 a4 83 ed b5 bf 51 75 a3 b9 cf 1b cc bf
       -0.08565542940270308 -0.21959873737697902
000310 b1 3f d7 e1 2d 78 94 bf da 4c 89 e3 41 b8 c0 bf
       -0.019989697369794338 -0.13062308893368063
000320 9a b6 7b 42 8e d6 81 3f f0 ad 10 10 c0 17 ba 3f
       0.00871001377478402 0.10192489998069454
000330 1e a7 2c d1 6a 42 c6 bf 42 92 ac c1 08 74 a1 3f
       -0.1739018937453744 0.034088395730837565
000340 43 56 5d ef ce ec 8e bf eb 46 66 96 8a 66 8d bf
       -0.01510011356337338 -0.01435573836787137
000350 9a b5 21 e7 e9 0c 94 bf 60 1a 47 ae 40 38 76 bf
       -0.019580511791379963 -0.0054247404663728405
000360 e3 76 d7 56 ce da 92 3f b3 cd 27 9a d9 81 b3 3f
       0.018412803697961954 0.07620010388909897
000370 a9 4b c2 96 d5 de ab 3f 51 05 fa b9 55 c2 a5 bf
       0.05443446603125974 -0.042498282386996274
000380 98 d4 f1 99 50 14 9e 3f f9 16 fe 78 cc a5 ab bf
       0.029374369998966005 -0.053999318856808594
000390 7a b3 39 18 69 91 c4 3f cd 35 26 cb 43 53 86 3f
       0.16068757708435638 0.010901002537845006
0003a0 5f e5 56 e6 7b 29 c1 bf 07 c5 0e dc a7 ba aa 3f
       -0.1340784907058987 0.0522053199887385
0003b0 53 c1 83 52 15 c8 9b bf 9b 3f 92 16 7b 2f aa 3f
       -0.027130444680495924 0.051143499856265616
0003c0 95 91 5c 7e 39 7e c6 bf 43 82 46 ca d5 3a b8 bf
       -0.17572706861495804 -0.09464775265087959
0003d0 e8 cc 71 c6 ae 6d b9 3f bb 51 49 1d 83 b7 c6 bf
       0.09932987541997174 -0.17747534685135044
0003e0 ed cd ad 78 56 c0 b4 3f 43 1d 37 3f b5 04 b3 3f
       0.0810598415972021 0.07429058831541106
0003f0 db ad ce b0 ab 30 b3 3f a9 85 ad 39 a4 51 c9 3f
       0.07496140543542344 0.19780400100993958
000400 c8 fc 21 ed 87 c7 a9 bf 3f 39 97 ff ee 2c b0 3f
       -0.050350425431128054 0.06318563213355775
000410 f0 2a 8b 75 22 22 ae bf 95 c9 e5 40 da 06 75 bf
       -0.05885417637690249 -0.00513348822856798
000420 86 ef 56 e9 7c 14 c3 3f b6 3b aa fd 3c 23 ab bf
       0.14906274217161924 -0.05300322147842655
000430 bf ad e0 40 68 1b b1 3f e5 8b 98 df 17 00 a2 bf
       0.06682445129324942 -0.035156961483401784
000440 8e 09 ce 99 7b ed 80 bf 39 f2 b2 27 fc 33 b4 bf
       -0.008265462523699776 -0.0789182278558166
000450 f0 0a 9a 6f b1 8d 9d bf 99 70 18 15 d6 e8 b7 bf
       -0.028860828816060058 -0.09339654936815335
000460 21 c0 8d f8 3b d1 77 3f f5 96 91 91 94 7a 56 bf
       0.005814775716189075 -0.0013719988694673145
000470 de 77 43 1d 30 de 8a 3f 5d 06 9e b8 bf 0f a9 bf
       0.01311910237603436 -0.0489482796538254
000480 95 34 32 02 d0 6a 99 bf f2 dd a0 cb 15 23 a6 3f
       -0.024821519979515278 0.04323642836282805
000490 ce 65 f1 93 17 6e ab bf 94 31 dc 1a 8a af b1 bf
       -0.05357431107467968 -0.06908476978077821
0004a0 04 d0 a7 10 f7 fd 98 bf 21 d7 9a f5 32 a2 91 3f
       -0.02440629996449674 0.017220302811174485
0004b0 7f df 4f a9 63 26 71 3f 83 df 5d 1c b3 4c c6 bf
       0.004187001516576915 -0.1742156876095998
0004c0 67 b1 6e 1d 82 ad c4 3f 1d 24 9c 74 4a fc aa bf
       0.1615450519287933 -0.05270607636891376
0004d0 25 2d 1b b9 8d 32 c9 3f 7c c4 15 bb e0 2a ae bf
       0.1968552736128483 -0.058920882070091246
0004e0 5e b2 55 18 51 1e 6b 3f 4a 73 e8 81 b9 2a b5 bf
       0.0033103546035618122 -0.08268317624647384
0004f0 0c 99 1f e4 85 c5 9c 3f 68 0a 40 47 14 35 a1 bf
       0.028097240494298112 -0.03360808725121417
000500 56 a9 84 a7 d4 b6 c7 bf 8a ee dc 6e 61 36 8f bf
       -0.18526704959487955 -0.015240441509028164
000510 bd 8d 22 00 d2 fe 9e bf 03 89 40 a7 25 ff b8 3f
       -0.030268937357176052 0.0976432355242061
000520 7d 62 44 1c 21 35 9a bf 29 17 db 3a db 02 a8 bf
       -0.025593297338760913 -0.04689679234938488
000530 a5 a3 0f 23 b5 a9 88 3f 40 2d 6c 5a 05 d2 a8 bf
       0.012042441494445397 -0.0484773323897465
000540 88 bb 23 4c b4 4c c3 3f fc 2b 6f 2e 40 ee bd 3f
       0.1507783290648741 0.11691666730546041
000550 81 a8 9e fa f5 e6 97 bf 98 43 bb c3 41 5f 7c 3f
       -0.023341983243576173 0.0069267815521961915
000560 36 fe b3 77 96 d2 c6 3f df 99 0b 9e 5d 46 9f 3f
       0.1783016285407812 0.030541861316032978
000570 18 ed 37 cf 98 8e 9d bf b4 94 b5 01 31 d8 bb bf
       -0.028864276549922158 -0.10876756946307148
000580 4b 0b 3d 3b aa 87 b1 3f e9 3f 28 3d 8f 2e c2 3f
       0.06847633310557659 0.14204588400070797
000590 be 80 5c e9 66 f9 c0 bf 79 bc ac e3 18 a8 bb bf
       -0.13261114496800092 -0.1080337100836334
0005a0 06 f9 f1 e2 ea 1b 3a bf 8e 0b c8 bd 41 ce b8 bf
       -0.00039839252981001304 -0.09689722903571704
0005b0 02 17 a8 45 80 82 b3 bf 19 17 dc 0f 78 95 a2 bf
       -0.07621003819084751 -0.03629660791015805
0005c0 f4 35 43 81 a7 75 7f bf 28 07 57 fc 5e f8 ba bf
       -0.007680563274516928 -0.10535234127658255
0005d0 e6 87 c7 5b ff 73 b4 3f 7d fc a7 2d c5 d0 ac 3f
       0.07989498129566605 0.056280290435091175
0005e0 18 ab 2d b5 b7 c8 a4 3f c8 0f 26 3b 0e 7d ad bf
       0.04059385382318775 -0.0575947234347321
0005f0 4d 14 3a f2 1d 83 bb 3f e5 48 47 07 6d 12 c3 bf
       0.10746943629972457 -0.14899981360810624
000600 cb 57 f5 c3 c7 e0 96 3f 0e 90 5a ae 21 80 b3 3f
       0.02234184392485598 0.07617388254817589
000610 d2 73 a4 c2 e3 43 91 3f 96 d9 3c 38 7e 2e c1 3f
       0.016860541110066248 0.1342313551519509
000620 31 15 1c d4 42 31 c7 3f a1 9b 6a 4a a6 43 ab 3f
       0.18119082791251054 0.053250500282323594
000630 66 7a f5 34 3f 0d 44 3f 15 f7 a6 6b d0 dc a3 bf
       0.0006119307162569365 -0.03879405321229804
000640 f2 fe 5e a2 76 ed b2 3f 36 7f 2d 52 8b 2c bf bf
       0.07393590416085852 -0.12177344089786576
000650 2c 00 5a 13 d8 7a d0 3f 66 ef b6 e0 f2 39 ae bf
       0.2574978054981354 -0.059035863810520436
000660 a9 40 ab 4d 85 49 51 bf 0c b7 71 29 fe 50 aa bf
       -0.0010551263609848516 -0.05139917617712628
000670 7c d3 0f 64 54 f0 ad 3f 02 bf de 67 54 ef c0 bf
       0.05847419473130963 -0.1323037631204827
000680 5f 16 02 33 9d 00 ba 3f 87 b4 31 a0 18 25 b5 3f
       0.10157186980549103 0.0825972930048967
000690 f8 3e f0 ce 06 0a 45 3f 84 7f 05 d8 c7 ac a2 3f
       0.0006420644039070991 0.036474461669739916
0006a0 45 a2 71 40 47 32 84 bf 14 d0 87 6e 73 6d 94 bf
       -0.00986152329842683 -0.019948772069213375
0006b0 1b 60 41 75 2e 16 ba 3f d8 cf 34 29 a4 b4 a2 3f
       0.10190096247367857 0.036534433393540844
0006c0 c5 20 bc 60 78 c4 ab bf 19 65 3c d5 02 78 70 3f
       -0.05423332386823313 0.004020701471540344
0006d0 98 76 73 71 5d fb cf 3f 6e a7 b0 17 c9 74 ae 3f
       0.24985855140305513 0.05948475279031028
0006e0 f0 60 5a bb 8c c2 a7 3f bf 24 bf 35 76 79 b6 bf
       0.046406171674961416 -0.08779085933851415
0006f0 97 36 6b 4d 44 d5 d0 bf ea 78 28 16 62 4e bf 3f
       -0.26301677284650665 0.12228978196114651
000700 f3 b8 e9 68 52 32 a2 3f 02 f6 66 db ef 1e 96 bf
       0.03554017573047643 -0.021602390066382433
000710 97 1a 47 c5 ea 23 a4 bf ad b4 0a c2 3b 62 82 bf
       -0.039336525518185166 -0.008976427897631057
000720 83 d6 91 e3 79 15 c7 3f 8e 17 2a 2a ec f2 a2 3f
       0.18034289943505052 0.03700960173323074
000730 13 bb 11 a6 a3 a2 b1 3f 6a f9 78 57 6e a6 c0 bf
       0.06888792805123627 -0.1300790717231835
000740 7c c5 97 91 ca 0b b1 3f e2 00 14 e2 bf fc b7 bf
       0.06658617071641076 -0.0937004019688206
000750 8b 90 78 11 a6 f9 92 3f d3 b3 cf b2 7a 31 c5 bf
       0.01853045922884226 -0.16557248812696787
000760 6f 00 28 f6 64 78 ab bf c0 61 93 98 4b c7 a7 3f
       -0.0536529112323486 0.046442377448048244
000770 b8 d1 26 5e 3a 78 97 3f b0 88 32 17 d2 8d 91 bf
       0.022919570919570836 -0.01714256540857012
000780 d0 d3 d8 66 87 5b c1 3f 73 39 26 dc 4b 0f c4 bf
       0.1356057407553224 -0.15671680688360431
000790 67 21 a4 2e 61 55 c8 3f ff 4b 38 48 cb fa bc bf
       0.19010557916068224 -0.11320181382352244
0007a0 75 7a 25 8c 55 bf ab bf 34 f4 e9 5f 43 81 ba bf
       -0.05419413886805994 -0.10353489963195345
0007b0 f6 23 3e 9f b8 96 88 3f b9 9a 73 bf df 89 71 3f
       0.012006227836325305 0.00428187753207137
0007c0 4d ac 29 d1 0c 7f a4 bf d7 7a 58 8c 44 f4 84 3f
       -0.04003181508309037 0.010231528790482098
0007d0 68 29 03 11 dd f2 aa 3f 60 ee 5e 01 13 fa 61 bf
       0.052634151770308446 -0.00219444000228268
0007e0 0a f9 50 7e 10 48 90 3f 0a d1 8f 4b ec 90 a1 3f
       0.015899903974280462 0.03430879995713283
0007f0 35 e5 18 b0 88 c1 a9 bf e2 ec ce b6 3e a2 91 bf
       -0.05030467176079371 -0.017220477969868926
