data/processed/deep_mlp_b3.npy (npy, 2176 bytes, 1 tensors)

array f8 [1, 256]
000000 3b 75 d9 61 e8 59 43 3f 68 91 17 89 de 0d 52 3f
       0.0005905518225507786 0.0011019395063779028
000010 b2 6d cc 6a 13 00 54 3f c4 b2 13 af 9a 7a 2e bf
       0.001220721208659775 -0.0002325357268441378
000020 5a 93 dc c7 5b 78 51 bf 42 26 ab 79 75 36 23 3f
       -0.0010662933631888278 0.00014658149742379124
000030 f6 0c 46 60 da 62 4b bf 7f 66 94 84 5f 1c 32 3f
       -0.000835758809032332 0.00027634937267038273
000040 f8 6f 4e de ce b7 32 bf 44 e2 02 18 06 83 57 3f
       -0.0002856140184179785 0.0014350471029002257
000050 a1 6d 96 78 aa f0 6c bf be 64 fc 1a 9e d7 48 bf
       -0.0035327271950344606 -0.0007581254958239009
000060 57 48 98 5f 12 f4 46 3f 2f c0 93 24 64 93 4b bf
       0.0007004823411895883 -0.0008415450076011461
000070 68 f1 3b 84 e3 69 5b bf 5a 02 fa ac 31 1c 47 3f
       -0.0016731950608451455 0.0007052652890280995
000080 ea c7 68 1f f0 75 24 3f 21 2d 31 eb e0 62 47 bf
       0.000156102716304895 -0.0007136915431912618
000090 d9 df 4c 35 00 d6 4b 3f e4 1e f9 ff 40 c0 57 3f
       0.0008494854942915311 0.0014496454968070888
0000a0 6d 0b 3b d5 43 61 42 bf a2 9e 06 e4 34 29 32 bf
       -0.0005609112945069557 -0.0002771143081425708
0000b0 00 00 00 00 00 00 00 00 1c 10 cf d7 56 6e 53 bf
       0.0 -0.0011859748913005735
0000c0 54 e7 30 e0 56 da 44 3f a4 0c 18 e7 25 09 71 bf
       0.0006363796422938863 -0.004159114892448166
0000d0 69 3c 4c f6 e0 b7 6b bf 36 8a 68 90 25 48 58 3f
       -0.0033835786620169295 0.0014820448719851226
0000e0 92 98 7d 89 94 18 2f 3f 71 f5 fe 38 93 d0 3a 3f
       0.00023724377819717542 0.0004091605596803971
0000f0 61 4b 1c 09 f1 6b 52 bf 7f 2d 4b 97 a5 b2 3c bf
       -0.001124368082348247 -0.0004378942751770073
000100 f7 0d 43 35 d8 37 55 bf 57 08 90 e6 72 73 68 bf
       -0.0012950526625424821 -0.002984737792304275
000110 e4 ec 53 0e 90 fc 41 3f 7c a4 9a 79 e0 12 15 bf
       0.0005489066503793463 -8.038992964522375e-05
000120 90 0b f5 f5 f3 8c 22 3f f3 06 19 e6 ad f8 1d 3f
       0.0001415298274683699 0.00011433183092271117
000130 d8 5b 7b 9a cc 04 50 bf 37 b0 0f 9b 60 7e 32 bf
       -0.0009777067261233976 -0.00028219088113590494
000140 91 c0 b1 45 83 d3 72 bf 71 2c fe 27 0c cf 58 bf
       -0.0045962455579770115 -0.0015142077172381164
000150 24 4f 1f 5d ab 80 4c 3f 40 a2 ec 53 d3 fa fe be
       0.000869830774031109 -2.9544627291463186e-05
000160 dc d5 f2 0d bc 8a 5d 3f 0f 78 3e 83 17 aa 30 bf
       0.0018030964345546662 -0.0002542788890823608
000170 e7 a1 10 ab 30 3e 71 3f e3 19 2d 8d ed b3 44 bf
       0.004209699735874462 -0.0006318006438526504
000180 6d b4 71 86 34 88 05 3f 92 b1 13 12 3a 7e 45 bf
       4.1069128933959215e-05 -0.0006559165523448032
000190 1f 6d a7 7d 29 ce 57 bf da ce 14 ad 78 14 54 3f
       -0.0014529614623971022 0.0012255838849570184
0001a0 00 00 00 00 00 00 00 00 c5 ef 70 cf c5 e9 3f 3f
       0.0 0.0004869563994736005
0001b0 83 0f 97 2e 1f a4 6a 3f 3b 6b 46 dc a1 22 61 bf
       0.003252087499932389 -0.002091709264460032
0001c0 de 11 b8 f8 67 cd 07 3f 7d 29 5c 43 6a 18 37 3f
       4.539941354767309e-05 0.00035240740122390713
0001d0 04 9a 93 a0 c9 2d 35 3f 03 b1 5d 18 20 4b 2e bf
       0.0003231637243303056 -0.00023112074648724148
0001e0 68 25 1e f8 84 27 1c 3f 96 c4 2f 03 bd 6d 34 bf
       0.00010740040855074728 -0.000311716695420358
0001f0 70 0d 0c 0f fd fd 5c 3f 38 b9 1b d6 df 80 79 3f
       0.0017695399548650313 0.006226419792922315
000200 57 9c 59 4d 01 3c 35 bf a3 4a a0 1c c5 e0 5f 3f
       -0.0003240111521791203 0.0019456791801572358
000210 2e 71 3e 2f 09 93 59 bf 24 6f fb dc 4c bf 47 bf
       -0.0015609349911534609 -0.0007247090634012504
000220 7b 7f 70 d0 c1 4f e9 be bf 98 8a 03 7e 77 14 bf
       -1.2069488105892253e-05 -7.807451846506256e-05
000230 00 00 00 00 00 00 00 00 f9 0e 5f 49 74 d1 60 3f
       0.0 0.0020530005667483944
000240 62 f4 9e 99 2a 77 39 3f da f5 08 dd c3 09 5f bf
       0.00038857259789521457 -0.0018944180229846148
000250 ac a3 be c3 24 a9 6d bf 9e cd bb 35 f5 15 6f bf
       -0.0036206930216917312 -0.0037946500068472685
000260 3a 2f f2 c2 9e ee 33 3f 8d 38 ab 24 2a 8f 3f 3f
       0.00030413986218812453 0.0004815557373775224
000270 45 8c 86 5c ff e7 19 3f c7 3c e8 01 ca 5f f4 be
       9.882446386781745e-05 -1.9430328501765495e-05
000280 09 01 11 f0 cf 1e 33 3f 91 2e 98 b4 93 b4 39 3f
       0.000291753545813137 0.00039223295297639247
000290 fe 93 56 86 77 cd 2a 3f ac d4 cb 05 a5 3a 35 3f
       0.00020448764841521355 0.00032393006203730135
0002a0 c3 10 b4 37 5a 98 53 bf 32 b2 cd ee 96 d8 51 3f
       -0.0011959916144528716 0.001089236636484203
0002b0 23 8e 38 a7 92 81 4c 3f 78 80 e2 8a 71 f7 44 bf
       0.0008699384765730771 -0.0006398491293744387
0002c0 00 00 00 00 00 00 00 00 35 9b b5 64 4c c4 61 bf
       0.0 -0.0021687976892964763
0002d0 84 41 74 ff 84 70 59 bf aa e1 be d3 0c 39 6a bf
       -0.001552705651025916 -0.003201031735411604
0002e0 76 92 54 9d 66 65 48 bf f2 a6 59 d2 ec cd 3b bf
       -0.0007445097968781917 -0.0004242613962107531
0002f0 b6 5a 08 e2 97 c9 4b 3f 89 3c 4d 5e ac c6 53 bf
       0.0008480064025800569 -0.0012070353779625473
000300 9f be ee 3f 1e 9d 4a 3f d3 2a 95 70 42 bc 3b bf
       0.0008121869758408068 -0.00042320844712110984
000310 d0 61 cf c2 43 3e 4d bf 00 00 00 00 00 00 00 00
       -0.0008924322952408806 0.0
000320 91 f2 bc b8 9a 40 4b 3f 0b e0 2b b4 ae 97 2b bf
       0.0008316760517810986 -0.000210514141222751
000330 c1 7b eb fb 40 f1 32 3f cd c3 c3 58 9f bc 2b bf
       0.0002890380527968383 -0.0002116150393543223
000340 e5 d8 24 b1 6d f8 e3 be ad b8 86 75 74 bd 21 bf
       -9.522640116982033e-06 -0.00013534590358460965
000350 00 00 00 00 00 00 00 00 1d 03 d0 81 dc 17 4c 3f
       0.0 0.000857336682770524
000360 fc 3c 2b 11 d4 45 5e 3f 71 f0 5c d5 ea b9 4f bf
       0.001847703072303918 -0.0009682079932882404
000370 49 d6 ad dd 73 5b 14 3f 56 b8 2d cc 72 e0 45 bf
       7.765669526612578e-05 -0.000667625478269827
000380 19 10 c0 3d 46 2d 64 3f be a6 d2 c2 7d a2 5b bf
       0.0024629947565717567 -0.0016866901526477042
000390 36 4b 46 ca c1 14 67 bf fa 99 1b b9 e4 9a 12 bf
       -0.002817514892919172 -7.09726430404358e-05
0003a0 3b 77 39 cb de 03 31 3f b1 03 11 db 62 fb 38 bf
       0.0002596301012313011 -0.0003811947199814882
0003b0 03 3c fd b7 61 fd f2 be 7a 61 87 d0 6f 3c 2b 3f
       -1.8110058135175504e-05 0.00020779480861566805
0003c0 81 31 52 a0 05 14 28 bf 5f af 37 a8 a3 4c 14 bf
       -0.00018370217017994395 -7.743595966019705e-05
0003d0 3d 8f e6 7a 1d 60 63 3f 00 00 00 00 00 00 00 00
       0.0023651672156165524 0.0
0003e0 f9 53 34 84 4d 16 43 bf 00 00 00 00 00 00 00 00
       -0.0005824926851426541 0.0
0003f0 ee ad f5 7b 39 10 3d 3f c3 78 51 bc 10 9e 68 3f
       0.00044347194121627145 0.0030050589435140786
000400 00 00 00 00 00 00 00 00 48 88 4b b2 36 ce 3b 3f
       0.0 0.0004242785965243895
000410 e5 06 77 3b 07 63 41 3f 13 a9 ed ac 34 58 67 bf
       0.0005306039155856505 -0.002849676973189061
000420 41 71 67 57 b4 e1 3b 3f 19 4d 59 7b 72 00 15 bf
       0.00042544033877136086 -8.011530629774658e-05
000430 db e0 ac 0d f3 33 35 bf 47 fc 9d 95 c7 bb 4a 3f
       -0.0003235309974800712 0.0008158421071441457
000440 d1 87 b1 68 50 92 52 bf 81 2f 26 65 30 d4 5e bf
       -0.001133516811727454 -0.0018816444977316218
000450 87 8d 0b 18 31 bb 41 bf 5b 49 08 dd b9 c2 4e 3f
       -0.0005411138264119077 0.0009387404953165411
000460 cf f0 36 42 68 63 42 bf b7 b8 03 cc 4c 2b 3c bf
       -0.0005611666751330848 -0.0004298269741544002
000470 c4 09 9f d7 33 25 4e bf e8 b2 97 22 00 dc 6d bf
       -0.0009199622284017874 -0.003644943488998787
000480 9f a7 09 6b 2d 8d 70 3f bb b7 0f 4b 23 8d 67 bf
       0.004040887274280452 -0.0028749169655304086
000490 6e 6d 9b 4d 12 9c 36 bf 0d ee 69 5d 6a 91 6b bf
       -0.000344995945494828 -0.003365237945500038
0004a0 44 ac fe 4d 1d 11 16 bf 28 87 5b 47 f0 0f 61 bf
       -8.41783653401799e-05 -0.002082795423903234
0004b0 b4 e4 ac 4a ab eb 3a 3f 00 00 00 00 00 00 00 00
       0.0004107754891041302 0.0
0004c0 50 66 b3 ec 38 7d 14 bf 66 68 0c 55 12 49 60 bf
       -7.815990391026842e-05 -0.0019879682589705626
0004d0 00 00 00 00 00 00 00 00 fe 48 32 d6 5d ce 62 bf
       0.0 -0.002295668864072841
0004e0 88 48 a7 43 40 cc 54 3f 59 fa 64 83 69 fa 74 3f
       0.0012694003659033132 0.005121624146623726
0004f0 1a 3f e1 c6 e9 74 71 bf 9f 23 43 9b b2 43 44 bf
       -0.0042618877324256624 -0.000618421755029453
000500 4f 47 c3 20 e9 52 46 bf 34 90 59 5a 56 b6 1a bf
       -0.0006812704391683052 -0.0001018991666455478
000510 dd 31 60 6c 15 f9 46 3f fb c1 93 23 8d 75 19 bf
       0.0007010798078695386 -9.711908286980785e-05
000520 e0 48 f5 0a 97 29 fa be 40 32 75 f5 57 3a 33 bf
       -2.4950467090897248e-05 -0.00029339454109303734
000530 00 00 00 00 00 00 00 00 f8 7d 73 d9 58 1e 69 3f
       0.0 0.0030662284221845103
000540 3c c7 1e c8 2a 89 61 bf 43 f3 14 4a a9 79 13 3f
       -0.0021406016903363894 7.429214249028448e-05
000550 01 c2 ed 2f fc e0 2e bf 41 dd e3 15 15 04 4c bf
       -0.00023558691460891237 -0.0008549788433630871
000560 7b f2 cf b8 99 dd 30 3f 98 52 5c 7a 37 ea 5b 3f
       0.0002573490426696423 0.0017037908341467674
000570 6f 22 b6 80 2f 42 30 bf e2 d1 7a cc fe 19 53 bf
       -0.0002480855916578211 -0.0011658657330545432
000580 55 69 ae f6 ce d3 58 bf 5e b4 ed 97 c7 c5 61 3f
       -0.0015153428200621228 0.0021695040044762822
000590 f5 cb 4f de 6c 5a 75 3f a0 49 56 15 23 51 37 3f
       0.005213189379889895 0.0003557882931427784
0005a0 aa a9 b5 c8 13 cc 48 3f 52 4e b0 03 29 b6 49 3f
       0.0007567497827214904 0.0007846546426457191
0005b0 00 00 00 00 00 00 00 00 00 00 00 00 00 00 00 00
       0.0 0.0
0005c0 a7 ff ad ce a7 72 57 bf 4d 5d ed 52 4a b6 17 bf
       -0.0014311445945338426 -9.045437466902624e-05
0005d0 3a e5 21 61 6b 17 42 3f 86 3d a9 81 3d 62 47 3f
       0.0005521082223502235 0.0007136154484416602
0005e0 80 39 0b cf 1e e9 45 bf 15 6a 30 1d d6 e5 60 3f
       -0.0006686592515395134 0.0020627195276692414
0005f0 c3 96 06 c1 58 f7 43 3f 4e 9d c8 5a c7 7e 50 bf
       0.000609320008199098 -0.001006788904428141
000600 4d a4 7b 6c d3 56 60 bf e8 1f 0b e0 c3 2f 02 bf
       -0.00199452680304949 -3.468815339641146e-05
000610 d4 c0 b0 8b 44 44 1a 3f 83 d9 c0 1a 99 3a b4 3e
       0.00010019939775030305 1.2057363205759904e-06
000620 29 c2 74 8e 11 df 66 3f fb 40 9b f7 b0 16 38 3f
       0.0027919142627512894 0.0003675634430751054
000630 f7 73 88 c1 b0 11 69 bf ec bc e8 c4 61 60 2d 3f
       -0.0030601932778737645 0.00022412484618559243
000640 19 5c 80 0c b4 f4 44 3f 80 3d 41 36 a5 8b 63 bf
       0.0006395224709220298 -0.0023859240336958076
000650 0c 5b 94 f1 02 97 57 3f 78 2d ad c4 0c 56 70 3f
       0.0014398125407006383 0.003988313556713911
000660 b1 42 a3 c8 b7 33 3e bf a2 b1 fd 43 35 3d 48 bf
       -0.0004608462992452918 -0.0007397184453857184
000670 3f 02 68 0a 02 a8 44 3f 2b 73 42 55 1e 44 27 3f
       0.0006303796733960267 0.0001775061633723316
000680 fa 2e 3d 0f e1 d1 0b 3f ab ef df c5 4b 6b 4c bf
       5.3062134525020844e-05 -0.0008672828660105566
000690 92 3b 3c 42 54 a0 07 3f 9f ad 74 50 c1 80 29 3f
       4.506356370203366e-05 0.0001945720652910378
0006a0 86 22 0f 5b 7e 0a 19 3f 69 45 dc f0 e0 45 46 3f
       9.552379812228549e-05 0.0006797169059799382
0006b0 07 bc 6c 7f 22 88 34 3f 4f 60 c7 b8 b5 fe 40 3f
       0.00031329004507346696 0.0005186450303496045
0006c0 93 b3 d6 4e 8c c9 48 bf c3 d3 27 15 52 12 39 3f
       -0.0007564482781866492 0.00038256172152212
0006d0 57 3f da 60 0d 5e 2b bf 00 00 00 00 00 00 00 00
       -0.0002087966280908081 0.0
0006e0 88 76 98 95 03 b1 39 3f 4d ea 8f 99 c4 bc 46 3f
       0.0003920205832360431 0.0006938896141258172
0006f0 7b 77 a0 21 eb 63 4b bf a4 ed 50 1a 59 73 45 bf
       -0.0008358858206098796 -0.0006546197006466648
000700 ae af 38 4b a7 b4 20 3f 9d 6f f2 27 d2 f0 6e bf
       0.00012745420609527658 -0.0037769417391028807
000710 c5 f0 74 9e ea 06 14 3f 86 6e f8 37 b1 ee 0e bf
       7.639700890122159e-05 -5.899885490753564e-05
000720 79 fa 1e 1f 03 97 51 3f 00 00 00 00 00 00 00 00
       0.0010736017688796325 0.0
000730 a0 65 e1 00 b9 d4 3f 3f d5 60 44 a1 d9 c7 3f bf
       0.0004857017200997297 -0.00048493445616905095
000740 61 8d 98 0c 34 30 60 bf 4c 21 59 ec 37 e6 43 bf
       -0.0019761101327887974 -0.0006072781622572881
000750 2b 76 47 8d 2e 64 40 bf 89 3b c9 df a4 98 41 3f
       -0.0005002238563595653 0.0005369954156523175
000760 90 22 45 53 60 44 45 3f 88 6b 2e 1e 73 37 4f bf
       0.000649020227265389 -0.0009526550387478497
000770 51 9d cc 30 18 59 1f bf 58 6d de 3b cc 06 14 3f
       -0.00011958322666015998 7.639524025509126e-05
000780 d2 5c e8 5d 5d cb 2d 3f 07 b4 b9 47 cd 8f 43 bf
       0.00022731318218014454 -0.0005969765038124083
000790 61 02 6c c2 ab d3 63 3f 86 c1 23 c0 f7 f1 42 bf
       0.0024202685048069638 -0.0005781612128697301
0007a0 c2 9a e9 10 79 2c 63 3f b4 52 e5 cf a5 f2 45 bf
       0.002340542275578756 -0.0006697950009689397
0007b0 37 51 96 f4 2e f9 59 bf 86 8f 70 55 54 8d 59 3f
       -0.0015852888630876868 0.0015595744678273695
0007c0 fd a2 49 c6 b3 fe 2e 3f ef 0c 23 37 fa 35 56 3f
       0.00023647255433736211 0.001355642653422969
0007d0 6d 5f dc 52 b0 04 5a 3f 92 81 c8 3b 63 50 64 bf
       0.001588031951035486 -0.00247973805950625
0007e0 f2 26 58 70 94 19 69 3f 6a 62 83 a0 91 73 5a 3f
       0.0030639552303498513 0.0016144678248136931
0007f0 84 e6 96 0e 8a fa 37 bf a7 55 ba e3 a5 8d 55 3f
       -0.0003658854535292038 0.0013155097975972947
