data/processed/deep_mlp_W5.npy (npy, 6272 bytes, 1 tensors)

array f8 [256, 3]
0.07203199467400037 0.050428653988829945 -0.10094533702141897 0.15876437922846381 0.05939855363004701 0.10190346581614095 -0.014832135863960596 -0.017435970937200514
-0.01764044759059255 0.0338245239238641 0.0730649557984528 0.08101047045999511 0.06701742253649816 -0.13387790904255173 0.09538296405599805 -0.004453566483163526
0.024686609188006692 -0.01319692878407236 -0.03449253652043168 -0.010230275489598983 0.08694684705824757 0.003236710129711285 -0.08390325519489808 -0.09575653660102147
-0.052737467014817144 0.015374803747507394 0.0429772705441994 -0.0452646017017634 -0.06098291591791202 -0.11587701118407455 0.046663865171133745 -0.14482441151628722
0.0920761687698087 -0.024931045118180374 -0.004058124945785565 0.03919330341724844 -0.06376177063500518 -0.1599392159928709 -0.08444010606726099 0.00607864483877846
0.001894579802427194 0.02178146783190837 -0.01749761140446439 0.012610610872613533 0.04147651145938237 -0.05418289257425437 -0.03586011655639153 -0.07110585762205612
-0.14045388763463468 0.13654859310135495 0.01824196085087227 -0.061785849476904256 -0.06813978651870758 -0.08604720491830925 0.09005353553356646 0.07620434566245032
-0.033453734412608654 -0.05959220569607619 0.10017896386088708 -0.07468129363876011 -0.043588753865479724 -0.08068637957463164 -0.07341341205377534 0.03226959187159266
0.028870205076134563 0.03135074551373722 0.0755295344970349 0.16907174425076577 -0.02183146048963877 0.05083269046578923 0.08363600284316479 0.07517798758619748
0.002770054438955625 0.011559970080043072 -0.013979030314851693 0.021283165121213005 0.1016620257170472 0.02961256702507396 -0.03456491188571581 -0.06871165599227479
-0.15517413874822192 -0.00503339425865041 -0.020567583561939773 -0.0055134811946896236 -0.011569482518654044 -0.03074902904466298 -0.08277476893320364 -0.035938074169352144
0.04197359455022328 0.03661604659730528 -0.07751184893267729 -0.05357194750059546 -0.0552440808025805 -0.08660291741545528 -0.018994107497482794 -0.04165415075910563
0.02567723046040753 -0.014750053479685584 0.053571633734201984 -0.04775469172010873 -0.04975547819192126 -0.041023903634884736 -0.05806500122937694 -0.082190407765127
-0.08433847096455735 -0.11871112400505367 -0.12790367129703975 -0.04878804558447925 -0.002218448172486293 0.061911782691015604 0.03174823332966683 -0.09091501165615122
-0.06012726457487868 -0.08933415216483981 0.0030855698993267405 0.0037599018682122043 -0.006616169819773775 0.020103834411372756 0.02353027023879989 0.05017190136328034
-0.13608852547957906 0.046548229654415615 0.11947772243224074 -0.03219221421250657 -0.05046925832489696 -0.058683297281260996 -0.041805852752162705 -0.03492169201577818
-0.04084681345580406 0.04425696966973365 -4.694003290561588e-05 0.1262747258986238 0.045912442340217165 0.043963193680478525 0.04383602890927125 0.044240710174196646
-0.007200593641772119 -0.07883275964758178 -0.021196256682954356 0.016934635335430447 -0.02420313948384298 0.0846793696367355 0.027913469129227392 -0.02926051559719025
-0.039577704232167284 -0.03724492708522404 -0.035100622970603956 0.02536269496604305 0.013077006148691183 -0.024915036607041467 -0.0276729624098663 0.001783863650495062
0.07950558326495755 0.03425651646098259 -0.07481532496502936 -0.1402826368012853 0.001045811943653608 0.09466875425332981 0.06990554912581595 0.1720146198847791
0.17657468817519553 0.0962969390168175 0.04095917659299719 0.011165315818933272 0.059790915276181536 -0.05178173067979214 -0.025384913793777702 -0.00776720377435336
0.019017812663608035 0.06045566641941547 -0.04969156363638662 0.04224328250350613 0.0661238984033701 -0.028074113809223544 0.052695904235141526 0.0651524795215241
0.061604226844090504 0.01617151512058967 0.017493433783917246 0.02973966858043764 0.01691263606470759 0.14655818520912808 -0.07334816907688838 -0.026954713057646875
0.036979349448974325 -0.06849014139213404 0.08825176844379554 0.07203633390707677 0.13423651376837836 -0.05388619041547941 0.018132093493801838 0.007069916791002349
0.007039747418936122 0.001709050928861063 -0.001783270700917872 -0.059243260529189413 -0.05759263394234687 -0.06222348106001267 0.0558811681180389 0.054148913722057
0.12905150956841208 0.052731728537703214 -0.02610625931227251 -0.0006671730523384662 -0.21326179808116216 0.07247268217044042 -0.10583786111984131 -0.02779990343776607
0.05143378770241175 0.06474227039584421 -0.017603918884665625 0.0007703178222984872 0.13289000133543302 0.02655672728697632 -0.13152823137005193 -0.009412360965130208
0.08344091187224555 0.04175899634985957 -0.005995399624642419 0.0377743215005059 0.0713700433852176 0.06333156795132876 0.05902505707962976 0.03352083169518943
0.010624793715832236 -0.029749383370506557 0.02679099800012668 0.015248486555268006 -0.05854611868149073 -0.004812046920750257 -0.014578355331247676 0.08826430614024842
-0.011077214459616144 0.15167937784608318 -0.09356135681476765 -0.1036890238455893 -0.10950778052328508 0.0061962955003106125 0.011356041460436844 0.013191670535174657
-0.006340332909147929 -0.03452509969553053 -0.07599739171088586 -0.014077142267738612 0.006531269550104788 0.014687880882105377 0.1425033721042795 -0.054488437057410556
0.07627560888610753 -0.06684335310174969 -0.04114241751591321 -0.07664591785762653 0.1644606345913152 0.09463731978962256 0.023537182321714086 0.038976564670221814
00000000: 5af6 6355 b070 b23f 479f 53d7 c8d1 a93f
00000010: 3ad1 30b9 8dd7 b9bf ce2a 4724 6452 c43f
00000020: 44a0 8aba 7c69 ae3f 6785 0775 5816 ba3f
00000030: c16c b993 4f60 8ebf c210 cc33 bcda 91bf
00000040: 581e f465 5610 92bf 598d 1cb0 7251 a13f
00000050: 9d56 a38b 62b4 b23f 695e 4229 1abd b43f
00000060: 0375 0ec6 0d28 b13f c94f 7f4c e922 c1bf
00000070: 644f 3797 046b b83f fcfc 5426 e73d 72bf
00000080: 004d 724c 7247 993f a027 48cc fd06 8bbf
00000090: eb67 9f78 01a9 a1bf c053 4155 9cf3 84bf
000000a0: 3401 9b08 2642 b63f 1b74 eb84 df83 6a3f
000000b0: 2a0c 1709 af7a b5bf 9961 1419 8083 b8bf
000000c0: 4a7d 34c0 6700 abbf 6744 393a d37c 8f3f
000000d0: 2dd8 eae6 1d01 a63f f279 f3ff eb2c a7bf
000000e0: 5cdc f61a 2739 afbf cfd1 64a5 1daa bdbf
000000f0: 2044 a17d 53e4 a73f b4fc 8f37 9b89 c2bf
00000100: 5678 9bc5 4d92 b73f 8a30 c01d 8687 99bf
00000110: c9be cd9e 409f 70bf 5c6f cc08 2511 a43f
00000120: 46c6 9cff b052 b0bf f5c4 0463 e378 c4bf
00000130: 9c97 07e6 dd9d b5bf 43b8 95cc ebe5 783f
00000140: 1e2b a192 710a 5f3f 3fd9 fc8f e14d 963f
00000150: e40e f6d2 e4ea 91bf 5160 3e8a 97d3 893f
00000160: d259 8ac8 683c a53f 73dc 372f dcbd abbf
00000170: 6e4f aed7 415c a2bf 786f 0a55 fe33 b2bf
00000180: f24f fe9a 64fa c1bf 5db2 d79e 6c7a c13f
00000190: e2df 1345 05ae 923f 72bf b715 65a2 afbf
000001a0: 4a7e a7ea 9b71 b1bf 244e 098b 3007 b6bf
000001b0: da7e 019e bf0d b73f fcec 6ec4 2082 b33f
000001c0: fc62 760e d920 a1bf 564f 1f9d de82 aebf
000001d0: d798 871d 54a5 b93f aa2b cd31 501e b3bf
000001e0: d8b8 a6e0 4351 a6bf 9774 81d1 dca7 b4bf
000001f0: 35d6 dbab 38cb b2bf d6cd 7cd3 a385 a03f
00000200: 5bf3 85aa 2690 9d3f c699 5f75 340d a03f
00000210: 96ff 8b50 e755 b33f 240b 1e96 24a4 c53f
00000220: b8c2 4e83 fc5a 96bf 058c 3c0e be06 aa3f
00000230: 2bc4 fa48 2b69 b53f ecd2 0f56 dd3e b33f
00000240: 1589 26a7 39b1 663f 0800 7eeb c0ac 873f
00000250: 7ab3 41b0 09a1 8cbf e899 9a08 41cb 953f
00000260: f927 b3c3 8506 ba3f bb75 b1bb c152 9e3f
00000270: 78cb 46fc 7db2 a1bf 2740 574b 1697 b1bf
00000280: efe5 8d05 bfdc c3bf c812 a97b e59d 74bf
00000290: e06d 062b ab0f 95bf 6d5e b1d6 4d95 76bf
000002a0: e9e3 64a8 bdb1 87bf 30b7 8568 ac7c 9fbf
000002b0: 6d87 802d ba30 b5bf 7228 7aaa 7966 a2bf
000002c0: 3b0d c71f 907d a53f 99d9 49a5 56bf a23f
000002d0: 3ae5 3708 d1d7 b3bf 3005 ff44 c86d abbf
000002e0: e477 b0c0 f348 acbf 249e 09da 9b2b b6bf
000002f0: aad6 12fa 3073 93bf d38a 815e b153 a5bf
00000300: 6d35 51c4 214b 9a3f 71db 79aa 4635 8ebf
00000310: 986c c3bd bd6d ab3f 533c 568e 4d73 a8bf
00000320: 2e25 43cf 8c79 a9bf c1a2 eec8 1501 a5bf
00000330: 2c0e a522 b2ba adbf 7168 6539 6e0a b5bf
00000340: 1e61 96be 3497 b5bf 47ea 452b da63 bebf
00000350: d52a a1c2 255f c0bf 7133 7128 bffa a8bf
00000360: 0e8c 284b 6c2c 62bf a039 cab3 e6b2 af3f
00000370: e3a0 b6ef 4d41 a03f 2f54 c7c9 3446 b7bf
00000380: dbe2 e435 00c9 aebf 7cc0 f65d 9ade b6bf
00000390: 0e03 d4b9 e846 693f 3bac ecf1 15cd 6e3f
000003a0: 18e9 0290 8e19 7bbf 20c0 487d 1996 943f
000003b0: 9016 91b4 5118 983f 541d 11a7 21b0 a93f
000003c0: 04d8 254b 596b c1bf ced5 1a68 2bd5 a73f
000003d0: 2f71 728e 1796 be3f 7903 7576 7f7b a0bf
000003e0: e8e8 ea4b 1bd7 a9bf e2f6 49b5 bc0b aebf
000003f0: 3930 b4a4 9367 a5bf bbeb 418a 41e1 a1bf
00000400: ea81 e09f dfe9 a4bf fa00 b47a d9a8 a63f
00000410: c93e e73f 2f9c 08bf cde1 052d c529 c03f
00000420: ed53 a9ec d581 a73f 81b5 2bfe 5782 a63f
00000430: 8989 1a0d ad71 a63f c431 b3e6 b7a6 a63f
00000440: 474b 40a3 5e7e 7dbf d32f 8a3c 622e b4bf
00000450: a8ee 00b5 78b4 95bf f3ce bd23 5057 913f
00000460: d9ad 2c32 b5c8 98bf 2855 3c13 8cad b53f
00000470: 959b 1c34 5995 9c3f a653 37f6 77f6 9dbf
00000480: 09e5 a762 8743 a4bf 09bf 8b5f c411 a3bf
00000490: 88b8 7477 b5f8 a1bf c299 aba5 adf8 993f
000004a0: a6df e70d 1ec8 8a3f 8ea0 9fcd 5383 99bf
000004b0: e79f 2212 4d56 9cbf 5685 8502 113a 5d3f
000004c0: 0cef f857 7a5a b43f 8fe6 bff3 118a a13f
000004d0: cde3 f6dd 1827 b3bf 990b a10c c8f4 c1bf
000004e0: 03e8 2006 7422 513f d39a 7823 363c b83f
000004f0: aae6 4d7f 54e5 b13f 4564 6b37 9304 c63f
00000500: 41c6 81d7 ff99 c63f 2b3a c88b eaa6 b83f
00000510: 1043 e0e7 99f8 a43f e5aa 5552 d7dd 863f
00000520: 0210 6b33 ea9c ae3f e897 998f 2283 aabf
00000530: 5b66 39ba 80fe 99bf 8150 13e3 80d0 7fbf
00000540: c302 bacd 6779 933f 5130 428c 0bf4 ae3f
00000550: 0228 6931 2c71 a9bf 1a10 a859 e9a0 a53f
00000560: 6262 20ed 7eed b03f 03fe b2e2 75bf 9cbf
00000570: d76a a522 f5fa aa3f 7d5a cc38 d5ad b03f
00000580: b074 2ed7 968a af3f ff5f 4702 448f 903f
00000590: 0a96 fc77 cce9 913f 4095 c95f 1374 9e3f
000005a0: 7bf5 25cb 8b51 913f ab97 372a 6bc2 c23f
000005b0: 6a1e 6813 f2c6 b2bf 47fe 382c 049a 9bbf
000005c0: 847a 0511 f5ee a23f 77ac 60e5 9188 b1bf
000005d0: 8ebf 47fb aa97 b63f 792f 4122 f970 b23f
000005e0: fa38 487e a92e c13f 15be 1483 f896 abbf
000005f0: 3d6d 4132 3891 923f 98da 7156 58f5 7c3f
00000600: 219f fbce b5d5 7c3f 899f 2f76 4700 5c3f
00000610: ce69 c855 9437 5dbf d569 f6f4 2155 aebf
00000620: d8b6 8b1e c87c adbf 065e 6490 c1db afbf
00000630: 81fa 0edb 749c ac3f a1ae 190b 68b9 ab3f
00000640: e541 8c86 c284 c03f 4bdd 0f33 a7ff aa3f
00000650: 0151 de67 99bb 9abf 3979 6438 a7dc 45bf
00000660: df53 1fa0 294c cbbf 7e83 c6d7 918d b23f
00000670: fa34 30a8 3018 bbbf c37e 63f0 9377 9cbf
00000680: 58ba 2e88 8755 aa3f 3ed9 040e f392 b03f
00000690: 2376 90ff c206 92bf 8da2 59ed e43d 493f
000006a0: 07bd d920 8a02 c13f 9cd3 becc af31 9b3f
000006b0: 9217 1ec6 ead5 c0bf 81e2 2fb4 c946 83bf
000006c0: 37c4 a333 625c b53f 2fda 4567 6f61 a53f
000006d0: cf54 07d5 a18e 78bf 764f f2e6 2757 a33f
000006e0: a2ec 40a2 4e45 b23f 97c5 2765 7f36 b03f
000006f0: db63 9a43 8838 ae3f 872a bb77 a429 a13f
00000700: 393b 4aac 73c2 853f d726 9c52 9f76 9ebf
00000710: 8e73 f370 196f 9b3f 8106 8c38 993a 8f3f
00000720: d0e7 16c2 c1f9 adbf 334c 6c02 ccb5 73bf
00000730: dc74 04bb 41db 8dbf a3c8 4654 7d98 b63f
00000740: 2bbb ad8e a6af 86bf 87cc a9d7 3a6a c33f
00000750: 1a56 b017 a3f3 b7bf e7f7 5e26 5d8b babf
00000760: 4c4b 01b0 b308 bcbf 5ba4 7b68 4961 793f
00000770: a30d 7a15 d641 873f 78b7 390c 3c04 8b3f
00000780: 8243 d927 52f8 79bf 11b9 2a1c 46ad a1bf
00000790: 33c4 faa7 9074 b3bf 89e2 490d 7ad4 8cbf
000007a0: 31ac e751 88c0 7a3f 011c 4a00 ae14 8e3f
000007b0: 02f9 60ed 8c3d c23f 5ded 578e e8e5 abbf
000007c0: 39f8 a55d cc86 b33f 26e9 865f a51c b1bf
000007d0: 831f 6b73 9e10 a5bf 4806 921e 119f b3bf
000007e0: 1449 86cb 0b0d c53f ea3e 7ac1 263a b83f
000007f0: bf3b 3f91 211a 983f 2058 237d bcf4 a33f
