data/processed/deep_mlp_b1.npy (npy, 2176 bytes, 1 tensors)

array f8 [1, 256]
0.0010260355881856254 0.004007919451272387 0.002789264435058589 0.0017376430370445528 -0.002082647686747688 0.0016830953238838912 0.004341594686396994 -0.0011768282072450362
0.005375204952200293 -0.00018058393530066025 0.006076841134887266 -0.006133764907897893 -0.00011692948893701322 0.011765693439684751 0.00021577363116299047 -0.0008514682232287374
-0.0008556854500946344 -0.0014571960211941133 0.006092869475749451 1.1091286716895801e-05 0.0026505593189162925 -0.001430134411951273 -0.005606854593031341 -0.0003327884145037744
0.0012435907080921562 -0.00037566884948927787 -0.007956774399675019 0.0036810171741216225 0.001293472879874311 -0.002123269270557275 -0.00022692138422133657 0.00045949108429500985
0.0022483611001443546 0.002063894453936798 0.003475891911242588 -0.011003534401884006 0.0012717757659362725 0.003533389780208205 -0.0019145108078645898 0.016559105531297427
0.00013837994875049074 -0.0012715607571045027 -0.003520022191767611 0.002845821420554929 0.002987504946655602 -0.00028342612640860925 -0.005272025984445307 -0.0002145192299015732
-0.00016440097258190578 -0.0013217925958159242 0.0029253266565099586 0.002080985904444523 0.00020023049005225125 0.0001417835244830577 0.0005387581846961038 0.003001569065619992
0.005470390736826883 -0.0008329378645483093 -0.0005514881036757079 -0.001397461276105335 -0.006067438690038406 -0.000304521021379405 0.0001427766620939215 -0.0007814338083622571
-0.0008928275573213634 0.0019675771745112807 9.094712422374754e-05 0.002809388285532627 -0.0010028055586728502 0.0037696617331802623 -0.0013442241306932802 0.0015100667702602885
-0.0031607444328372574 0.0027201857778496475 -0.006975364132298737 -0.004779674066071197 -0.00045847488033100384 -0.001725294842773105 0.003016795709780884 -0.0003942298733349408
0.0003390969024325772 -0.00047921442882536096 0.007868362610375738 -0.0009697288836013533 0.00031207175358491217 -0.0005490484078528579 -0.0011709966220808795 -0.00010079774576719186
-0.0008228541699638342 0.0007598579065074636 0.0026745840011398827 0.0005916772559995825 0.0014176071984258493 0.00046132527026262565 -0.006467071367250305 -0.00026368468228730237
-0.0010605141220900156 -0.00016082691423885932 -0.002551129356887601 -0.0017040880844950421 -1.0954881944574682e-05 0.0002966710928592124 0.002836951895843787 0.0006194178860781702
0.0025415998693454054 0.0001048887181197183 -0.0028511080207606902 0.0017698133485411888 0.0002936058675209523 -0.00479900696527584 -0.0007870550754186817 0.0008880375449578225
-0.0006228961192819047 0.0024485254240430823 0.00017253584016308838 -0.0034611155216591654 -0.0034367357728487986 -0.0005491966913724325 -0.002246152465397598 -0.0005190017070815754
0.0029048575065558986 -0.0013254065663781218 -0.0003358689604679363 0.0017944957355228075 -0.0022329571013964024 0.0026115033757773444 0.001247641645587984 -0.002296551598716561
0.0008390956451662697 0.0029533762086007284 -0.0012875270506295803 0.0016144931806888305 0.0020987799930286917 0.014198504092778747 -0.0006173479650004433 -0.0032144080294064722
-0.0016538269193497857 -0.002138176954705863 -0.002012839723287755 0.0016407992745048258 0.0036673070177051016 0.008004403732463547 0.003770270461415071 0.0027409929726838907
-0.0033800282575561745 -0.0013617655047841284 0.0025942710466302426 0.0003701088719420446 -0.004278621268986542 -0.001412322411984206 -0.0027900739154700293 0.0037116106446488826
0.00019494396429369158 0.005611767501514843 -0.002014098633656925 0.0008758556244675713 0.0004662813501665849 0.0116635377015782 -0.002420584221231339 -0.0005429869178373177
0.0073134082726647965 -0.0012750753900447106 -0.0001698616719432507 0.001127751349343969 9.666815257995349e-05 -0.001792701316591467 0.0025302179641017394 0.0014108418334261151
0.0006487859791752683 -0.000956424932079985 0.0018751024205221696 -0.003618051395968323 -0.003248199887135627 0.0011461091331133536 0.0005075126621806882 0.001419291330683775
-0.004507928852028254 0.0027986317445429106 0.0029276456341105423 -0.005836958587066671 -0.0012242572975683856 -0.0016726605627695392 0.005043898438750923 -0.002853467214017501
0.002458326096643055 0.002460667928759021 0.003758040642961318 -0.003147345635728442 0.0001425523362657085 0.0020141910994067665 -0.0020465669335840726 0.0009947581945009224
0.0010448262650882402 0.004458811086985836 0.0016571516520252042 -0.001059236291853018 -0.004383848190373686 0.0009285176592213858 0.001807474561607361 -0.004853026764568483
-0.0021427259443726004 -0.000254094258641355 -0.008952558735659212 -0.0018328422953452085 0.005660921188073995 0.0048503922330717115 0.0034557449258530463 -0.0005213241580895543
-0.001245481358156942 -0.0027822760582763536 0.0035590956527935384 -0.008515266554827277 0.0026496171211030555 -0.0019631686546077473 0.001277624310933256 -0.0007947493586082598
0.0026336219718342893 0.0006139509118232153 -0.0011198691361784666 0.0016770454593260592 0.0011706369209905129 0.0053345149796378225 -0.00020726938703320293 0.002738734972941612
0.0011506757749451028 -0.0029193066117549813 0.0021469225135026817 -0.00028312505869514614 0.0015906549677006463 0.00044192688531191767 0.007529855303801457 0.00042098073318809227
-0.0022724592471129066 -0.0002557064714253774 0.0013634246669203087 -0.0015402577783060433 -0.0035371257357018995 -0.0008929688785026789 0.001562670762334891 0.00016499020647010168
0.0024275381199191717 -0.009159386118709884 -0.0010463536534501877 0.004431210595436755 0.0024041582188581256 -0.006688029552204308 -0.0005847290056899215 0.003916290566429549
-0.003002745649851765 0.00037052857631743937 0.0005790716481038605 -0.002133859010126392 -0.004017604716851955 0.002438209756462995 0.0008744546815277055 0.007190066817866717
00000000: 9a36 ee52 81cf 503f 49d1 7daf 9b6a 703f
00000010: 473f e9f0 82d9 663f 24e3 0901 3478 5c3f
00000020: d479 84f6 a00f 61bf 1102 d1d7 6993 5b3f
00000030: 3a8b 0cf3 7dc8 713f 56af 70aa f947 53bf
00000040: 49f9 a997 4f04 763f d724 4e31 64ab 27bf
00000050: fe4b ff9e 07e4 783f 2d73 e4fa b71f 79bf
00000060: bd56 dd52 01a7 1ebf de3f 4ea4 9c18 883f
00000070: bac0 dc60 2948 2c3f 1596 0f16 a2e6 4bbf
00000080: 6884 0c83 020a 4cbf 501e 5050 ecdf 57bf
00000090: 4cba 3132 d6f4 783f e38a cad6 9642 e73e
000000a0: 9f45 e832 a0b6 653f e845 ce21 6b6e 57bf
000000b0: 8098 c491 36f7 76bf aa06 565b 43cf 35bf
000000c0: fc74 ef5a ff5f 543f d6e9 346c ad9e 38bf
000000d0: c243 a02e a44b 80bf 12ad 1f0c a727 6e3f
000000e0: 289f e8ed 3731 553f f011 7c82 d164 61bf
000000f0: 79b3 15d9 37be 2dbf 25b1 0a2e fb1c 3e3f
00000100: de88 a1ac 276b 623f 9863 d3e5 4ce8 603f
00000110: 7bb8 a942 7979 6c3f 9f09 2c63 0589 86bf
00000120: b285 a4d4 36d6 543f c8b8 9931 0ef2 6c3f
00000130: 04ff af53 0a5e 5fbf f4ec d4c2 def4 903f
00000140: 4588 67b5 4223 223f 230b 77f7 4fd5 54bf
00000150: fb18 3c86 05d6 6cbf 4f2c cfbd 1e50 673f
00000160: 5e5b 5c81 4079 683f 030e 9af1 1993 32bf
00000170: 755b fdb2 1e98 75bf fd10 5127 121e 2cbf
00000180: fa66 f199 618c 25bf b5e6 26fe ffa7 55bf
00000190: 7506 3cca daf6 673f 3797 e5cc 240c 613f
000001a0: fa70 18d0 9e3e 2a3f 93a5 9733 7795 223f
000001b0: 6c01 5164 6ea7 413f 021a 271f bf96 683f
000001c0: 90e8 f9d4 1e68 763f 5794 a471 304b 4bbf
000001d0: 7029 49af 3712 42bf bd72 9c9e 60e5 56bf
000001e0: 4c3e e8ab 2bda 78bf 57ac e8d3 03f5 33bf
000001f0: 6b6c 4b30 cab6 223f c0d7 5053 249b 49bf
00000200: d2d4 6f94 9441 4dbf 657f bdf3 4e1e 603f
00000210: 351f 63b2 5bd7 173f 8d2f dcd9 b603 673f
00000220: 7130 0a45 126e 50bf e53e 8dbb 8de1 6e3f
00000230: be32 82ab 1506 56bf 37a3 27d9 adbd 583f
00000240: 7ca6 0abf 8fe4 69bf 649c 8e9e a448 663f
00000250: 1df2 360d 3392 7cbf abfe c9fc d993 73bf
00000260: 1197 f79d ee0b 3ebf c724 3e3b 6944 5cbf
00000270: 33ec 30dd adb6 683f ea98 bf69 14d6 39bf
00000280: 82dd 2a1b 1a39 363f 5f07 b14c e267 3fbf
00000290: 0f54 adc0 491d 803f b2ab a7eb acc6 4fbf
000002a0: e25d c4f9 b173 343f f6b3 527a c0fd 41bf
000002b0: 3c1e 840c 842f 53bf 523a 1916 6c6c 1abf
000002c0: 0f6b ebdf 99f6 4abf 4ecc d46d 26e6 483f
000002d0: 55f1 165a 02e9 653f 8a5a 6e3b 5963 433f
000002e0: 8d71 9223 e039 573f ab35 d7f2 c03b 3e3f
000002f0: e12e 5f40 377d 7abf 71c6 3d16 e547 31bf
00000300: f926 2a5e 1e60 51bf c1a8 87ac 7414 25bf
00000310: de79 fb24 1be6 64bf 7f09 eaa5 76eb 5bbf
00000320: d9f2 8682 5bf9 e6be 8c45 39a4 5071 333f
00000330: 347c 9df3 843d 673f 2402 19c8 0d4c 443f
00000340: bdf9 2f0a 1fd2 643f 45d5 c774 f67e 1b3f
00000350: c1e5 9bf6 345b 67bf b6b5 ed9c 22ff 5c3f
00000360: 6f92 5299 e33d 333f b094 819f 1fa8 73bf
00000370: 0fbd 8fe7 4bca 49bf 7a98 4a1b 6619 4d3f
00000380: 1d04 063b 3b69 44bf 397f d413 ee0e 643f
00000390: 4a51 ef94 579d 263f ea7c 243f 7c5a 6cbf
000003a0: 68e9 fa77 5b27 6cbf f8cf 0cea fefe 41bf
000003b0: e3cb 2eec 8566 62bf e0c9 e2ad b301 41bf
000003c0: 11b3 af7f edcb 673f acdb d076 28b7 55bf
000003d0: 6c8b 7133 f202 36bf d7e9 cc1f a966 5d3f
000003e0: 48ee 29b7 d94a 62bf 4897 f432 b864 653f
000003f0: d4c7 2704 fd70 543f 0b72 52c0 37d0 62bf
00000400: 2598 562d d87e 4b3f 42b6 51c7 ad31 683f
00000410: 3f93 cfa4 4718 55bf b279 48da ac73 5a3f
00000420: 5651 cfed 7531 613f 6a48 d8f5 1a14 8d3f
00000430: 726f f3a8 b03a 44bf 70f7 972b 1a55 6abf
00000440: f6db 0922 a718 5bbf 0323 fe02 1584 61bf
00000450: 8856 1319 3b7d 60bf db86 4ace 02e2 5a3f
00000460: cdeb 9276 e60a 6e3f eb0e 0ae2 9c64 803f
00000470: cef5 858a d4e2 6e3f a3c8 a365 4774 663f
00000480: 789f 6cda 6eb0 6bbf 2f1f b493 a84f 56bf
00000490: 0eec aba9 9440 653f 4f4b 3e80 6541 383f
000004a0: 459b c1a6 7586 71bf 484c 89a4 b523 57bf
000004b0: ee3d 0d87 35db 66bf 2632 b2ca cf67 6e3f
000004c0: 4be6 02e7 3b8d 293f 1ba8 445e 5dfc 763f
000004d0: 8131 66f8 de7f 60bf 0f74 ada1 35b3 4c3f
000004e0: b2c0 5226 e78e 3e3f a81c df87 0de3 873f
000004f0: b928 2842 55d4 63bf 9639 f286 e7ca 41bf
00000500: 7b7d a715 aaf4 7d3f 984a 69c6 0de4 54bf
00000510: e884 d4a6 9c43 26bf 4b00 76ca 217a 523f
00000520: 0f6b 3037 4a57 193f b72f ae61 225f 5dbf
00000530: 75cd 0a6d 40ba 643f 3d82 33e2 7f1d 573f
00000540: 8747 0548 6942 453f 2e5a f5e6 1257 4fbf
00000550: a2a4 a8e4 bfb8 5e3f 7c44 788d 9aa3 6dbf
00000560: cbe1 2709 f89b 6abf e3bc a34f 21c7 523f
00000570: 0cd6 a724 53a1 403f 7f76 5276 f040 573f
00000580: 27df dfef e776 72bf 639d 1ffa 27ed 663f
00000590: 32ca 16c8 b7fb 673f 7a3a d5a3 7ee8 77bf
000005a0: 5e3a 8443 e80e 54bf e298 859a a567 5bbf
000005b0: 49a5 6b2d e9a8 743f 4a46 a98b 2760 67bf
000005c0: a8f9 03c6 7b23 643f 5083 f808 6528 643f
000005d0: 8be7 12b5 2ec9 6e3f 89a1 6352 76c8 69bf
000005e0: 3be1 943e 43af 223f 918a cb9c 1080 603f
000005f0: 04ec 8f41 f6c3 60bf 6878 6b7a 514c 503f
00000600: 3919 dea8 511e 513f d928 c3fc 6643 723f
00000610: 72f4 9809 9926 5b3f 3b1a dd4e c25a 51bf
00000620: c187 bb49 ccf4 71bf de62 747d f86c 4e3f
00000630: 3f62 5908 199d 5d3f aad1 d873 c4e0 73bf
00000640: 1333 5f3b 9f8d 61bf 0563 ed87 fea6 30bf
00000650: a7a3 e117 b855 82bf 4326 e76d 7f07 5ebf
00000660: ca5f e3f5 e72f 773f 8296 3840 01de 733f
00000670: 864e 13ee 384f 6c3f d67a d41a 2f15 41bf
00000680: 0332 de6c ed67 54bf 7a3e b815 dbca 66bf
00000690: dda1 d3ed f627 6d3f 4928 f5ba 7370 81bf
000006a0: 6ad4 395c a6b4 653f c7d9 6025 1015 60bf
000006b0: fe39 73a8 beee 543f cc88 7a40 d70a 4abf
000006c0: 5057 a607 1b93 653f 7876 378b 311e 443f
000006d0: 3f34 3454 1259 52bf e4a0 b5d9 097a 5b3f
000006e0: 131c a2d2 012e 533f 3a83 0af6 a4d9 753f
000006f0: 6701 407a ce2a 2bbf c7ac 8424 8b6f 663f
00000700: 168c 96b4 48da 523f eb5f 95cd 3aea 67bf
00000710: 03f8 703f 6c96 613f 5c6b 26de 0c8e 32bf
00000720: a30e 31c4 b00f 5a3f 1afc 0685 4df6 3c3f
00000730: ff01 6024 a0d7 7e3f cfc0 357b e296 3b3f
00000740: a620 bb44 b19d 62bf dd38 a1ee 0ac2 30bf
00000750: 2e08 b816 9e56 563f 6b46 4132 4f3c 59bf
00000760: 55eb 69eb e3f9 6cbf eaf0 9310 c442 4dbf
00000770: bca8 64f4 509a 593f ff50 f714 27a0 253f
00000780: 500f b79a eae2 633f 2a7e a6fe 27c2 82bf
00000790: 1700 2fae b924 51bf 2ae9 6c09 7626 723f
000007a0: 57ba 949d e2b1 633f 30ee 3843 e864 7bbf
000007b0: cf4e 6dfa 0f29 43bf b59e 783e 870a 703f
000007c0: 9381 a8cb 3699 68bf 7295 151e 7048 383f
000007d0: ecea 33e5 9af9 423f ca64 35d5 067b 61bf
000007e0: 69c8 df8d c374 70bf b403 46e5 4bf9 633f
000007f0: 7bc4 2621 75a7 4c3f 84b1 6bdd 5473 7d3f
