data/processed/deep_mlp_W2.npy (npy, 524416 bytes, 1 tensors)

array f8 [256, 256]
-0.03277948542283624 0.03275042140217426 -0.0454388676234057 -0.04256416630933902 0.033870579376345765 0.10103509854004988 0.13767253455823072 -0.11893373668226084
-0.016797379191404175 -0.10566710121743407 -0.03437975748018348 -0.04951789764382298 -0.11736934337743866 0.06776292405687112 -0.04174100131298498 0.019088006099197943
-0.032961371553213874 -0.09688267113443744 -0.09031891791380015 0.13561375504133283 -0.05194617162875565 0.02867238190000891 -0.09432393017643925 -0.06924644159578264
-0.11372111465537099 0.06375447568323789 -0.0018979899671853872 -0.06662294052860164 -0.09651272021741347 -0.02570824885665406 0.06422557792577702 0.11872475738206244
0.0702583409583228 -0.009629719337688091 0.01900677868253267 0.17959430970035226 0.01309167798497699 -0.08180139078376387 -0.01613058628924782 0.010731303871394633
-0.06699476610741323 -0.044586904106609586 -0.012487455506978518 0.11401753472494029 0.0675835444088087 0.0011495223048789043 0.12000442308131606 0.02493409946937092
-0.07093363181606291 -0.1533051954662006 0.02340130118175316 0.13541726725538974 0.11635057766697698 0.07413020105438907 -0.10915720915355383 -0.05179922285492769
0.02559797263516847 0.1231441631440346 -0.12215707434226293 0.08416409450300735 0.0805479122249705 0.026887137515177514 -0.0024737271632586408 0.06901454841276813
0.010993302781843213 -0.06144879888941137 0.1443461829711174 0.06366802277777463 -0.12577667308672327 0.20666053125000705 0.05959692236450829 0.044427941890688216
-0.11686696188716575 0.06714283795665017 -0.02412635737206024 -0.11567004488941712 -0.13559895670357056 0.06507451367369667 -0.05255404809642293 0.005586306337253055
0.14852820584128326 -0.125218137650947 -0.1505565118576183 -0.024283451742062673 0.056913481958927814 0.05733284788040593 -0.0980672315405115 0.1807951531070243
-0.022960064780014965 0.10940572555692658 0.0052785036173795975 -0.1331325954647988 -0.031611923398956555 0.08604399322376709 -0.10322297606164656 0.17076438310122413
0.04389508017184087 -0.21038349755085362 -0.03436602837045259 -0.08809709878448488 0.13390104290841842 0.07191287342887043 0.15006071145537478 0.1785999950926458
-0.02001260018405317 -0.09788533596011506 0.23446121667660758 -0.02446846295191934 -0.17722636415733267 0.023506743217441433 -0.07530163503723872 -0.012482475756946427
-0.12664202852981488 0.0824504538351115 -0.06901330083764083 0.012218866758682006 -0.06964904465294966 -0.06281153814400631 0.12317734841610063 0.0014043331887352085
0.09064560601241324 0.1514795178501055 0.10332152688740862 -0.12412996709647034 0.07039585361806368 0.0727600582763034 0.059765701395481693 -0.0672681249776806
-0.08429909009986233 0.033436495135313715 0.05452160408284925 -0.06944365777966957 0.012556126294522425 0.1290952180350297 0.18967413913044084 0.1453846242154471
0.03153671551319955 0.18912967151922735 0.1635215131050665 0.0991217455961718 -0.06169877513590447 -0.005356801249122509 -0.1261483038320157 0.06347201671984909
0.043478026706609364 0.019320653092401042 0.026347488743827686 -0.021924728872846456 0.06889215687424978 0.02006283678226813 0.0376885395862103 0.044354296144130806
0.031158068082455827 0.012922998520753728 -0.04555358803495285 -0.14547559126183146 -0.054338946946460936 -0.06950326489913763 0.14410932009021254 -0.03181261020978308
0.03885237304165182 0.004077767350775828 -0.1049284486418401 -0.18381192456954706 -0.05827577464490295 0.11806882287012051 -0.18056116169767442 -0.023162949660648566
-0.0014006885467295685 -0.05009403108381128 -0.05965573379608584 0.14228741237666515 -0.1021650891920845 0.12111835360707249 0.011446379990941656 0.013017466684215181
0.04941856833595107 0.0019854067398188805 0.02493920677171678 0.01779686085688984 0.024080554416129846 0.07520333666707299 -0.1124308417125314 -0.01735349898846396
0.006806022169478732 -0.03181579303411235 -0.010275972889547846 0.09771655790505343 0.1298342302770117 0.14690854620563779 0.06964300240649837 -0.05976142847873885
-0.024697187799372047 0.04131466277965406 0.03938275466204962 0.004685562711756526 0.10802946607819222 0.08887927049523263 -0.21068294310906927 0.03528679214644428
0.08987941669135319 -0.048087658230893296 0.0637658058128812 0.015308325757146407 0.050028223389772676 -0.0934362788574755 0.001628065482433285 0.060353407756309284
0.06283077919510144 -0.02005289532035535 0.03710291212503762 -0.04151892569827822 -0.041899907344441704 0.03692219776778181 -0.048817165109536285 0.13460917510443332
0.09262449221166004 0.14468206419715404 -0.05186842893591786 -0.046756519464854186 -0.049816981912699926 -0.06261379434123046 0.07786930654993582 0.008171971249659373
0.1918857183890713 -0.020324956356268447 -0.10466541027542418 0.0012635633064186033 0.10767511606150361 -0.155585502405526 -0.05596532913556872 -0.039079055670158215
0.0641480784129367 -0.019768540160569364 -0.09919173848031146 -0.09149700701529381 0.03826190501832879 0.0979543052567194 -0.01034455809959089 0.1490509794833579
0.0721066074327093 -0.059633365811976854 0.07472899379583287 0.024387404260855953 -0.04220942921531839 0.22047909871359048 0.07655374265594932 0.09448453948738375
0.04838114967369571 -0.07658505198574721 -0.09358548438869292 -0.07332042774322038 0.07717707413893676 -0.050057079846025 0.014437895359195771 0.059113251803073544
00000000: 3dd8 bd03 79c8 a0bf 5782 b4c9 a9c4 a03f
00000010: 67d1 d164 c343 a7bf 616b 8f6c f8ca a5bf
00000020: b39a 6f0d 7c57 a13f 6047 faab 6fdd b93f
00000030: 7d15 beec 409f c13f aafe 70fd 7072 bebf
00000040: 3172 2409 5533 91bf c9f3 fdc7 ff0c bbbf
00000050: 4b29 0b3c 399a a1bf 71cf e4ed 685a a9bf
00000060: 89ed 5bd3 ea0b bebf c0a1 b436 e958 b13f
00000070: d147 1597 135f a5bf 6782 c467 ce8b 933f
00000080: 4f68 b419 50e0 a0bf ec4f 1280 4dcd b8bf
00000090: 8c5e a6fe 231f b7bf e227 65a1 ca5b c13f
000000a0: 7987 9848 b098 aabf 2c60 3cfa 4a5c 9d3f
000000b0: c886 56f3 9c25 b8bf b8ac 0482 22ba b1bf
000000c0: 643a 4fb4 d31c bdbf 787b 089c 3652 b03f
000000d0: 33a4 9435 bf18 5fbf 91d3 bb76 330e b1bf
000000e0: 8456 fbc0 0eb5 b8bf cd99 4e60 4353 9abf
000000f0: 8206 c264 1671 b03f 4f76 2ee6 be64 be3f
00000100: 3ded af5c 73fc b13f 460f 000d bfb8 83bf
00000110: e809 6053 8376 933f 7ff8 5a43 f2fc c63f
00000120: 73a6 5c46 cfcf 8a3f 35ff 2e9a eff0 b4bf
00000130: 077d 4f52 8984 90bf 375e 5e39 4bfa 853f
00000140: fc3b 6fa9 9126 b1bf 5f80 ef3d 18d4 a6bf
00000150: 0d11 1ae8 0593 89bf fb6c d0ce 4030 bd3f
00000160: 04cd fbb8 274d b13f d48a 262d 72d5 523f
00000170: 2675 8220 9cb8 be3f 70c9 1a17 5388 993f
00000180: 8e24 d6dc b428 b2bf b1c7 6a30 819f c3bf
00000190: 12b4 09bd 82f6 973f c179 165f 5a55 c13f
000001a0: b84b f3c5 26c9 bd3f 69ac 2c65 32fa b23f
000001b0: c5e8 6f13 baf1 bbbf b481 3d80 6d85 aabf
000001c0: 3870 3fdd 5a36 9a3f 5d9c 6539 6086 bf3f
000001d0: 556a 469f af45 bfbf 724b 6331 c78b b53f
000001e0: 896f c4b8 c99e b43f 2f33 3e41 4d88 9b3f
000001f0: c757 7e28 c843 64bf 5a8c 61fc efaa b13f
00000200: 1164 621f a883 863f b38d 378b 3776 afbf
00000210: aee9 948b ef79 c23f a1ab a12b 8c4c b03f
00000220: 9dea c034 7319 c0bf c4df 8b2f da73 ca3f
00000230: 7de1 fee0 7c83 ae3f b0ef e55a 42bf a63f
00000240: 1acb 4943 feea bdbf 7537 2fe5 4530 b13f
00000250: 7bd6 896f 94b4 98bf 3849 ed53 8d9c bdbf
00000260: 63ef 347e 4e5b c1bf 0919 082c b9a8 b03f
00000270: ae6e b13b 5de8 aabf 4d0e 62b0 aae1 763f
00000280: 5d99 4fe5 f802 c33f 03d6 09df 2507 c0bf
00000290: 5c6c 508f 6f45 c3bf b8bd 43dc c2dd 98bf
000002a0: 181f 6e8f c323 ad3f af09 4425 bb5a ad3f
000002b0: fc97 4620 ef1a b9bf 935b efaa 4b24 c73f
000002c0: 7677 60dd d782 97bf 551c 437d 0302 bc3f
000002d0: 9210 8986 e99e 753f b7c5 c627 7d0a c1bf
000002e0: ad08 5322 702f a0bf afcf e9a8 fa06 b63f
000002f0: 916c 612a d26c babf 4de5 5e78 9bdb c53f
00000300: 9332 967b 6a79 a63f 70ac ccb0 d8ed cabf
00000310: c695 e38f 6c98 a1bf 3edf 260e 888d b6bf
00000320: d091 185c ab23 c13f a8d3 89cf e168 b23f
00000330: 0bc3 0e7c 3035 c33f e08c fe58 5ddc c63f
00000340: 2598 31dd 2e7e 94bf 20e8 b46c 030f b9bf
00000350: 1838 e73c d302 ce3f 2ec4 a5c0 420e 99bf
00000360: bab9 057f 5aaf c6bf cbe2 6ad5 2612 983f
00000370: 16fd d1cb f746 b3bf 978e 3189 6990 89bf
00000380: f0d5 6a55 ce35 c0bf 071d c312 791b b53f
00000390: 7330 160e dbaa b1bf 0355 fb88 3406 893f
000003a0: 7268 fb10 85d4 b1bf a8d4 23be 6a14 b0bf
000003b0: 491e 0efb 8c88 bf3f 9f4f 9247 3302 573f
000003c0: 5173 59e9 8c34 b73f ec0b 974b ae63 c33f
000003d0: c246 f492 4773 ba3f 7c05 2245 fbc6 bfbf
000003e0: 3947 1071 7605 b23f 7974 c036 67a0 b23f
000003f0: 760a d529 9c99 ae3f 25a6 d7dc 7b38 b1bf
00000400: 3ebc 0f0b a094 b5bf c8b4 329a 961e a13f
00000410: 332f ec74 41ea ab3f 420b 143f 0fc7 b1bf
00000420: 0a36 65be 06b7 893f 86e5 c32d 3186 c03f
00000430: 4829 3b00 3e47 c83f 395d 2c9f f69b c23f
00000440: db40 8193 9425 a03f 456c f0ac 6635 c83f
00000450: e945 7ddf 45ee c43f 0772 a8ef 0a60 b93f
00000460: 6ded d25a fb96 afbf f085 d162 03f1 75bf
00000470: b0c2 b3ab a025 c0bf e4dd 05bc b33f b03f
00000480: 4d58 997d c042 a63f fd48 ad14 cbc8 933f
00000490: ad24 f209 d6fa 9a3f 9d1f eea5 6f73 96bf
000004a0: 51ce b998 eaa2 b13f 751a 612f 5a8b 943f
000004b0: 5dde e989 e94b a33f 8495 c036 9bb5 a63f
000004c0: 27c9 ae8d e6e7 9f3f fb67 1a80 5f77 8a3f
000004d0: 58b2 a6c5 cc52 a7bf 76fc 6ab5 f19e c2bf
000004e0: 5479 1180 50d2 abbf 52ff b449 f7ca b1bf
000004f0: 860a 6b98 2c72 c23f bd1f e710 be49 a0bf
00000500: 55f9 2b4f 75e4 a33f 98b1 9856 d9b3 703f
00000510: 3533 563f 97dc babf 0f0d 522e 2687 c7bf
00000520: fe72 7f84 52d6 adbf bd85 e724 c239 be3f
00000530: f3aa 35ce a01c c7bf 9ce4 153d 07b8 97bf
00000540: a065 01e0 e9f2 56bf 51a5 75c2 eca5 a9bf
00000550: b69c 5843 328b aebf aa26 6553 7936 c23f
00000560: 1478 dfc4 7d27 babf ba0f b0c7 9c01 bf3f
00000570: f9dc bf1d 3371 873f abd9 7bcd e6a8 8a3f
00000580: 94d7 a2fd 634d a93f 5d76 8920 b343 603f
00000590: dc0c e4d5 a989 993f 6a3f 681d 5739 923f
000005a0: 554f bfa6 92a8 983f feff 889f 8640 b33f
000005b0: 3a92 3784 44c8 bcbf 24a9 819a 1dc5 91bf
000005c0: c1e3 23aa a1e0 7b3f a6d7 27dd 284a a0bf
000005d0: 8026 f6bb 910b 85bf 62da 7acc f303 b93f
000005e0: e875 7876 689e c03f 1d62 ba34 e6cd c23f
000005f0: 4a2d bbb1 1fd4 b13f 1bc1 c1c9 0c99 aebf
00000600: c71b 9b37 384a 99bf 77bf f70a 3227 a53f
00000610: cb8b 99f6 f929 a43f c8ff c329 2b31 733f
00000620: c267 cfaf d1a7 bb3f b3c1 11b8 cac0 b63f
00000630: de3e 3d9f a8f7 cabf 53dc 7f44 1c11 a23f
00000640: fcdd 4563 5602 b73f 5ac5 e20e f29e a8bf
00000650: f3c4 91b2 f452 b03f 5d1f deb3 f859 8f3f
00000660: 850f ac9e 4c9d a93f 47ea f3a1 70eb b7bf
00000670: 3dd5 2d00 9aac 5a3f c3ef 0751 a4e6 ae3f
00000680: 8c3d d38d ad15 b03f fb38 5d06 bf88 94bf
00000690: f6a8 5324 27ff a23f a30c 14f8 f741 a5bf
000006a0: bfe6 7f97 e773 a5bf 3d71 d15f 77e7 a23f
000006b0: f3fd 413f 90fe a8bf 7e54 689a df3a c13f
000006c0: 5991 db1c 3db6 b73f c9b3 051f f184 c23f
000006d0: 9707 f3ab 7f8e aabf 55e2 f373 78f0 a7bf
000006e0: c470 3388 9c81 a9bf a65b f926 7507 b0bf
000006f0: 1e82 fe2c 3eef b33f 2ed0 166a 77bc 803f
00000700: ac77 8612 b68f c83f 0b07 5fbb 10d0 94bf
00000710: 47c6 2732 5acb babf 6aa7 f5c4 c4b3 543f
00000720: e9c0 13ae 9890 bb3f 921f 48ca 39ea c3bf
00000730: cebc b1d4 7ca7 acbf 6db0 1f84 2b02 a4bf
00000740: b182 e22a 026c b03f b8cf ea45 343e 94bf
00000750: 266b ce38 a164 b9bf 8e04 d00c 596c b7bf
00000760: db06 797d 1097 a33f 957b 9489 8813 b93f
00000770: fda2 d515 872f 85bf 51ad 283d 1a14 c33f
00000780: 44be bf20 9475 b23f 6e60 d3b7 4388 aebf
00000790: d084 6a78 7021 b33f 2157 f0fe 02f9 983f
000007a0: a70f 206c 799c a5bf 2795 36bb a838 cc3f
000007b0: e3fc 17ad 0699 b33f 6670 1387 2330 b83f
000007c0: 86cc 2eff 69c5 a83f 9328 a4f5 139b b3bf
000007d0: cd6a d4e2 37f5 b7bf 4b2e 49a7 20c5 b2bf
000007e0: cc7d 6d71 e0c1 b33f ab6e bee1 14a1 a9bf
000007f0: 2564 2083 9d91 8d3f 8a42 8296 1744 ae3f
