data/processed/deep_mlp_W5.npy (npy, 6272 bytes, 1 tensors)

array f8 [256, 3]
000000 6d a3 2e 3a 3a 0d 9a 3f 15 d2 0f 84 65 19 b0 3f
       0.02544108371845104 0.06288752054371856
000010 98 3f 9d c0 33 b5 b1 3f 5e 48 ff ab be 5d 96 3f
       0.06917117550369623 0.021841983077884534
000020 fc d2 3d c1 44 1f a6 3f b2 b0 98 86 c7 d0 9f 3f
       0.0432073102846626 0.031069867696871874
000030 af c3 bf cb d3 1c a2 3f 61 2c ba 6f 75 0d b3 3f
       0.03537618505641348 0.07442411401477635
000040 e9 56 cd 62 ea 5c ad 3f d6 6d 05 54 85 0f b1 3f
       0.05734951454239285 0.06664307881640438
000050 e1 10 a3 ac 1e fb 8d 3f c4 e7 b4 16 d3 94 af bf
       0.014639129298651134 -0.061682316324052106
000060 34 3a 2d 0e d3 ac 94 bf ce 56 7e d3 f7 81 a3 3f
       -0.020190522899890165 0.03810095268924628
000070 23 bc fb 0e 6a d1 a8 3f 0f 8b d4 7c c9 f5 bb 3f
       0.048472704247494634 0.10921916291821908
000080 5d 62 7c c1 4d c6 b3 3f 85 1b e7 ad bd d4 a7 bf
       0.07724462484146373 -0.04654495952450247
000090 3e 1e 54 77 1b 65 a6 bf 13 6d 88 ca 8b ad a0 bf
       -0.043740137402036514 -0.03257405135465254
0000a0 63 e2 75 b6 36 aa a9 bf ff c3 9b 4e 25 7e a1 3f
       -0.05012675263691759 0.034165540548094946
0000b0 2d a7 18 df a5 05 9f 3f 29 96 93 a0 96 67 a7 3f
       0.030294982663838944 0.045712191678642995
0000c0 77 ce ed ea 22 63 a4 bf ad 22 52 72 cd 79 c1 bf
       -0.03981885068688212 -0.13652961809227318
0000d0 bd 6e c0 23 ad 69 b6 3f 21 50 5a 11 35 59 aa 3f
       0.08754999277919757 0.05146184765649787
0000e0 60 a7 1a 30 a0 41 6c 3f e8 a7 ac 19 87 2b 98 3f
       0.0034492615385105924 0.02360354513363197
0000f0 a3 f9 c9 34 d7 08 98 3f d4 a4 e5 8c 01 7d ca 3f
       0.023471224400503875 0.20693988208521452
000100 26 07 e0 ab 1a b2 b6 bf e0 36 c7 f0 48 93 5d bf
       -0.08865515419168143 -0.001805134993549222
000110 c7 ad 9e 67 f9 68 be 3f 4e f4 72 76 d9 40 ac 3f
       0.11878927974492291 0.055182262143241276
000120 3a 2e 2b 4d 76 3f 9c 3f 73 a8 e1 5e 93 1d b3 bf
       0.027585838756563265 -0.07467003885690975
000130 bd de 09 57 94 95 ba bf ba a0 d4 7d 4c d8 c1 3f
       -0.10384490132298203 0.13941341537543456
000140 7b 22 8b 26 d2 71 a2 3f 35 f7 74 01 15 8d b5 3f
       0.03602463455678603 0.08418399129456307
000150 3f f6 59 76 70 02 a7 3f a2 9e a0 9a 6c 25 af 3f
       0.04494048542708783 0.06083239924947505
000160 b9 bc c2 14 18 b2 af bf f0 b1 1b 74 ef c8 88 3f
       -0.061905624899162466 0.012102003794518063
000170 d5 c9 f4 07 20 e3 9a 3f 5c dd e8 3d f7 8a 88 3f
       0.026257038579567144 0.011983806206542873
000180 8f 3c 71 b8 3e d7 6e bf 24 d9 eb e8 c1 f3 7d 3f
       -0.0037647461900075017 0.007312543354365073
000190 a1 53 32 2e 28 86 9b 3f 07 4f 9e 9f a1 a5 b1 3f
       0.026878955669036867 0.0689335837071746
0001a0 96 4b 42 25 d7 54 c2 3f c1 4c d2 a2 9b 58 99 3f
       0.14321412390981142 0.024752075016817757
0001b0 60 86 e9 96 1d 50 b8 3f 9b c6 ed b2 a7 39 b8 3f
       0.0949724667966847 0.0946297466123504
0001c0 33 6a 4e 26 85 68 b2 3f 01 02 38 c9 cb d9 c1 3f
       0.07190735039913747 0.1394591076387002
0001d0 43 80 73 86 ec 0a b6 bf 78 a5 3d 95 c7 c4 93 3f
       -0.08610418589114581 0.019305342182098312
0001e0 e6 fe 81 1a e4 2e b3 bf 48 4e ff f0 5f dd b6 bf
       -0.07493425032771092 -0.0893154109356199
0001f0 9e 70 ff b9 23 11 97 bf a8 07 13 c3 a3 a7 ac bf
       -0.02252631972065499 -0.0559664893749095
000200 42 ea 0b dc ff 30 a4 bf c7 b7 82 6d fa a3 54 bf
       -0.03943633614649801 -0.0012597985824345113
000210 b8 54 77 0b eb 2d 72 3f 49 78 b5 35 9f 20 62 bf
       0.0044383222043126655 -0.002212820965424665
000220 46 46 97 05 f3 01 85 3f 0e 34 af fa f9 6a c2 3f
       0.010257624252434937 0.143889663128363
000230 18 72 5f 5f 73 e6 bf bf ee bc 28 1f e0 6e aa 3f
       -0.12461014822424266 0.05162716274605282
000240 fe af be 18 b7 d8 91 3f 92 c8 a1 ae 7e 0c a3 3f
       0.017428265462214647 0.037204703156832455
000250 a6 ae 1f eb 07 fa a6 3f 4e 2d 43 5d 8a f3 9b 3f
       0.04487633462107725 0.027296220724378366
000260 98 ad b7 15 b8 6d ac 3f 3a 37 d5 df 27 ac a8 3f
       0.055524590159474474 0.048188444207524175
000270 19 4b fa 80 f1 c3 b5 bf 40 a1 ab 9e 66 ca a9 bf
       -0.08502110861654123 -0.05037232100386513
000280 86 f8 a8 a6 03 aa aa 3f 36 57 7d b8 09 90 9f 3f
       0.05207835587906211 0.03082289875540952
000290 40 0c 44 98 95 34 a6 3f ca 0d 14 e6 b0 46 a6 3f
       0.043369936787734265 0.043508079610571196
0002a0 cb 0c 1d 9b a2 b6 a3 bf ca f1 88 e3 33 57 c3 3f
       -0.03850277083849959 0.15109871492485488
0002b0 d6 42 d3 c3 ba bc 9e bf e6 ca 9e 8c 4e 96 87 bf
       -0.03001682110044864 -0.011517156282797324
0002c0 f0 b6 5e 8b d7 01 87 bf e6 1d f9 0d 82 14 a1 bf
       -0.011233982029661388 -0.033359588819219785
0002d0 b2 6a 63 96 76 6a a5 3f 67 7f 63 a9 d3 f0 a3 3f
       0.04182787500186204 0.03894673769695949
0002e0 8e 8f 40 25 34 ec a7 3f f8 4f eb 3f 4e ac 6f bf
       0.0467239661668649 -0.0038663414301058872
0002f0 37 32 0c 03 51 1e 83 bf 9a ac ef 95 08 45 9a bf
       -0.009335167794710759 -0.02565396704805476
000300 be 63 93 fe bc c3 b2 3f 34 db 50 05 9b 23 b4 bf
       0.07329922881343884 -0.07866829757481925
000310 11 1c 97 c6 f8 78 c8 bf 2c 17 2e a6 f5 e5 a4 bf
       -0.1911917657546103 -0.0408169522625442
000320 46 e3 8c 83 05 bb a5 bf cc c9 22 bb 99 52 a7 bf
       -0.042442486103431196 -0.04555206689237287
000330 3a 8e a9 7a dc f4 b1 bf bd b2 28 9a 1f e6 a8 bf
       -0.070142536112649 -0.04863070256064848
000340 30 d2 1d 72 6f 86 b3 bf a7 2f de ca 94 d3 ad bf
       -0.07627007041976053 -0.0582548616067407
000350 e4 58 26 26 85 ff 83 3f da f4 0d d6 9a 78 a2 3f
       0.009764709688891711 0.036076391820623235
000360 74 9a 0e 53 b7 dc c1 3f 56 b9 6a 84 af 4b aa 3f
       0.13954822116393795 0.05135868541161652
000370 5f c6 06 53 a1 1d b3 bf 2e 17 0b df 98 18 77 bf
       -0.07467087056172649 -0.005638692048426637
000380 b0 15 d2 65 4a 6c c1 bf 1f 3e 6e 57 b5 dd c3 bf
       -0.13611726733885865 -0.15520350236009592
000390 22 34 bd 1e 1e 1b 9c 3f 6c 4b 7e 1f 84 f5 b5 bf
       0.027447195650257446 -0.08577752846603709
0003a0 83 60 8b 37 72 11 bd 3f bd f1 1c db a9 22 b8 3f
       0.11354745727601494 0.09427892302932768
0003b0 fa ae 09 35 05 5e bf 3f 8a cc 04 2c b5 c3 b1 3f
       0.12252838654393008 0.06939251255680481
0003c0 af 95 42 01 33 ae a0 bf 32 50 2a f7 e8 f9 b2 bf
       -0.03257903471357381 -0.07412582430180306
0003d0 55 fe d2 39 d5 92 a6 bf ba 67 c1 c0 cd 97 b3 3f
       -0.04408899622785315 0.07653509098000102
0003e0 95 a5 ab f8 12 c8 c1 3f 82 27 d4 06 67 b8 b6 3f
       0.13891827718843489 0.08875125805584896
0003f0 44 85 4c 0d d0 30 93 3f 98 b2 51 bf 9e 08 98 3f
       0.018740893184376675 0.023470383097832753
000400 83 0e 00 52 25 7e 94 3f a2 d0 cb 0a 1d 05 a0 bf
       0.020012457971474006 -0.03128901249684303
000410 09 b3 71 2c bd 8d a6 bf 8a 04 5d 85 08 bd a7 bf
       -0.044050132441816166 -0.04636408451052272
000420 55 b4 80 58 bd 1f a5 bf fe f9 b9 33 18 55 a8 bf
       -0.04125777917247634 -0.0475242198126473
000430 8d 02 f6 44 a6 d7 a0 bf dc 20 a8 be d9 be 80 bf
       -0.03289527503784937 -0.008176518565065675
000440 ae d7 bc a0 d9 6b 71 bf 42 d7 97 a4 b3 0b aa bf
       -0.004253244503891125 -0.05087052711671315
000450 06 c8 e0 17 b8 82 bb 3f 01 71 bd 71 71 05 a2 3f
       0.10746336539230592 0.03519777787616541
000460 64 c9 c6 7e c8 04 a2 bf 2c 71 bd 46 9c be a3 3f
       -0.035192742801330806 0.03856361735845079
000470 eb dd 23 87 69 8d a5 3f 4e 10 03 73 a2 b7 a1 3f
       0.04209451460513577 0.03460414556460077
000480 57 d0 57 05 e9 f1 93 bf af 7b 82 31 8d 4a ad 3f
       -0.01947750182257865 0.057209408086456796
000490 a0 2e d5 71 8f ad b5 3f 79 6d 42 e0 94 2b b4 3f
       0.08467957047576613 0.07879000163159401
0004a0 d4 8c 15 ad 98 cc b7 3f 7b a2 44 0b fc 91 b6 3f
       0.09296564317405692 0.08816504740810586
0004b0 7a bd ec 5d b8 55 a5 3f b5 39 4a 0e 79 4f 99 3f
       0.04166961809675747 0.02471722745627299
0004c0 93 14 1c 81 2e aa ab 3f 27 b8 69 03 ef c1 b3 3f
       0.05403275800748832 0.07717794259380693
0004d0 4e 86 a1 ab 1e 3d b2 3f af 66 ff da c7 3c ae 3f
       0.07124511423310162 0.05905746982871329
0004e0 b9 d2 65 6b 30 b6 99 3f 50 7e e9 a5 0a 86 a0 3f
       0.025109058909452673 0.03227265620511999
0004f0 c9 08 d6 43 6b 28 a1 3f e4 cb 1e c6 8f fc 9e bf
       0.033511497526903584 -0.030260321109107383
000500 14 bf 8f 47 1c 2a a7 bf 00 47 87 4f 44 7a b8 3f
       -0.0452431523661955 0.0956156438981246
000510 7e 72 85 c3 f8 58 81 3f 91 27 d5 86 86 52 a8 3f
       0.00847048136409367 0.047504619559347046
000520 ac fa 04 7f 72 39 8c 3f ca d9 e0 66 e5 51 b8 bf
       0.013781446935010898 -0.09499963533094227
000530 14 fd cc 00 52 be b3 bf 6b 6d e6 87 ea 8b 53 bf
       -0.07712280768918262 -0.0011930265751292867
000540 e2 c2 bb 9c cc 81 b7 3f 52 81 8c 3e 31 87 bc 3f
       0.09182432962894496 0.1114378717143201
000550 d5 af 6f 5f 8c b0 b8 3f 14 12 b0 05 10 ab 92 3f
       0.0964439137457583 0.018230676982073105
000560 e5 be c4 5b 45 7d 8d 3f 11 23 ce 83 29 88 95 3f
       0.014399091589978716 0.02102722994780765
000570 e3 5f 5a c0 73 e1 b8 bf 2f 00 35 58 f1 62 c9 3f
       -0.09719012685889043 0.19833199316963276
000580 ba bb 89 57 b4 88 c6 3f 80 46 21 99 ba 51 87 bf
       0.17604688906018656 -0.011386354253917874
000590 81 93 93 78 20 1f 87 3f d6 f7 f4 ed cf 4c 76 3f
       0.011289838485433414 0.005444347595867391
0005a0 ef 83 21 b2 4e bb 9a 3f 70 db 25 11 22 50 9d 3f
       0.02610514604782915 0.028625995918868552
0005b0 4b 08 35 6f 7b c9 99 3f fd 74 4a 5c 98 36 b9 3f
       0.025182655966326 0.09848930600351831
0005c0 84 83 52 25 ad aa b9 3f 48 e2 6b 07 34 61 b5 3f
       0.10026056443395076 0.08351445370852517
0005d0 e7 f2 2f 93 94 64 ad 3f 6e 9a 1b 7e 66 29 b2 3f
       0.057407992331695294 0.07094421938709569
0005e0 15 bd 00 ea 6a 16 bb bf 33 d8 be d2 9f 48 8a 3f
       -0.10581081593476356 0.012833832377378318
0005f0 41 10 cb bd 8e 20 a8 bf 11 ad bd 84 84 60 9e 3f
       -0.04712339464961746 0.029665060617316167
000600 cf 60 15 7e 36 c1 bc 3f 86 d1 cd 84 7e 57 bb 3f
       0.1123231942959848 0.10680380575451495
000610 d8 d9 76 d4 c2 8c b1 3f 59 a8 d7 e2 bd db a1 bf
       0.06855409323802719 -0.03487962144920748
000620 73 53 a5 bf 6b 18 80 bf 60 08 cd 00 2e ec aa bf
       -0.007859079156938375 -0.05258315810944292
000630 6a 85 89 c8 3e 5d ac 3f a6 e1 df d1 92 6d b2 bf
       0.05539890478099603 -0.07198445915117321
000640 29 e0 c8 d3 e6 ee 9d 3f 82 da b7 e3 0a 5f 94 bf
       0.029231650043783617 -0.019893808506788797
000650 90 d5 9a ba 10 f5 aa bf 37 b4 cd 8b 06 f5 a2 3f
       -0.05265095022097477 0.03702564674936364
000660 8b 79 12 25 19 59 60 3f 11 ad b7 8e 9e ee b2 bf
       0.0019956103429443254 -0.0739535425597533
000670 1c 8e 9c e2 d5 9b a5 bf 7d 71 4c 3b 44 57 90 bf
       -0.042204555428068086 -0.015957895392703748
000680 20 8e 2f b8 c4 26 55 3f 06 17 e7 28 d2 17 79 bf
       0.0012909813965443842 -0.006126233040452572
000690 b7 d3 65 42 a0 23 89 bf 84 50 52 3b 43 b5 80 bf
       -0.012274982477473146 -0.00815823101792313
0006a0 69 90 1f fd 89 b3 b5 bf 1d ab 66 46 bf 7c a9 bf
       -0.08477079801338196 -0.049779870361211766
0006b0 45 f7 01 de ec 19 ad bf 23 47 a5 6a 79 b6 af bf
       -0.05683841905646018 -0.0619390433008802
0006c0 3c 13 c5 a7 50 5d 45 bf f8 fc fc 11 b8 47 aa bf
       -0.0006519931626277407 -0.05132842273314425
0006d0 48 ed fb 09 07 37 9e bf e1 bb b6 11 e1 00 b9 3f
       -0.02950678823888822 0.09766966516939092
0006e0 d0 9d 21 57 33 3f ae 3f 50 ac ff 69 a2 f6 a9 3f
       0.059075931917330515 0.05070979637078976
0006f0 09 62 ca 3f c4 40 ba 3f bc ba a6 62 dc 6d bf 3f
       0.10255075986277275 0.1227700939987057
000700 09 c1 9f 3f a7 41 bb 3f dd da d3 68 91 e8 81 3f
       0.106470540078366 0.008744369517882539
000710 fa 68 43 da ec 23 84 3f e4 d9 88 7d 66 29 81 3f
       0.009834146891467988 0.008379746156703179
000720 88 80 da 4e de df ab 3f 85 e9 04 46 1f b8 a3 3f
       0.05444235527579716 0.03851411561705035
000730 f6 52 8d a5 23 ed 97 3f 1d 24 5a a3 fd ff a2 bf
       0.023365551928992333 -0.037109304609721706
000740 b3 98 ae d5 b5 72 c2 bf eb 4a 5b e4 08 06 b5 bf
       -0.14412568029110204 -0.08212333273995014
000750 a9 1f ce d9 ef d7 b3 3f 74 a7 e3 02 c8 b9 b1 3f
       0.07751368587025688 0.06924104757822908
000760 3a 65 47 6f 60 11 9f 3f 35 ce 83 38 df 6d ad 3f
       0.030339724342274034 0.05747888150099493
000770 bc a7 5f 11 26 a2 af 3f dc ae 49 2b c7 ad 80 3f
       0.06178397142487266 0.008143955238856852
000780 dd 70 d6 d2 3c d1 93 bf 7c 8f b0 e4 0c dd a2 3f
       -0.019352865570554257 0.03684273044225869
000790 fb 7b 0b 18 49 54 b0 bf 8d 05 27 e6 86 b8 9a 3f
       -0.06378609501869896 0.02609453944910949
0007a0 b7 72 2a ac ea c6 b1 3f 68 ee bd e1 b0 e9 b1 3f
       0.06944147780672948 0.06997209082867928
0007b0 06 a7 0f f6 f6 87 a2 3f 6f be 86 53 71 d1 a3 3f
       0.036193578278313196 0.038707295843207194
0007c0 ee 95 71 4a 13 42 a0 bf 3c 22 82 76 30 f5 b5 bf
       -0.03175411494957446 -0.0857725419356336
0007d0 3e af 77 13 87 b9 ae bf 6f 22 bf c6 86 aa a8 bf
       -0.06000921356812093 -0.04817601371866408
0007e0 70 9d f6 d8 ee f4 ad bf 07 14 ac d4 5e 94 a9 bf
       -0.0585093154762103 -0.04996010156722979
0007f0 fb 49 d4 63 fe b0 9e bf b3 00 0c 63 fb 59 83 bf
       -0.029972052424520595 -0.009448970756693908
