data/processed/deep_mlp_b4.npy (npy, 2176 bytes, 1 tensors)

array f8 [1, 256]
0	0xbf64f3141359c165	-0.002557315073140542
1	0xbf6461b5cab32db4	-0.002487998067953712
2	0xbf40438792fc8c6f	-0.0004963314040406073
3	0x3f3c53ded8b4db1d	0.00043224516476263343
4	0xbf5c44babacb14f4	-0.0017253707439278095
5	0x3f4ed3dcaf06ae2b	0.0009407832676990349
6	0xbf3d0a86cb7aeebf	-0.0004431323136306723
7	0xbf7c70ece08f77ca	-0.006943631459732156
8	0xbf524d6e0e7e0732	-0.0011170935412966984
9	0xbf0071c3a2d334c9	-3.136518749045356e-05
10	0xbf5cff6a0f4f32ce	-0.0017698798885589675
11	0x3f137f11eb7e3a78	7.437273859365625e-05
12	0xbf7b023a1b1c6c93	-0.0065939206849875585
13	0xbf6fd64d90e3ca78	-0.0038863673172440626
14	0xbf6006d042eee8a1	-0.001956373940143655
15	0x3f49d596de9803ed	0.0007884012858881941
16	0xbf630749712e7d73	-0.0023228105942078524
17	0xbf44d6e3de620665	-0.000635968460088243
18	0xbf51c38f95e2ff1e	-0.001084223003587632
19	0xbf476df6a463085b	-0.0007150129611306443
20	0xbf653b72e540f256	-0.0025918239644211844
21	0xbf3becd16cf118ea	-0.0004261027615409934
22	0x3f246834d0f04008	0.00015569348076427425
23	0x3f60148ee75466e6	0.00196292792192031
24	0x3f6a7f496e314416	0.003234523218943251
25	0x3f51bd81f8ca9f3d	0.001082779813410497
26	0xbf36f3bdfe6cb140	-0.00035022152444487767
27	0xbf46db78fd43cc59	-0.0006975498932021525
28	0xbf50a75f7795ceb2	-0.0010164673134029187
29	0x3f522126c1d1794e	0.0011065367209748991
30	0xbf5089e5dc73c63b	-0.0010094399202070909
31	0x3f697568976a52ae	0.003107742576796766
32	0xbf5126edfcc76d3e	-0.0010468792053107269
33	0xbf465564e77c664b	-0.0006815664955610116
34	0xbf5cd6845429d713	-0.0017601291916923875
35	0xbf6e3220b59967d7	-0.00368601215886331
36	0xbf33790638323765	-0.0002971306022992919
37	0x3f5fcd7a06c576ba	0.0019410792984539253
38	0xbf6391adea297796	-0.0023888012668029186
39	0xbf5da16b877dd6e3	-0.0018085050669162598
40	0xbf30fe2ad8fdaacc	-0.0002592901810120451
41	0xbf5d82766ed2cbe9	-0.0018011242457702753
42	0x3f4a35e648c89e9c	0.000799882358084997
43	0xbf64f0bf8a0b611f	-0.0025562039375978253
44	0x3f61d8ccfee342f3	0.002178573972834713
45	0xbf436f1cd6a9cc2b	-0.0005930796445013977
46	0x3f7e2f98cc4a2ad3	0.007369610659803088
47	0xbf4861ce30c702dd	-0.0007440811910371621
48	0x3f25de9692b45097	0.00016685092973800906
49	0xbf312a2ae7d1d180	-0.00026191279886880053
50	0xbf64dc2afe85d9ae	-0.002546390507798444
51	0xbf7b19e6d0e1bc06	-0.006616498589308689
52	0x3f27328e8b254417	0.00017698278458991363
53	0x3f33eb60319c2f27	0.00030394648057162566
54	0xbf70736fcdb66d2f	-0.004016339047122216
55	0xbf57e4eb9f2e449d	-0.0014583874696863293
56	0x3f10cba6743870b4	6.406978086953807e-05
57	0x3f0c3a9fb34f2a2c	5.384254328751436e-05
58	0x3f56d0b24f9d435f	0.0013925305670065764
59	0xbf501f2e5967b865	-0.0009839966420446486
60	0x3f452ca62d8a736c	0.0006461917319772032
61	0x3f64ffee6eda3840	0.002563443841444829
62	0xbf63350dd99ca26c	-0.002344634104606327
63	0x3f571f306b735f72	0.001411244664089009
64	0xbf56e511e1c2b38f	-0.0013973879459101312
65	0xbf5e59cb9638ab5d	-0.0018524635460248275
66	0xbf70a01635326289	-0.004058920621127123
67	0xbf7ed1056a9293a4	-0.007523556859415335
68	0xbf25076aae50318a	-0.00016043832070556887
69	0x3f48052d9cd07a07	0.0007330391614493455
70	0xbf59db3434b7f6f8	-0.001578141195636316
71	0xbf66d1a3a78f5d55	-0.0027855106713833657
72	0xbf501bda72ac2904	-0.0009832032471331362
73	0x3f4be63ce7c5d50a	0.0008514211072411526
74	0xbf4721bc96f12b1e	-0.0007059260223142049
75	0x3f7311e7d9379da2	0.004655748041364845
76	0x3f56ec99142d1fd0	0.0013991827879227155
77	0xbf55c19a7c2bae02	-0.0013278969424231906
78	0xbf6739318d64467f	-0.0028348892038899116
79	0xbf51fae780802387	-0.0010974179040223757
80	0xbf631a5641f3fcbe	-0.0023318943709678954
81	0xbf484b88f9b0d97e	-0.0007414263558363358
82	0xbf754fc5c193f8d0	-0.00520303009511576
83	0x3f7300eb104e3487	0.004639547555496232
84	0xbf646d0f50e68287	-0.002493410028549473
85	0xbf604390d69576f4	-0.0019853428718040692
86	0x3f30e80a97a6f3e8	0.0002579713688211625
87	0x3f3d5b43d6d2ff76	0.00044794470052166664
88	0x3f3111fdcc81cfa4	0.0002604717851746269
89	0x3f60ef7d44c99bf7	0.0020673224119493977
90	0xbf4cdd552bc6c363	-0.0008808771013289859
91	0xbf5038a6839d0fa7	-0.0009900690187842705
92	0xbf4c4ae95c78d358	-0.0008634223422122429
93	0x3f5ffff1e9eb3b8a	0.0019531118811532988
94	0xbf5131a3aba98632	-0.0010494325967090987
95	0xbf53ddc7533b6d89	-0.0012125441107205556
96	0xbf59c46770ce2d87	-0.0015727052843626814
97	0x3f57f6ef9ccfab12	0.0014626827207801546
98	0xbf62b2cac208a536	-0.002282520305261794
99	0x3eedcf88fd4e2107	1.4214841863383511e-05
100	0xbf54387d82a8dcc8	-0.0012341714560884388
101	0xbf8692444b9822d2	-0.011021169239954363
102	0xbf39391b313e8813	-0.00038487352252947296
103	0xbf7d67d91611a42c	-0.007179115288729537
104	0xbf74cf00c111d5ab	-0.005080225893029515
105	0xbf0bae559110dfd5	-5.279730442747625e-05
106	0xbf4173c9aa139d6c	-0.0005326018037096598
107	0x3f6bf807c50c6e57	0.0034141685249673803
108	0xbf6dfb182299d59d	-0.003659770144447362
109	0x3f7502bbe6a3b38d	0.005129560459164473
110	0xbf56cb2dfe65c625	-0.0013912152440663874
111	0xbf42513aeea3ef9b	-0.0005589998011425902
112	0xbf45c7ff53b34a88	-0.0006647106851239296
113	0x3f639eee8a3c8cb4	0.0023951205238446852
114	0xbf4333ea7176d8d9	-0.0005860228292735816
115	0xbf30753cab573aa5	-0.0002511284941108339
116	0x3f620056452f76f6	0.002197426315872937
117	0xbf654cc8f211b108	-0.00260009047683785
118	0xbf52a72643c40766	-0.0011384843519981146
119	0xbf59d24d420986dc	-0.0015760187599415587
120	0x3f5526e32c6717fb	0.0012910097590164138
121	0x3f7e00ca1805c97e	0.007324971608215212
122	0xbf566592dde4c55d	-0.0013669904943294988
123	0x3f3e1f15d2d14233	0.00045961649704387707
124	0x3f7d267311b32d3c	0.0071167464149753355
125	0xbf2de1a2a0670a66	-0.00022797689616823046
126	0x3f715e1d88651bf5	0.004240146028968707
127	0xbf5a32a3fc8f04b1	-0.0015989877158378125
128	0xbf617993b6c1a668	-0.0021331677472076656
129	0x3f6484a69df87c3b	0.0025046591033653066
130	0xbf43dade7b6f55f0	-0.000605925210829637
131	0xbf4ec1ee7073eaf7	-0.000938645768570139
132	0xbf542940dafb90fa	-0.0012305386880422917
133	0x3f4848878c385067	0.0007410680631800948
134	0xbf6e7e8dd999702e	-0.0037224550731434136
135	0xbf65b5c33b7d5a54	-0.002650147736783107
136	0xbf34a19a87aae435	-0.00031480810836687366
137	0xbf6c585b0a7c9e33	-0.0034600999969318868
138	0xbf2b3107485a2388	-0.00020745481394992779
139	0xbf54d956cc774290	-0.0012725207942489193
140	0x3f5ddeabaaf23aa6	0.0018231083338694858
141	0x3f4acf5dc833b941	0.0008181770248521307
142	0xbf4cec81800504b3	-0.0008826858830063483
143	0xbf5058490fc372ed	-0.0009976113788560629
144	0xbf64b583471ced70	-0.002527958299564474
145	0xbf62dbf2c0da97e8	-0.002302145125969258
146	0x3f5ef804c11eece5	0.0018901869229768717
147	0xbf7da91ddd4afd7d	-0.007241360338127276
148	0x3f436cf44dc1a33b	0.0005928223504386496
149	0xbf78aab995da578f	-0.006022190993140954
150	0x3f638b3239fd65e1	0.0023857098566792832
151	0xbf51d7eb112c1b33	-0.0010890765740342978
152	0xbf812e9650b45846	-0.008389639223008182
153	0x3f82a009238e756d	0.009094306371305117
154	0x3f1f70fded0fe949	0.00011993932572799017
155	0xbf4303f584d0beb5	-0.0005803059408488661
156	0xbf7256cc9da58d50	-0.004477309494493056
157	0x3f5cfa11abc6cff4	0.001768605477178828
158	0xbf6b77eede092719	-0.0033530869843944153
159	0x3f695d0240f16a33	0.003096107866025899
160	0x3f69520128290a3e	0.0030908606143225372
161	0x3f6b3e7358b3f26d	0.003325677190899426
162	0xbf30f7a0fd5a62f4	-0.00025890045558578313
163	0xbf56fa7a5c134693	-0.0014024920385974679
164	0xbf57e0df99b07bbd	-0.001457422599521626
165	0x3f6d96978d3f546b	0.003611846923357966
166	0x3f439be36a7ccacf	0.0005984173230671688
167	0xbf52624f6ffcd722	-0.001122071815144073
168	0xbf24f69c8d620918	-0.0001599374870161006
169	0xbf718cffd8ebf629	-0.004284858134949534
170	0xbf6323b6dd933e3f	-0.002336365851625804
171	0x3f37c6b7a0f64dce	0.0003627966225050156
172	0x3f6ca166f440e407	0.003494931299453888
173	0x3f69e77204cebb05	0.0031621195725714
174	0xbf533182bb021d75	-0.0011714722313927704
175	0xbf43946a47ed0f91	-0.0005975264501576362
176	0xbf58bab2b3d1004e	-0.0015093560352994642
177	0x3f701cbc3cc41b69	0.003933654119697796
178	0xbf1c94444fd0318f	-0.00010902087156256498
179	0xbf630ad348f9888e	-0.0023244978581696335
180	0x3f6a8e80f2c478bd	0.0032417791864097476
181	0xbf6b157cad28b230	-0.0033061442457180887
182	0xbf74cde950fd2f24	-0.0050791849060478934
183	0xbf7e78899de42927	-0.007439172330359767
184	0x3f60a5165355138c	0.002031844715619296
185	0xbf61137a5c3d6ef7	-0.00208448313234821
186	0xbf5f0834f28d71cb	-0.0018940465035576111
187	0x3f4b837000c47c1f	0.0008396431817664396
188	0xbf51ef5806e4aed1	-0.0010946616781194916
189	0x3f4a6ab715962acb	0.0008061784712237395
190	0x3f00955a5cdb64e2	3.163034453530237e-05
191	0xbf50a6ad5c99099c	-0.0010163014398051123
192	0x3f63048aa7132ea4	0.0023215015467935186
193	0xbf640f7cf7fa60bb	-0.002448791579649249
194	0x3f36f479f9f3c2e9	0.0003502652925382725
195	0xbf29e9a2e37e3299	-0.00019769776713153968
196	0xbf5b8fe202125353	-0.001682253561999765
197	0xbf753b5bdb1195d6	-0.005183562098954172
198	0xbf48577f236beab9	-0.0007428522866058308
199	0xbf4dc0cf04e0acdf	-0.0009079943499775942
200	0xbf2b7d4fcbb4adef	-0.0002097282320872996
201	0xbf753170c7a9a77b	-0.00517410330449219
202	0x3f68b5dd0449b2a1	0.0030164067014111927
203	0xbf4e69c3bc78a438	-0.0009281354659310742
204	0x3f56992226e0326d	0.0013792832864993013
205	0xbf49a554db3f6e0b	-0.0007826485002583884
206	0xbf3c48b0eb3a6a2c	-0.00043157882030589695
207	0x3f39c44a079fae04	0.0003931694733398663
208	0xbf6d046426fed497	-0.0035421329593768413
209	0xbf6e5a5423420e3d	-0.0037051814379667467
210	0xbf6586791367e928	-0.002627598262958792
211	0x3f70c910559237e2	0.004097999387466774
212	0xbf340b325ba97555	-0.00030584315724076677
213	0xbf6944da6d9d940a	-0.003084589593458369
214	0xbf217b7bf0fe5308	-0.00013337982136065623
215	0x3f60e95f39db2a65	0.00206440543010915
216	0xbf0614ae0a05d86a	-4.211574673977719e-05
217	0xbf6026add16d37ae	-0.001971568573401825
218	0x3f66fdfbfb311c54	0.0028066560276190176
219	0xbf67dfde83888fbc	-0.002914366338034184
220	0xbf58527c2ada4606	-0.0014845097133825438
221	0xbf5bb169623a7ff6	-0.0016902474534745671
222	0x3f704e0096dd75a9	0.003980638792055493
223	0xbf5aa1dcebf8bb6a	-0.0016255052031614822
224	0xbf3c3b316db81356	-0.00043077427628217724
225	0xbf41d5a4d39b1355	-0.0005442671601590768
226	0xbf513085cba162e9	-0.001049166354752435
227	0x3f6bdc7ca3b943f6	0.0034010347715498447
228	0xbf5f2354ffcbbffe	-0.0019005136556948794
229	0xbf42f373c1a40e67	-0.000578338166889525
230	0x3f5430ac9c17d329	0.0012323079721429742
231	0x3f43b2b088b2b6c9	0.0006011354429540035
232	0xbf562b9004697dfe	-0.0013531595629031608
233	0xbf6bc7074e6354b1	-0.0033908026408463123
234	0xbf4793c8a536c7ba	-0.0007195214952189146
235	0xbf5847911e745b7c	-0.001481906621682432
236	0xbf4934faf8c6a74a	-0.0007692552040243575
237	0x3f6fb8d86ac17345	0.0038723208327113034
238	0xbf68cc50dd12fe27	-0.003027112900411816
239	0xbf6f0506e0e66b18	-0.0037865766855252996
240	0x3f60ba88329fad5f	0.0020420703995022572
241	0xbf563ca60068d179	-0.0013572331532830369
242	0x3f584bd013d378d4	0.0014829189306549322
243	0xbf6fd7069cc60fa9	-0.003886711993063192
244	0xbf76b1f2b7a3e42f	-0.005540798296572765
245	0x3f602c2cbc37b0af	0.001974189160810345
246	0x3f58d96e58601a4e	0.001516683348656084
247	0x3f642acb9edd4419	0.0024618126834998863
248	0xbf571b9e74868ea1	-0.001410393468270245
249	0xbf7281a03f26be8d	-0.00451815220223718
250	0xbf6b4e9454fc3f2f	-0.003333368025671655
251	0x3f5a014ad9dcfca7	0.0015872221915314373
252	0x3f5ad3bf0b6dc1d3	0.0016373983068796907
253	0xbf51e59159639a24	-0.001092330877833122
254	0x3f60eea5287ca0e2	0.002066919874682425
255	0xbf837cc433111341	-0.009515316780502327
