data/processed/deep_mlp_b1.npy (npy, 2176 bytes, 1 tensors)

array f8 [1, 256]
000000 21 d2 ae 29 e6 79 48 bf 3b 60 f4 67 b5 9b 5f 3f
       -0.0007469533769524675 0.0019292136710813551
000010 f0 41 8b bd 7d 31 70 bf 2a d9 4f 29 07 68 68 3f
       -0.0039534484610190684 0.002979291903552857
000020 32 bf ea 88 3a 61 60 bf 83 44 74 fd eb 52 6a 3f
       -0.001999487233966501 0.0032133683377045265
000030 f4 59 0d cf 08 bd 63 bf ea cc 77 47 c3 b4 6f 3f
       -0.0024094745680642796 0.0038703741117785866
000040 e8 6d 30 c2 49 2d 46 bf 50 cc c0 30 ac 41 3c bf
       -0.0006767854832818139 -0.000431160486871811
000050 d4 2f 0e cb d2 8e 43 bf 57 4d 4f 01 d9 54 62 3f
       -0.000596859861717198 0.0022377241498163047
000060 87 71 6c 31 c8 de 62 3f 04 c0 48 35 f3 2c 48 3f
       0.0023034963627550117 0.0007377803363564088
000070 ec 8d 69 12 56 8d 59 bf 33 5b 11 e2 08 53 5a bf
       -0.0015595760866283738 -0.0016067110775758841
000080 e2 92 6d ff 53 b2 51 3f a1 1d 74 fd b6 0e 63 bf
       0.0010801143923455038 -0.002326352503249488
000090 3a c4 f1 5b 79 de 41 bf 41 76 84 b9 37 65 4c bf
       -0.0005453198026669278 -0.0008665582745696691
0000a0 21 77 24 22 1b c7 50 3f 99 3c 55 2c 7e f1 2d bf
       0.0010240330671602087 -0.00022844948959252902
0000b0 b6 ca 3e 6d 03 d1 4e bf 0b b1 9c 89 7e 85 36 bf
       -0.000940443680965983 -0.0003436502389486818
0000c0 5b 0d dc d2 09 89 2d bf 2d 3b 63 ef fb 7b 1c bf
       -0.00022533650319909556 -0.00010865903081767594
0000d0 5b 98 35 4b 98 36 48 bf 1b 95 5f 13 ef ec 66 3f
       -0.0007389300939564346 0.002798525757486415
0000e0 e1 d5 c4 1c ff c0 37 3f eb f5 20 c9 71 a5 24 bf
       0.00036245563821365843 -0.00015751852021310352
0000f0 85 74 e2 54 6b d7 58 3f 8e ca 9d 05 b4 1d 5e 3f
       0.0015162037048306609 0.0018381364847896184
000100 89 cb 68 9f ca 35 71 3f 65 a3 24 7d 87 95 25 3f
       0.004201690192121251 0.00016467360416896472
000110 ec 42 8d 71 79 8d 59 3f 2c c9 65 f5 3d 45 49 3f
       0.0015596090290338994 0.0007711937458181654
000120 2b 94 5b 96 7f f2 65 bf b9 4d e6 10 02 12 5e 3f
       -0.002679108804715576 0.0018353481460494493
000130 3b d5 a5 e8 0b 73 41 bf 9a 1a 01 58 ad b6 68 3f
       -0.0005325134418813557 0.003016794740719431
000140 e3 ee 43 08 0a 1a 5c 3f f9 53 f4 52 ca e5 60 3f
       0.0017151926013516054 0.0020626975671214046
000150 47 47 2c b2 15 d0 4d 3f 62 fb c3 f9 fb 1e f8 be
       0.0009098154008333269 -2.300360903095421e-05
000160 1c b7 93 f7 23 1f 48 3f 95 83 64 cc 95 84 49 bf
       0.0007361341114610928 -0.0007787448346655452
000170 1d ff 7c c5 38 6e 3f bf 0d 2f d4 bd bc 79 63 3f
       -0.00047959218999337074 0.0023773847921172487
000180 51 91 f3 93 28 58 65 3f 76 c4 2e f7 69 a8 68 3f
       0.0026055138147162223 0.003009993518809535
000190 55 94 d8 52 5e 51 32 3f 3d ba c8 98 c9 88 40 bf
       0.0002795081407803203 -0.0005045875892102991
0001a0 5d 6a 2d 00 2a e8 45 3f 31 b5 4a ef a8 5c 5a bf
       0.0006685452538975446 -0.0016090059045084754
0001b0 d8 a5 d3 86 e2 28 18 bf 13 49 e7 a0 e8 b5 41 3f
       -9.216196641017389e-05 0.0005404840356340333
0001c0 3b 9e 64 a9 e5 26 6e 3f 4e 23 49 4f b3 3a 36 bf
       0.0036806569652474675 -0.0003391921775671062
0001d0 95 9d 41 93 cd a3 62 3f 2a cf 55 f1 96 67 5d 3f
       0.0022753729954733772 0.0017947172212559683
0001e0 90 e8 67 e4 7e be 76 3f a9 30 22 6d 45 87 70 bf
       0.005552764580437977 -0.0040352546658476785
0001f0 a5 b3 67 86 eb e7 43 3f 32 09 d7 d1 fc 4d 44 3f
       0.000607481005145173 0.0006196484061365192
000200 ea 0f b6 ed 6e 27 39 3f 35 f0 3d ec 49 e9 51 3f
       0.0003838201352766012 0.0010932180311718058
000210 0d 6b ef c0 01 bc 1a 3f f0 c4 b9 71 51 cd 53 bf
       0.00010198364928674601 -0.0012086196283259097
000220 9b 9a cc c1 67 a3 60 3f f3 d9 3d 53 21 b7 20 3f
       0.002031042719312493 0.00012752801705646875
000230 3a d0 d4 08 be 9e 4e 3f b2 95 bc f4 cf 06 3a bf
       0.0009344509032076572 -0.00039713456202358354
000240 8e ac 6b de 29 7b 40 bf 87 b7 fa 33 4a f4 26 bf
       -0.0005029634893082434 -0.00017512708472139043
000250 d7 72 f0 64 42 b9 48 bf 2c 49 c5 23 83 02 4e 3f
       -0.0007545065108192872 0.0009158268290241681
000260 86 0a 4b dd f1 24 3c 3f c9 1c de 2f a2 b3 46 3f
       0.0004294481744119633 0.0006928007057788395
000270 41 2c e8 e3 ff 42 50 bf 01 78 3e f6 2d 5b 64 3f
       -0.0009925364425977942 0.002484884042089242
000280 75 f2 41 8f fe 5b 67 3f 33 b2 09 f9 e7 7d 39 3f
       0.002851483523100657 0.00038897431753673605
000290 0d b5 ce 7c 74 f3 50 3f 30 f2 5a 56 00 46 45 bf
       0.0010346067021871936 -0.0006492139479728539
0002a0 dc 04 d6 94 83 ab 50 3f 94 df 6e 4c ae 35 39 bf
       0.001017454621745898 -0.0003846693547830901
0002b0 86 c7 23 78 75 b0 50 3f 62 a8 da ff c8 2e 2a 3f
       0.0010186335717290176 0.00019975856405568803
0002c0 b5 d5 9d 94 33 ca 5b bf 98 f2 bd 75 b4 8c 5f 3f
       -0.0016961578098436518 0.0019256365112304882
0002d0 63 1c d4 a5 a3 b4 41 bf ad ce 9c 5c 51 03 66 3f
       -0.0005403327046743619 0.00268712893457653
0002e0 25 58 79 6d 0e 90 5c bf aa ba 2b d9 e8 f6 30 3f
       -0.001743330087170766 0.00025885758183978125
0002f0 4f 05 ee 08 05 3e 56 bf f1 f9 ca 77 9a 9b 45 bf
       -0.0013575600785034785 -0.0006594185102455891
000300 cc 58 12 03 bb 1e 15 bf 62 47 9f fc 7a 3c 4f 3f
       -8.056656294494756e-05 0.0009532547494421723
000310 3a b7 38 98 4f a0 46 3f d2 2e e4 0d 1f 89 37 bf
       0.0006904972692092011 -0.0003591252151557814
000320 fb 94 ec 39 a9 1d 73 3f 23 7d 85 15 a7 73 1e bf
       0.0046669588471435165 -0.0001161642770788241
000330 37 f4 15 43 b3 cc 54 3f 36 65 93 7e a2 c6 64 bf
       0.0012695074659341396 -0.0025361226767982815
000340 82 74 0a 58 3a 44 46 bf cc ed fd bc 19 3d 4b bf
       -0.0006795201189394725 -0.0008312583613440615
000350 f2 be ec b9 f6 cd 4a bf 72 08 ad c9 cd 1a 3b bf
       -0.0008180098264798082 -0.0004135849391567809
000360 77 da c8 f1 ec 20 5a 3f e5 fb bc f1 c9 11 51 bf
       0.00159476412876605 -0.0010418388473707404
000370 85 c0 34 a8 c4 ee 3c 3f 56 99 1b 3c 9b 8b 53 3f
       0.0004414777869952219 0.001192952724915116
000380 cf f5 31 8d 81 b2 50 3f 7f b4 50 34 8f ae 16 3f
       0.0010191216613571923 8.652447748210174e-05
000390 2a b4 b5 10 a5 b9 58 3f 5f 68 84 5e c3 0e 48 3f
       0.0015091049161484273 0.0007341817809305532
0003a0 4a b5 12 6b d4 39 63 3f 1b b3 54 4e 7e 7f 52 3f
       0.0023469113153483977 0.001129029603656301
0003b0 10 36 30 82 22 96 55 3f f6 10 fc c5 73 19 35 bf
       0.0013175332067051383 -0.00032195164202188044
0003c0 a2 81 5a 27 4a e9 06 3f 1f 91 94 63 9a e9 56 3f
       4.369981335839163e-05 0.001398468752378319
0003d0 22 96 17 46 de 31 52 3f 13 f5 84 ae 9c 11 5d 3f
       0.0011105223314812414 0.0017742185683141162
0003e0 58 93 d5 ba c4 12 3a 3f cc fd 15 2d f6 f7 4d 3f
       0.00039784720396190054 0.0009145690948315021
0003f0 26 32 ef 7e fb 6f 4e bf 18 64 4e 91 12 14 6e 3f
       -0.0009288766867655048 0.0036716807030186087
000400 20 3c 23 4b 78 ba 4b 3f cc 6f 87 20 80 8a 57 bf
       0.0008462035532604863 -0.0014368296852955596
000410 68 fd 97 61 fe 0c 62 bf b5 14 f5 c4 f7 1b 6c 3f
       -0.0022034614928540426 0.0034313048596766546
000420 be 3a 67 b3 bc 74 61 3f 50 70 79 60 41 18 5d 3f
       0.0021308599054699886 0.001775802464087501
000430 48 44 63 3c 21 41 47 bf 9c 15 c6 b0 2e 74 43 3f
       -0.0007096683773629786 0.0005936840039317162
000440 90 3d be 2a fb 55 3f bf 25 0e 6e 27 4c 48 55 3f
       -0.00047814733510961275 0.001298975342906136
000450 cc 75 83 8b 82 e8 67 3f 37 ae 19 02 b2 6d 59 bf
       0.0029184865671669554 -0.0015520323144312517
000460 ba 2f f9 8d 45 2b 50 bf 3e 14 8a 68 81 a3 35 3f
       -0.0009868792766551796 0.0003301802576419244
000470 8e 65 df 5c a9 43 5d 3f 3a a2 48 26 24 f7 54 3f
       0.001786151307433623 0.0012796261809261537
000480 bd e0 90 88 c2 9d 4c bf 94 07 44 e0 38 9b 3e 3f
       -0.0008732986326611885 0.00046701563429973306
000490 8a ea f3 82 30 7a 43 3f b2 1b 1d 71 2e 68 58 bf
       0.0005944001076437372 -0.0014896825345702522
0004a0 43 73 ed 7a 59 34 46 bf cb cc 29 cd 6d a4 5c 3f
       -0.0006776272692651037 0.0017481872825129581
0004b0 09 81 1f 67 9c 57 51 3f 60 7a 06 1a e1 51 5f bf
       0.0010584857341129925 -0.0019116113909160223
0004c0 c9 d2 cd e9 0a 9f 61 3f 7f 00 98 ef f9 ab 20 3f
       0.0021510327482537656 0.00012719560599805735
0004d0 b6 f4 53 18 67 16 52 bf ce d0 d0 e3 df 93 74 3f
       -0.0011039740359699963 0.005023836679402828
0004e0 72 12 f1 41 bb a1 40 bf 39 3b b9 60 1b 09 60 3f
       -0.0005075611442256335 0.0019574675295993796
0004f0 f4 fb 1f 65 57 66 4e 3f 32 65 d5 fd e8 19 60 bf
       0.0009277273877613666 -0.001965479909512035
000500 af 32 b2 d3 69 eb 48 3f cb 6d da 00 8b 19 3f 3f
       0.0007604853375525379 0.0004745449412923679
000510 98 e7 bd 46 58 aa 38 bf 0e 6e 1b e2 43 fd 65 3f
       -0.00037636428054776397 0.0026842428058964146
000520 a5 d1 fc 54 43 b3 57 3f ca 7e 63 9d ee ac 11 bf
       0.0014465482272046717 -6.74267424503008e-05
000530 aa 78 c7 91 dc cf 62 3f a2 f3 b5 d8 40 9a 33 3f
       0.0022963817593640483 0.00029911120574138185
000540 1b 6e d4 4f 63 31 54 bf ef ff 44 e9 be d9 37 bf
       -0.0012324781267300025 -0.00036393080633345584
000550 f8 8d 59 3a 88 7e 49 3f e2 64 b3 9b 1c d8 23 3f
       0.0007780232596811812 0.00015139912816301062
000560 84 da 33 5d c1 cb 61 3f 1e bb 94 ce 36 f3 41 3f
       0.0021723534242668614 0.0005477922069639684
000570 e6 6c 9b 2d 51 64 66 bf dc 60 17 3b 7b 54 05 3f
       -0.002733381796912948 4.068375654825578e-05
000580 be d7 0d c6 f0 c3 02 bf 9c ba 40 11 a2 d6 47 bf
       -3.5792146042476044e-05 -0.0007274905533501577
000590 38 ef 1d 04 ef a2 54 bf 03 0a 70 cf 05 7e 3e 3f
       -0.0012595495358870955 0.00046527520993336363
0005a0 24 45 26 15 08 6c 42 3f 8d 92 da 4e 92 9a 13 bf
       0.0005621947732824856 -7.478254311849894e-05
0005b0 41 70 de ea b8 78 61 3f a9 64 3e 8b e5 00 62 3f
       0.0021327602070879974 0.0021976931838706038
0005c0 48 75 e2 13 24 39 4c 3f c7 fe 39 1c cc 67 55 bf
       0.0008613039169806181 -0.0013064854873902508
0005d0 8c f6 b3 f8 b5 69 32 bf 79 b9 e0 ca 42 5c 34 3f
       -0.0002809590593669607 0.00031067495990812867
0005e0 a5 59 52 7d 68 5e 66 3f f0 59 c1 5c d6 8b 6d 3f
       0.0027305641948018483 0.0036067187084356453
0005f0 58 5e 64 d0 3f 12 1e bf 2d 2f fc 5e f8 1a 54 3f
       -0.00011471285333574646 0.0012271333216089073
000600 2b d9 5f 9a 35 0a 58 3f 0c 49 a5 e1 2f 08 22 bf
       0.001467277857498293 -0.00013757309427348712
000610 d3 60 81 61 a5 95 69 3f a7 56 d0 ff 5a 83 4d 3f
       0.0031231145949669275 0.0009006685573946419
000620 d5 07 fc 89 e8 8a 43 3f 95 ef 1d 54 15 11 63 3f
       0.0005963931507439966 0.002327481896768855
000630 45 fb ef 02 32 5f 53 3f 52 9f c8 cf e3 9b 44 bf
       0.0011823643105796794 -0.000628935085448904
000640 ff 11 15 a6 46 55 4c 3f 52 25 a6 ee da 71 35 bf
       0.0008646578755038824 -0.0003272208693024431
000650 95 b4 91 2f ec 5c 48 bf 5b d0 09 18 f7 a7 46 3f
       -0.0007434991122302776 0.000691409732168423
000660 60 6f 7d d4 d1 c0 52 3f 7b b0 99 76 9c 19 64 3f
       0.0011446045991396411 0.0024536186145294714
000670 5c c3 96 ae 8b a5 50 3f 5a 8c 62 a3 b2 c7 5b 3f
       0.0010160316545404146 0.0016955608858004929
000680 e7 19 60 bd bc a7 45 bf 8e c7 7e 8e d9 83 40 3f
       -0.0006608649807738316 0.000503998974627816
000690 35 8f 86 70 d6 cd 28 3f 22 e9 b1 08 55 2a 24 bf
       0.00018923990888907732 -0.00015384948742165014
0006a0 f1 1b a4 d3 f3 53 55 3f 9e 8d 05 aa cc 46 62 3f
       0.0013017541046467208 0.0022310254427552875
0006b0 43 62 f6 7a a6 02 51 bf a5 fe 21 28 c5 25 4f 3f
       -0.0010382295402903286 0.0009505474738631016
0006c0 e2 fb e0 96 e6 a9 5d 3f cd 88 7f 8f c1 78 f5 3e
       0.0018105270242043604 2.0477012156912972e-05
0006d0 51 e5 79 4f 00 54 43 3f 93 8f 35 a0 87 02 2e bf
       0.00058984770926355 -0.00022895722950544133
0006e0 15 ac 45 1c 7f 72 36 3f 53 25 f4 30 b5 83 63 3f
       0.0003425178840845156 0.0023821391001816266
0006f0 4f 26 69 2a 48 cd 57 bf 64 a2 02 d7 90 9f fa 3e
       -0.0014527516119805688 2.5389961081730825e-05
000700 98 97 3a cd 9d 1c 60 3f 3d 92 00 fd b6 f7 61 3f
       0.001966770368954717 0.002193314932826844
000710 18 6d 7a e7 67 55 3d bf 7d 53 20 09 1e 23 52 3f
       -0.0004475954697029257 0.0011070054356469843
000720 9f 7f 10 7e 62 68 60 3f cc 9b 8d 24 a9 d4 6a 3f
       0.002002899520917325 0.0032752326555285146
000730 c7 3b 2b a9 d2 70 4b bf a9 9a 30 f9 07 a4 4a 3f
       -0.0008374241463914239 0.000813011067639054
000740 0e 92 8e f3 60 26 54 3f b2 eb 83 91 78 87 02 3f
       0.0012298533240279216 3.534161277404055e-05
000750 a4 0d 6e 27 52 6b 27 3f 11 a8 fe ce 4c 1e 64 3f
       0.0001786744867012638 0.002455854431862477
000760 90 2d 07 d1 3a bd 58 bf 76 19 46 9a 62 69 61 bf
       -0.001509959638599099 -0.0021254468758257717
000770 10 1b 30 b9 9d 27 5e 3f d6 67 84 25 33 ec 51 3f
       0.0018404999034388782 0.0010939120748560869
000780 e2 fe 52 51 30 37 4f bf a9 f3 66 19 af f0 64 3f
       -0.0009526239324699449 0.002556173315694872
000790 2a 97 9c 89 d2 f8 50 3f dd 9c 81 5e bd fb 44 bf
       0.001035886385986238 -0.0006403612760665051
0007a0 cb af 64 80 88 d2 54 bf b2 bc 58 c7 48 e3 32 3f
       -0.001270898153573607 0.0002882054026000599
0007b0 0b cb 1d d6 c8 ba 62 3f e4 f1 25 df ff 63 62 3f
       0.0022863314233573287 0.0022449491017921697
0007c0 84 5e 81 4d ea 8f 2f bf f8 58 6e ed 7e 43 26 3f
       -0.00024080023900084982 0.00016985821158916454
0007d0 b5 a9 9a 23 ad ff 15 bf ef 83 f7 ea c2 46 47 bf
       -8.391851670334109e-05 -0.0007103397128355153
0007e0 5c 24 36 04 0b ef 26 3f 30 bd 3f f8 f3 b5 2d bf
       0.00017497071722186424 -0.00022667506357219305
0007f0 9b ae 8b 78 e4 3d 5e 3f 1a 53 73 64 32 71 40 bf
       0.0018458110009146658 -0.0005017753655019747
