data/processed/deep_mlp_W3.npy (npy, 524416 bytes, 1 tensors)

array f8 [256, 256]
0	0xbfa82754c6f14b24	-0.047175072941760626
1	0x3fb44b20c1c1de94	0.07927136164095777
2	0xbfbb471fb8e78e53	-0.10655401481886288
3	0xbf6204f4040bd17e	-0.0021996274884889524
4	0x3fc4461b2555b56e	0.15838946650493874
5	0x3f4baf5f0479010a	0.0008448804810044241
6	0xbfa3e8a5c4e0c05d	-0.03888433483405216
7	0x3fa4aac01d35b6ff	0.040365222516681946
8	0xbfb325fed314d8b6	-0.07479851392131107
9	0x3fb7e0bccc906e90	0.09327297205202911
10	0x3f9efd3c7356e256	0.030262894191510924
11	0x3fb627d1ca610cfb	0.08654509726425268
12	0xbfb023bf80da24e3	-0.06304547210506288
13	0x3fae0553d5d8fae9	0.05863439546054911
14	0x3fb2ada575011aa0	0.07296213251638983
15	0x3fc08b8582be2dd3	0.1292578590767862
16	0xbfac9e17cc93f36c	-0.055893653605358334
17	0xbfc0ddc347c0c06e	-0.13176766398965206
18	0x3f9c353cac20a187	0.027546833043886856
19	0xbfb4e1c514d5e6f4	-0.081569974505239
20	0x3f78b8d2ec6e53f7	0.006035636825704841
21	0xbf8bbc254d82ef67	-0.013542453220331386
22	0x3f889ee45e98fd9d	0.012021812569513563
23	0x3fb7381c17dcd6ad	0.09069991667351003
24	0xbfb09957676f45cc	-0.06483980441341614
25	0x3f750ed832f19b35	0.0051411099694636435
26	0xbfabea058b0a3687	-0.054519818518298506
27	0x3fac25ac59f4a055	0.05497492406931374
28	0x3fa34d298b709b99	0.03769807650706198
29	0x3f7edf54b95fc51c	0.007537203744491874
30	0x3faa037291a3f689	0.050807552603129365
31	0x3f7271c2934ee4d1	0.0045030212976879406
32	0x3fa128e1b7f65338	0.0335150277198068
33	0xbfc1bab20d7e8093	-0.138509995068493
34	0xbf7fe68ee16a35b3	-0.0077882367392140715
35	0xbfa030f460541141	-0.03162349391826292
36	0xbfad9877a5806157	-0.05780385871202281
37	0x3fac8a883b2b07f0	0.05574441644922945
38	0x3fa1219caa907aec	0.03345956403813041
39	0xbfb96bbafc0bbe98	-0.09930008557761949
40	0xbfa9da6195caac47	-0.05049424127113205
41	0xbfa8c2fb37aa8d14	-0.04836258940238217
42	0xbf884d3bf027c872	-0.011866062418423893
43	0x3fa453311615eb51	0.03969720263099553
44	0x3fbad706000a6c41	0.1048434972857857
45	0xbf8f032493b93ee4	-0.015142713316122998
46	0x3fa183abcec7fedc	0.034207695953225786
47	0xbfbdafbc50c18b67	-0.1159627625616345
48	0xbf8f56409d701acd	-0.015301232151626288
49	0x3fbdbb4706e9128f	0.11613887709342861
50	0xbfaa86cbdea1cfe4	-0.05180966465641726
51	0xbf859928cdc3d49a	-0.01054603460259278
52	0xbfc0f2122997b1b2	-0.1323874190415047
53	0x3f9926b145bdc467	0.02456166256110173
54	0xbfc0ea207961a6ff	-0.13214498450115994
55	0xbf693f553c583470	-0.0030819573173688705
56	0x3fa82e34dac8f8ca	0.04722752733913323
57	0xbf985cf0f7c4e1a9	-0.023792042849181936
58	0x3fc59ac79cbcadc6	0.16878600266623617
59	0x3fb1d82d21d89865	0.0697048385269184
60	0x3f9a18e00c8669b4	0.02548551632353631
61	0xbfb660456c74ca33	-0.08740648172241876
62	0x3f63bab273a401d2	0.0024083600411588324
63	0x3f93d8aabdc192f9	0.019381206352039524
64	0x3fa583cf954d0bc6	0.042021262145247415
65	0x3fc43852a3a9ddf9	0.15796883574851942
66	0x3f9b0822f3bdd876	0.026398225905233073
67	0x3fbb939aa99912d9	0.10772101059508134
68	0x3fc6fca0f6ffec3d	0.17958461819202567
69	0x3f94a5a0603e7b95	0.02016306483676152
70	0xbfba5ad93d9afa96	-0.10294873956716297
71	0xbfb0c20feb96047a	-0.065461153999438
72	0xbfb0408c230c663e	-0.06348491531061826
73	0x3fc2dbdc4564a65f	0.14733460796678607
74	0x3f7f76f09274a9f7	0.007681789145218768
75	0x3fa0834f95c49e10	0.032251822502356586
76	0xbf947d3f1bee2cc8	-0.02000902755711989
77	0xbfa94d75acf507ef	-0.04941909538548816
78	0x3fced34300a74b62	0.24082219631108176
79	0xbfc24bb8318159a3	-0.14293577592134196
80	0xbfb7d8fb8ab95608	-0.09315464150252961
81	0xbfa1c1c0ed858bd8	-0.03468134784159077
82	0x3fb34d4fe220d004	0.07539843817431807
83	0x3fac360ac795e46b	0.05509980856272353
84	0xbfb6d3c6de88d901	-0.08916895802471815
85	0x3f9ebdb77e9a30a4	0.030020587064925622
86	0x3f8c73dd79bbdf41	0.013892870214007426
87	0x3fc8fa53e57c1aa2	0.19513939576446143
88	0xbfbfda2244924d3b	-0.12442220853909174
89	0xbfb961580e1dc13d	-0.09914160103449361
90	0x3fb999408f3ef81a	0.09999469277588027
91	0xbfc95f267d4867af	-0.1982162582142428
92	0xbf7ec7336924aafe	-0.007514191458805495
93	0x3fa4a0be8514e849	0.04028888105899903
94	0x3f762f461723c74d	0.00541617754991981
95	0x3f915442706d3050	0.016922987091035957
96	0xbfadfed9e478f373	-0.05858498491259114
97	0xbfb16a768bf1f82d	-0.06803074757223788
98	0x3fb57c01d0b4f350	0.08392344804174212
99	0x3fb3ec734c7f4f20	0.07782669656381502
100	0x3f97c21509f6d478	0.023201302273907903
101	0x3fb90e8eaefab929	0.0978783776469966
102	0x3f92d80135795749	0.018402117623131962
103	0xbfaf5c7560a666ff	-0.061252277420136274
104	0xbfc97dfa57d85b9b	-0.1991570404940973
105	0x3f8870d124c7c32a	0.011933931288668004
106	0xbfb64b6729ea5497	-0.08708805821727804
107	0x3fa394702017fcd5	0.03824186698693103
108	0xbfc11aa073286ef1	-0.13362508414217403
109	0x3fbd89968ee9624e	0.11538067807249172
110	0xbf91a6653a0208d4	-0.01723631063988125
111	0xbfa0a6ccc1d25f83	-0.03252258172977831
112	0x3fb3b59f71a1a5c1	0.07699009441571204
113	0xbfb675d1ea7f2b8d	-0.08773529028910172
114	0xbfc29bc82f750b83	-0.14537908856626922
115	0x3f827d39e6b657c7	0.009027912476806578
116	0xbfabc015f6f370e8	-0.05419987334764348
117	0xbf983f24cc83c26a	-0.023678374273858806
118	0xbfab3e0a320c37b8	-0.05320770131048341
119	0xbfbfbafa9d45104c	-0.12394682254404293
120	0xbf82dbcef71b371e	-0.009208313861929048
121	0xbfae199e7109bf89	-0.05878920678958283
122	0xbf463e28b39ee421	-0.0006787966478817334
123	0x3fad9b77132200d3	0.057826729856061874
124	0x3f9b5e5679f52702	0.026727057641699588
125	0x3fba0125783ac736	0.10157999215405486
126	0x3fb305e21610c058	0.07430851973254116
127	0x3f9b739fc2d6df3d	0.026808258311319156
128	0x3f9c4c561286ca06	0.027634949570435573
129	0xbfcb4e120e7a7940	-0.21332002360299818
130	0x3fadff9b497418df	0.05859074851655221
131	0x3fc2a0139cb6e9aa	0.14551015045237864
132	0xbfc4c0c0065b58a8	-0.16213226614371945
133	0xbfc06f4036646e26	-0.12839510589479736
134	0xbfb043affcd75c4b	-0.06353282854921465
135	0xbfb9ac8fa8c7fead	-0.10028932448039525
136	0x3fa11d130e57d0ee	0.033424945355280275
137	0xbfb771cca248abc5	-0.09158019029625482
138	0x3f7f48f9b7785813	0.0076379541929068205
139	0xbf651aad57dc754e	-0.00257619720549821
140	0xbf9190b3e9f7ced5	-0.017153559832833693
141	0xbfa4ea470d423dbc	-0.0408498958287242
142	0x3fbfdbf0791ceda0	0.12444975811825154
143	0xbfac8ae6fc6506c7	-0.05574724036206429
144	0x3fbcdafeae62efc6	0.11271659619791227
145	0x3f761edbdc57be69	0.005400523024476558
146	0xbfa0d93bba9cc929	-0.0329073586748499
147	0xbfb237f297d74e94	-0.07116619307572086
148	0xbfaf28bf5dfaf4ea	-0.06085775396557287
149	0x3fa9d0850ad28da2	0.050419004031279316
150	0xbf9602cbdc526755	-0.02149504215467542
151	0xbfbdec5ce9fd655a	-0.11688786232607154
152	0x3f9aaf7657a0ab46	0.026059960459103658
153	0xbfc35b8d508cb56a	-0.15123144562805219
154	0xbf866e1b4bbc7158	-0.010952199219496236
155	0xbfa9a3c5c0ba4370	-0.05007760980254872
156	0xbfacba5e91b0f103	-0.056109385761802265
157	0x3f6b237a51e6a938	0.0033128155766536625
158	0xbfabf39d44877c29	-0.05459300481356195
159	0xbf89f5177af5851b	-0.012674506606972493
160	0x3fab0ac1383fc1e0	0.05281642734178482
161	0xbf974bfae82cfa7c	-0.022750778599624585
162	0x3fae11a149c7ab99	0.058728256470053704
163	0xbfa28b9c8930d17d	-0.03622140097323532
164	0x3f5ba31747428b48	0.0016868331268049142
165	0xbfbe79edd9243db1	-0.11904799033458492
166	0xbfabe0aad2218b05	-0.0544484502322771
167	0x3f834de6e8767d53	0.009425929993823223
168	0x3faae8ac6720031d	0.05255640753603628
169	0x3f7338532376bc91	0.004692387351879949
170	0xbf67eb1c9a82030f	-0.0029197271979345472
171	0xbf9cb0fbf039acf1	-0.028018890893162177
172	0xbfb420067e94678b	-0.07861366834950283
173	0xbfb6fdd341eb636d	-0.08981056556093643
174	0x3f98880d5e5dc411	0.02395649803606054
175	0x3fa6f9326af533a1	0.04486997180592956
176	0xbfaf6c09660576fa	-0.0613711297071244
177	0x3fa9ffb3b299de66	0.050778976013074836
178	0xbf67ab39a299abaa	-0.002889263695398954
179	0x3fb1beffecdebf23	0.0693206742569115
180	0x3f9b2ffeef26fbc9	0.0265502770869224
181	0xbfb207e4b8ceadbb	-0.07043294441125784
182	0x3fb03ab19d17ccfd	0.06339559636380794
183	0x3fb1aac41a56474a	0.06901193278306753
184	0x3fc0cd607a244bd1	0.13126760448412125
185	0xbf8f339d0bac8ec7	-0.015235163611186832
186	0x3fb917460c779c49	0.09801137737632461
187	0xbfa95206ad3c2ef7	-0.04945393433271577
188	0xbfc2f697e3e7690d	-0.14815043094751737
189	0xbfb082f0e77991b3	-0.06449800158731626
190	0x3fb3893fc6e4a759	0.07631300550261012
191	0x3fa6735a0edc8bc1	0.04384881431021582
192	0x3fb20ab769cc955e	0.07047602017390406
193	0x3fa9b8088eb8e2dd	0.050232188627381304
194	0xbfcbec006987af74	-0.2181396975787454
195	0xbf9c979eec6fa305	-0.027922137432969247
196	0xbfc2094d864513f3	-0.14090889984268493
197	0xbfcab5785acd1caa	-0.20866302903798345
198	0xbfb11d32add9b5eb	-0.06685177559275927
199	0x3f70eafa127122f0	0.004130341380979216
200	0xbf9c44180008d488	-0.027603507043938907
201	0x3fb1a7d4dce31178	0.06896715538738885
202	0x3fa8c0ebd5d1c2fe	0.04834687218761323
203	0xbfb57b107ac0ae43	-0.08390906330958452
204	0xbfc20c92a2aa7068	-0.14100869124092985
205	0x3fc3053dfb1b636a	0.1485974765880898
206	0xbf9dd10bfc34677d	-0.029117762821534655
207	0x3fc26bbfa1cd78a2	0.14391322517889643
208	0x3fbbf889e21567a9	0.10926114816302736
209	0x3fb182e470302c04	0.068403508557978
210	0x3fbfcddc27d25bee	0.12423492405137868
211	0xbf9d882905a4d8b4	-0.028839722604254006
212	0x3fa938437b22707d	0.04925738218409579
213	0xbfb61f61eae3e314	-0.08641635880111337
214	0x3fab59d260a9be1f	0.05341966085404359
215	0xbfa7885603c8ecfd	-0.04596203609659175
216	0xbfb137e1f60d0f0b	-0.06725895173172718
217	0x3f9bc18a4e9ad635	0.027105485007913727
218	0x3fb958d526a36e54	0.09901172822304122
219	0x3faeb5fcaf9e12e0	0.05998220103996288
220	0x3fa9775f14bd850b	0.0497388565843356
221	0xbfbd05065964bb39	-0.11335792238672306
222	0x3fb95a32a7cf207b	0.09903256031896206
223	0x3fa21963649c75ac	0.03534994700587943
224	0xbfbc5b7c1fef4333	-0.11077094821599758
225	0xbfbde4b0d87f686d	-0.11677079473102632
226	0xbfb3da218a4c1e0c	-0.07754716516875976
227	0x3fab80bcb5ab9727	0.053716561485812435
228	0xbfa6b46f64f8c729	-0.04434536082807334
229	0xbfae9d2d8e0d4a16	-0.059792922582932714
230	0xbfa21847f0316ddb	-0.03534149939579453
231	0x3fbe88f96f148793	0.11927756273192207
232	0xbfc2407019f237a9	-0.1425914885225528
233	0x3f9202ad539d414b	0.0175883371624093
234	0x3fbd067200679336	0.11337959775808035
235	0x3fb148e246af441c	0.06751836991976784
236	0x3f8d2ce6fb0a97f9	0.014245800529646845
237	0x3fc4ced928d4c295	0.16256250852304235
238	0xbfa918b11fa18c42	-0.04901650916215107
239	0x3fa1a19d0c785422	0.03443613793584911
240	0x3fc3447be9b87376	0.15052746688970914
241	0x3f92a454f6687b0b	0.018205001391943514
242	0x3fb481083aa41652	0.08009387427963446
243	0x3f90b89102d315ee	0.016329065129658753
244	0xbf92a98984fea5dd	-0.018224858038285652
245	0x3faaad7c99e9293a	0.05210484865945593
246	0x3fc3eb5d9a1998f1	0.15562028908170292
247	0xbf94bcc4ffd92851	-0.020251348605860923
248	0x3faec197b1f59e8c	0.06007074401241849
249	0x3fa134a8caf51c65	0.03360488393314468
250	0x3fc4ec0efb31f650	0.16345393433941746
251	0xbfb7002e6047a6e3	-0.08984651423056848
252	0x3fa4fe5fc911282b	0.041003220838846076
253	0x3fa0fa5a9914078d	0.03316004866247999
254	0x3fb697327e95f1b5	0.0882445868537108
255	0xbfb8503b19920680	-0.09497422575261716
