data/processed/deep_mlp_b1.npy (npy, 2176 bytes, 1 tensors)

array f8 [1, 256]
0	0x3f534ceae7d11eb9	0.0011780065535890573
1	0xbf39eae5743d3d9f	-0.00039547063737629425
2	0xbf4654900ab2eea9	-0.0006814673737589222
3	0xbf806344b7c06b47	-0.008001839502005515
4	0x3f478355109d149f	0.0007175603252355284
5	0x3f82a7723f9985f3	0.009108440938862627
6	0xbf32c129e2457505	-0.000286171651415604
7	0xbf46cfa70babf243	-0.0006961408283526277
8	0xbf20d6469106ce39	-0.00012845622451394966
9	0x3f6248b83de2f06f	0.002231941077381498
10	0x3f65bcb826fa74a7	0.0026534649585544137
11	0xbf4b03a11675c61f	-0.0008244072495655097
12	0x3f5e5de411ff0ffc	0.0018534400223737526
13	0x3f4fd9f92a21076f	0.0009720293640002995
14	0xbf5cc3e9913daf92	-0.0017556935244682254
15	0x3f2413c79b511b1f	0.00015317737202932225
16	0x3f7146853f635ceb	0.004217644213176923
17	0xbf56206b9d804f3a	-0.001350503056532794
18	0x3f60f225bdf3f9c9	0.002068589892245874
19	0xbf6470be2597509a	-0.0024951661878081623
20	0x3f5e87007fdd039f	0.0018632416608428193
21	0x3f723df315bcef0b	0.004453610945173168
22	0xbf692a60c3b68086	-0.0030719652110776123
23	0x3f4d304d1542a7dd	0.000890767706114955
24	0xbf500027f753b9cb	-0.0009765997213509899
25	0xbf6e95d96e36b099	-0.003733563107479365
26	0xbf45fd13c44283c6	-0.0006710382954403453
27	0x3f360e44445a7a37	0.00033654371905270396
28	0x3f63320ddbaf9470	0.0023432036082220928
29	0x3f58899b71e33f09	0.0014976518646569478
30	0xbf45cf64179039df	-0.0006655920725522866
31	0xbf7f980c2d427052	-0.007713363233190123
32	0x3f6db1466869f70d	0.003624570384373699
33	0x3f5d051a65021d07	0.0017712362059983404
34	0xbf277107d7c95c56	-0.00017884464968418123
35	0x3f744b98ce88b870	0.00495490732332203
36	0x3f65d68be053784c	0.002665780254218075
37	0x3f7c744a9141a2c2	0.006946841505943881
38	0x3eb97da239d84404	1.5193674934891555e-06
39	0x3f653107f6f5afad	0.0025868564186363936
40	0xbf511888d4914073	-0.001043447135334244
41	0x3f46ede30a26d5ea	0.0006997450439515916
42	0x3f7bfe631d0a09b3	0.006834399377682865
43	0x3f669234e2028ca6	0.0027552636020842956
44	0xbf69a768378404b1	-0.003131583736945297
45	0xbf63835cf7da80d8	-0.0023819747719501065
46	0xbf474e45224e8d38	-0.0007112348144925678
47	0x3f489148f046362b	0.0007497411866538897
48	0xbf6296804343dac0	-0.002269030106727271
49	0x3ec6ba5a0ddef65f	2.709381177161751e-06
50	0x3f441188fc02842e	0.0006124419087606464
51	0xbf37845139760573	-0.00035883887309048136
52	0x3f6edc866eefab55	0.0037672639514218322
53	0xbf472541e5370bf5	-0.0007063457255117577
54	0x3f3f3adfba0d0a7a	0.00047653162078035267
55	0x3f494e189fadaef8	0.0007722492440342668
56	0xbf6d98b7f29049b9	-0.003612860939491838
57	0xbf582ba31c116123	-0.0014752476565914128
58	0xbf7113000bd284d0	-0.0041685106090493945
59	0xbf54acff477613e7	-0.0012619488678364767
60	0xbf6320f6f4975a7c	-0.0023350547169045926
61	0x3f4ba70d67290ecc	0.0008438888019743573
62	0xbf75eef907119132	-0.005354855312450989
63	0x3f1f58a57b2fd031	0.00011957654969291309
64	0xbf369d45440fec8d	-0.00034506741582136167
65	0xbee2e1965dfb9c3c	-9.003258071028674e-06
66	0x3f50cdf68952acd9	0.0010256679136471574
67	0xbf3e18d437935fc2	-0.0004592435939918504
68	0xbf777e0758d20486	-0.005735424708405939
69	0x3f552070c9731b44	0.001289472716779109
70	0x3f45c16b4519d5f4	0.0006639264849598856
71	0xbf0d8e6befad0dfc	-5.637423415419046e-05
72	0xbf4106f63a7ac5d4	-0.0005196287429127208
73	0x3f288d13c036f7c6	0.00018730989550691366
74	0x3f6b16079d6b7476	0.0033064030388759115
75	0x3f517cb512d02d1c	0.0010673301978865795
76	0x3f635ac12aa0f064	0.002362611082416465
77	0xbf38ddcd429257eb	-0.000379431354823877
78	0x3f0273e8b317b5c1	3.51958646084105e-05
79	0xbf61f1a3aa4319d2	-0.0021904179176061933
80	0x3f7621fa4a1cdc92	0.005403497403498341
81	0x3f61f45449ba4a07	0.0021917005777336604
82	0xbf66d534bf3843e9	-0.002787211438552085
83	0x3f433ef85135e99a	0.0005873405920476138
84	0xbf6d4e7049edb9fb	-0.0035774415149980566
85	0xbf436c45cd576602	-0.0005927410917891398
86	0xbf62a89c2bdbf024	-0.0022776651593385978
87	0x3f7220014f1c8972	0.004425053704638736
88	0x3f66c019656436f0	0.00277714691322372
89	0x3f395257f00ed71a	0.00038637778203153147
90	0x3f5c3810403dd68b	0.0017223509503002967
91	0xbf55d87da9fe0889	-0.0013333537280862137
92	0xbf7341055f738231	-0.004700680721015747
93	0xbf716d94ffef25e3	-0.0042548961927848265
94	0xbf41e434f97d439d	-0.0005460032143479347
95	0x3f690ff5c92836ec	0.003059368181545055
96	0xbf76a0e27ff4cd51	-0.00552452541824107
97	0xbf4eb30abff9cc00	-0.0009368708123943525
98	0x3f2a0e5a455ee2b9	0.00019879199925101012
99	0xbf65fc49a818092f	-0.002683776722507101
100	0x3f70040c2258707b	0.003910109900541521
101	0x3f585ae0d192f603	0.0014865108008018664
102	0x3f68691384392c78	0.002979791753920543
103	0x3f2a7178ceffe6f5	0.00020174598421345667
104	0x3f60bd7f8dbb2647	0.002043484810063476
105	0x3efb62372d98e1eb	2.611508793945616e-05
106	0x3f7745ee46d8a37d	0.005681925552871611
107	0x3f738b587bfb2202	0.004771562234687556
108	0x3f5d43e10c49ba18	0.0017862031683325615
109	0xbf644cc1aec4fa63	-0.0024780066361523175
110	0xbf5c8ebd8e7939f3	-0.001743016351514745
111	0x3f5188abc13fe596	0.00107018254220601
112	0x3f2bc722fcd4b085	0.0002119283875939884
113	0x3f2ef5595a171c7e	0.00023619380685444344
114	0xbf457d291f04cb20	-0.0006557894503543583
115	0xbf60b09c05e9a317	-0.002037338955507183
116	0xbf6d849bedc07ff7	-0.003603272007254073
117	0x3f71925939cbcbae	0.004289959467075484
118	0xbf5935e4b6d61137	-0.0015387280976436166
119	0xbf24c21cd2ea965b	-0.00015837289671087853
120	0xbf61ce55e6c02438	-0.002173583770858769
121	0x3f505661477877a5	0.0009971570961009116
122	0x3f6615ed2f1b5b0d	0.002696002244970136
123	0xbf5c6add7eec85ad	-0.0017344630284202675
124	0x3f295c356de52feb	0.00019348289692755426
125	0xbf41870c046e6cee	-0.0005348976782103812
126	0x3f01863212dcabc4	3.34247618936838e-05
127	0xbf433ccb526f52e6	-0.0005870812209375048
128	0xbf503dee3b4c7041	-0.0009913279038249597
129	0xbf392a8d3ea9fcca	-0.0003840060077564099
130	0xbf5ff6394380f78b	-0.0019507941451730483
131	0xbf3780cec5a4f220	-0.00035862968583780415
132	0xbf17cbd5b67bee24	-9.077541255558174e-05
133	0xbf6e723f822d898d	-0.0037165871048482958
134	0xbf1c8389881744c3	-0.00010877158094692572
135	0x3f836fefa38ff0a8	0.009490844897293307
136	0x3f654807272b4ed0	0.0025978221613999
137	0x3f6ce6123611536d	0.0035276752173935473
138	0x3f47e17c13ec7088	0.0007287841652643548
139	0x3f69178ca785e133	0.0030629870563495753
140	0x3f64c98338fc7e5f	0.0025374949399433046
141	0xbf7029666f77ca57	-0.003945732248654985
142	0x3f5fd23226cf2d28	0.0019422044526774072
143	0xbf7d218a9e8fa4b8	-0.007112065774870384
144	0x3f45110f925da651	0.0006429029497045468
145	0x3f452d4816dbe548	0.0006462671278476906
146	0x3f42906533b13ee6	0.0005665296697631966
147	0xbf64ed56ca4efaff	-0.002554578315965172
148	0xbf6bbd4079d7f73e	-0.0033861407562189296
149	0xbf15b3d870881d2e	-8.278854887332619e-05
150	0x3f743b65fa0ac6ae	0.0049394591775794704
151	0xbf026955988c3120	-3.5117077521547866e-05
152	0x3f38d095ddcfa6e8	0.0003786435971152428
153	0xbf5df68fc5b5fe78	-0.00182880440010527
154	0x3f64edd8514234f3	0.0025548195790806526
155	0x3f479cf955bafeec	0.0007206170516482458
156	0x3f60854135b97788	0.002016665804872756
157	0xbf5071e1583b8c3f	-0.0010037136680061257
158	0xbf4ff858d1013b82	-0.0009756501840544193
159	0xbf6ae34ada79d012	-0.0032822095852740396
160	0xbf70bbd924cfec22	-0.004085396020850703
161	0x3f6c9c1bb9c4a53b	0.0034924069897398747
162	0xbf62f8c4c09a48b5	-0.0023158877200525015
163	0x3f3945cd16b02c00	0.00038563019796872267
164	0xbf70aad69bd346cc	-0.004069174113469475
165	0x3f5025c473334037	0.0009855669457472635
166	0x3f608ed303de453b	0.00202122892273651
167	0xbf0b9e5dd40694a8	-5.267833558101595e-05
168	0x3f47b3fc8a06eaa0	0.0007233603574186738
169	0x3f6359b97b56b13a	0.0023621199313394155
170	0x3f7fcc51e84b26ce	0.007763214064377256
171	0xbf5bebecca11c6ca	-0.001704198112090815
172	0x3f7228458f1cefca	0.004432937350255581
173	0xbf3a3fd5e159493e	-0.00040053340612646374
174	0x3f566133e176eef4	0.001365948357359534
175	0xbf6495d35719c001	-0.0025128486384389252
176	0xbf5bfb37ffd81647	-0.001707844435601473
177	0x3f7142f5dedef54b	0.004214249069204821
178	0xbf80204c09ffa511	-0.007874101691373288
179	0x3f4760d63f673e38	0.0007134481555172772
180	0xbf5412bf7f95b4a3	-0.0012251730061863329
181	0x3f508816725898b8	0.0010090083318430709
182	0xbf73b851f1f3a6b9	-0.004814453218594466
183	0xbf5e5546707f59e8	-0.0018513858685672516
184	0x3f3c4bb95b0eb571	0.0004317595985935041
185	0xbf57c878a1c33590	-0.0014516046567679443
186	0xbf3b2a7eb30468c1	-0.000414520199244383
187	0xbf628789ce6f0540	-0.0022618953257455277
188	0xbf64545cac29efbd	-0.0024816331872994078
189	0xbf133ad5e6a45557	-7.335596606979543e-05
190	0xbf6c87d247acc2d5	-0.0034827334433419157
191	0xbf241d0a080ba48d	-0.00015345332578612197
192	0x3f30db7ff9a2cd1e	0.0002572238387401215
193	0x3f6546547dd30b75	0.0025970125412597086
194	0x3f32285631b6ea04	0.00027706245756645175
195	0xbf51a63ddec8f543	-0.0010772327615449918
196	0x3f56c0eda1015d15	0.0013887711138716498
197	0x3f5d81b98072aa05	0.0018009482899211682
198	0x3f5a0bd9c6c62cf1	0.0015897394870048565
199	0x3f6d0602405cf2c2	0.0035429042790425533
200	0xbf710ec052954176	-0.004164458522908246
201	0x3f2c3f0bbebb1e41	0.00021550196048835023
202	0xbf4f79e11174ee79	-0.0009605740514539572
203	0xbf62743aa84e6228	-0.002252687993358888
204	0xbf570215a0a0e3dc	-0.0014043055730452647
205	0x3f3cb7ef13da62c6	0.00043820940832399143
206	0xbf55ad92a366e625	-0.0013231212629832925
207	0xbf3547f722a40e03	-0.0003247240407661946
208	0xbf46da9f1d5b451b	-0.0006974484374159569
209	0x3f50abafe24eb99a	0.001017495881778885
210	0x3f55ed38acbd92f4	0.0013382962669876127
211	0x3f36c244dce2d38a	0.0003472726938398776
212	0xbf4b9f6ea62feec0	-0.0008429804114480008
213	0x3f6b24793e91ea3c	0.0033132904105148946
214	0xbf20b3ed186f3b4c	-0.00012743252975019393
215	0xbf6ca76fcf73517d	-0.0034978088184322562
216	0xbf5a4af9e0c35fb1	-0.0016047897543582763
217	0xbf721d3b5982bee1	-0.004422408899855874
218	0x3f83f91e961b44ba	0.009752501445662854
219	0xbf6b08d5cdfccbd4	-0.0033001113769386223
220	0x3f4defc108865512	0.0009135906739624908
221	0x3f3d8d443c6017e7	0.00045092502512067287
222	0x3f55534519c8647c	0.0013015913783702973
223	0xbf66f5edd6546d3b	-0.0028028149851146134
224	0x3f4f1d8b6f07021f	0.0009495669201485291
225	0xbf3400731a7d20dd	-0.0003052025808654277
226	0xbf4cb6a4d7f53593	-0.0008762650394743991
227	0xbf77bd15c8b19cf9	-0.005795559972376235
228	0xbf7045101ed30a4a	-0.0039721135810305095
229	0xbf6a342a11cea850	-0.0031987020178876682
230	0xbf1408946914687b	-7.642179322822795e-05
231	0xbf5ad798f8fa5c59	-0.0016383165238147617
232	0x3f68b3d800178e78	0.00301544368334011
233	0xbf41e184240507c0	-0.0005456824510832112
234	0xbf5d07466597dc38	-0.0017717540234778572
235	0xbf5e888829a9f4cf	-0.0018636064257003153
236	0xbf34e721f360d29f	-0.0003189523589555518
237	0x3f74bd982bfbddca	0.0050636238299754475
238	0x3f6a20dd9872170d	0.0031894996678286714
239	0x3f0737268ce20519	4.427992244960595e-05
240	0x3f343b577dafde4a	0.00030871282586939343
241	0x3f45c20040c53f13	0.0006639958606146932
242	0x3f49b30575034e9f	0.000784280457106285
243	0xbf438fc38dfea823	-0.0005969719750187379
244	0xbf73df1f6afbdf40	-0.00485145828837813
245	0xbf2da6d4ace99859	-0.00022622438560232735
246	0x3f6a625ef6150712	0.003220735045631148
247	0xbf544205527954a4	-0.0012364437078720503
248	0xbf6aaf5f4ee1020f	-0.003257452152894531
249	0x3f783a12db097f9c	0.005914758352986296
250	0x3f13971ca894dcea	7.47309915326459e-05
251	0xbf54986bf3a752f7	-0.0012570432869455897
252	0xbf5ede012a719b43	-0.0018839846977926767
253	0x3f5a88f22c8b4600	0.0016195645313711315
254	0x3f7c7af8b2596576	0.006953212233918085
255	0x3f52693cb189412f	0.0011237232885328954
