data/processed/deep_mlp_b2.npy (npy, 2176 bytes, 1 tensors)

array f8 [1, 256]
0	0x3f6b6db65d5604ac	0.0033482133682701445
1	0x3f60d68d16dfe6ce	0.0020554309512562435
2	0x3f3dcaf713859b33	0.0004546025479811755
3	0x3f62d3752eac712f	0.0022980965344584696
4	0x3f4240a8dd1cb97f	0.0005570244340782764
5	0xbf4212fc5c6f2020	-0.0005515796882429348
6	0xbf57c95a12ed4919	-0.0014518146160367783
7	0xbf31ff91db878d55	-0.00027463255858447183
8	0xbf1a2a56b9a430e9	-9.981302574519107e-05
9	0xbf2199b436399d37	-0.00013428044177319642
10	0xbf26e52f668760b6	-0.00017467692965911712
11	0xbf60018bc8ecd575	-0.001953862206756691
12	0x3f00aa91e8b23f5d	3.1788423336397426e-05
13	0xbf323aff2903c676	-0.0002781746816387995
14	0xbf579e6beede59fb	-0.0014415792497622915
15	0xbeb1f988b327a41b	-1.0713781192167737e-06
16	0xbf452e021c1d9494	-0.0006463537504087951
17	0x3f61a0e172f2bd7c	0.0021519091893293357
18	0x3f46f5c8b1c589a3	0.0007006864503121168
19	0x3f53f73403fe9b10	0.0012186058010940672
20	0x3f6dbadf4ff6eda5	0.0036291467256128356
21	0xbf6754a2b64e3adf	-0.002847974583750953
22	0xbf2c576fdde59c20	-0.00021622887193048588
23	0xbf549706e1da958f	-0.0012567107400312837
24	0xbf61b759154c4109	-0.0021626224428318336
25	0x3f3a3fa65db8c08c	0.00040052234337207486
26	0xbf501497797f22da	-0.000981471943292947
27	0xbf6243eab21b2a35	-0.002229650869457057
28	0x3f5e1470fc62063c	0.0018359282853740574
29	0x3f55bec91924a930	0.0013272250985872473
30	0xbf56c972f0e6af3b	-0.0013908026190660578
31	0x3f6cbcfbec2d2822	0.003508083378084074
32	0x3f31bcdf61e0020c	0.0002706570975306306
33	0x3f2e1d2fa1b693f2	0.00022975164834551604
34	0x3f5aac946cd33269	0.0016280602897495117
35	0xbef695597cb6372c	-2.153720542490756e-05
36	0xbf4bd375e06ad172	-0.0008491826600534448
37	0x3f3f1de96201c0ab	0.00047480533431266497
38	0x3f61710713f24ad4	0.0021290910950225537
39	0xbf34a3b607447026	-0.0003149337201351375
40	0x3f6f3f74b7773358	0.003814437830192235
41	0xbf4482c4a92f0a8b	-0.0006259403474973708
42	0x3f6919e170865124	0.0030640986553384254
43	0xbf33237a34693d74	-0.0002920316077607767
44	0x3f510c18408b5bc1	0.0010404812657520553
45	0xbf67c8e7aede3d49	-0.0029034161625031457
46	0xbf3b2a8284b8b760	-0.0004145210884612862
47	0xbf37b5df8232a89e	-0.00036179262878966746
48	0xbf27e9f45f9d2b46	-0.0001824484641537954
49	0x3f674ad614c0657e	0.002843301894256355
50	0xbf38972221ec067c	-0.0003752191859548238
51	0xbf6428bb41410331	-0.0024608285257560415
52	0xbf145a00e80867b1	-7.763510257810417e-05
53	0xbf3654c764a2d5cb	-0.0003407465743621967
54	0xbf3cd907cc301672	-0.00044018211718852625
55	0x3f37306a65c9c003	0.0003538379440106711
56	0x3f54c98bcc16410a	0.0012687554557012115
57	0x3f4eb2fac9c523f4	0.0009368633796295032
58	0x3f417bf107a247dd	0.0005335738089959869
59	0xbf31dd6871ee6c4f	-0.00027259635856475157
60	0x3f347dd6280df457	0.00031267622403403
61	0xbf44d7f0682a5629	-0.0006360935079380892
62	0xbf491dc48aa019a9	-0.0007664880442924033
63	0x3f44df3aae57b888	0.0006369625595519382
64	0xbf48135745b72959	-0.0007347274908451703
65	0x3f441c9d40feeac0	0.0006137626496561452
66	0xbf10141101529728	-6.133416930484122e-05
67	0xbf4e91eba195e62c	-0.0009329224150597718
68	0x3f3cb7c9cb5fd0c8	0.0004382007276711006
69	0xbf51f2fb10259e56	-0.0010955287731010586
70	0x3f4312bff7a668df	0.0005820691433655842
71	0x3f5dbe0b41692bb0	0.001815329543790805
72	0x3f322a938bb45151	0.000277195951370564
73	0xbf5fd39161c581a8	-0.001942531561404429
74	0x3f403d9c203e1543	0.0004956257184722052
75	0xbf576a01f3285cb4	-0.0014290827790597706
76	0xbf50a80794478b2c	-0.0010166238799846445
77	0x3f39de64d925afc6	0.00039472543826124214
78	0x3f59cdc0a581aada	0.001574934131009334
79	0x3f345d21f0209813	0.0003107269150198776
80	0x3f66aaa504d703bf	0.0027669165635590682
81	0x3f4252494469625c	0.0005591256857072169
82	0x3f44b75df3c7b252	0.0006322106124208671
83	0xbf511b40c9722191	-0.0010440952953861586
84	0xbf141c9a795920a9	-7.672016939708433e-05
85	0x3f1467bb4cbcae05	7.783966719603776e-05
86	0x3f7386bafb264e43	0.004767160792102101
87	0x3f61162eff8e7c6a	0.0020857732710762205
88	0x3f48962d7cd9ad99	0.0007503244502919281
89	0xbf4939fee5a7e860	-0.0007698530783380002
90	0x3f60dafb8e4b1062	0.0020575440597401665
91	0xbf40a4b4d4ffe753	-0.0005079157799621016
92	0x3f533b54a9d6bbca	0.0011738135138832256
93	0xbf49d38a694b00b2	-0.000788157066004677
94	0x3f1d6ae90ca118dc	0.00011221930904623277
95	0xbf4eca4b1ed81579	-0.0009396426009408563
96	0x3f4e2a77997de161	0.0009205898268041351
97	0x3f43109986cbf881	0.0005818128243786498
98	0xbf78f1b308a8645f	-0.006089877463204634
99	0xbf55b4ca137a91d1	-0.0013248418235117696
100	0x3f4da60947c610d2	0.0009048028291976046
101	0x3f5f486fd63b9dac	0.0019093601376257525
102	0x3f5403eeac643078	0.001221640662666194
103	0xbf5438e39222f469	-0.0012342665072957676
104	0x3f56c056226a14a1	0.001388630023627692
105	0x3f6bff06850dc02e	0.0034175040568058734
106	0xbf2838427dc97dd5	-0.00018478213941629124
107	0x3f5d278b83179726	0.0017794477865832963
108	0xbf4656e5dffb3e5d	-0.0006817457615059908
109	0x3f64389046d4ee55	0.00246837786712976
110	0xbf6d1fe3cff4a63f	-0.0035552453479297526
111	0x3f70d278931ccd1d	0.0041069707820498265
112	0xbf463908fa2bfdeb	-0.0006781858286046249
113	0xbf498bce40bf6be3	-0.0007796055883731969
114	0xbf3bf87421f0dc90	-0.0004267962958154981
115	0x3f3a2d4c43d34801	0.00039942848145557713
116	0x3f40499c27f9dc1f	0.0004970562440139748
117	0xbf5eada54dd65759	-0.0018724550530797217
118	0xbf3e7779f9d11e3e	-0.0004648850243182712
119	0xbf47e17403a293ac	-0.0007287804103453996
120	0x3f4a8d6a624ca06c	0.0008103150799785414
121	0xbf6e6f1161e242b8	-0.003715070676726686
122	0x3f5e3b08085e331d	0.0018451288646900773
123	0x3ef5386b41b9ed42	2.023733769228082e-05
124	0xbf3e21a970a02d1d	-0.00045977007596383225
125	0xbf022b99bde58a84	-3.465712483110165e-05
126	0xbf629d3ac3b0365c	-0.0022722385160765367
127	0x3f6bcac63439dffb	0.003392588727191279
128	0xbf44904dd4483d55	-0.0006275539422534818
129	0xbf52c7915e3916af	-0.001146213494295816
130	0xbf26a7fb603160af	-0.00017285293151548173
131	0xbf4ce5d5418c7157	-0.0008818904198935423
132	0xbf20cb5e79931b41	-0.0001281311822706969
133	0x3f4a0049bf953783	0.000793491373011199
134	0x3f68f745a7e3f5b2	0.003047596022155396
135	0x3f5da57b44f39e0d	0.0018094734003230057
136	0xbf5d27f406059217	-0.0017795451204502038
137	0x3f6290c812e5af2c	0.0022663028423063527
138	0xbf46c377fef1c942	-0.0006946884076468945
139	0x3f487edbf4d494ed	0.0007475446706492174
140	0x3f418c50011092b2	0.0005355253835018418
141	0x3ef4536351a20291	1.9384130702795327e-05
142	0x3f60dc48b58910eb	0.0020581646060994128
143	0x3f1571be1ed500f7	8.180354025899896e-05
144	0xbf42e1e2dd1d03b8	-0.0005762441380526761
145	0x3f576d1b2db0198f	0.0014298215307931605
146	0x3f3bc08fb807f4af	0.0004234648586417073
147	0xbf481b08c0f117cb	-0.0007356446020672034
148	0xbef7087c10c94847	-2.196611699140812e-05
149	0xbf589824f243105c	-0.0015011177829800304
150	0xbf53b7581d0f925c	-0.001203380630834825
151	0xbf410df1b15b7c26	-0.0005204610958705654
152	0xbf36dca507a07630	-0.0003488448052183261
153	0x3f66a2928a92412a	0.002763067449059649
154	0xbf491220509d9fb3	-0.0007651002681372448
155	0xbf66671d411e65a6	-0.002734715592805431
156	0x3f2261749cefab49	0.00014023350237776292
157	0x3f630a8139810953	0.0023243450087033018
158	0xbf5d3beadff897fa	-0.0017843049717014546
159	0xbf44851cff0a2891	-0.0006262199004407766
160	0x3f51bd63d686149a	0.0010827517490679451
161	0xbf4873458590b3de	-0.0007461633168809286
162	0x3f4e0db8e6b5816e	0.0009171631658482623
163	0x3f34006ca1ba514b	0.0003052010740500945
164	0xbf4ff5024c16cb80	-0.0009752522675426784
165	0x3f200b48d6b786d7	0.00012240661759137822
166	0x3f6233798ec25e07	0.0022218107388416483
167	0xbf487ad1acde5f42	-0.0007470630459804688
168	0xbf2d2769625d544b	-0.00022242700031918842
169	0x3f42c3242fcfb376	0.0005725790684870519
170	0x3f57511199a24b94	0.0014231368900581064
171	0xbf3b7c6b08d7b695	-0.0004194032015608443
172	0x3f42df2d1ecfcb79	0.0005759210886239061
173	0xbf40b9fd1557f477	-0.0005104528196963183
174	0x3f504de37e618a68	0.0009951326005867237
175	0xbf3e1e97ffdf8f7f	-0.00045958720136084896
176	0xbf36949345ae9288	-0.00034454913628171506
177	0xbf4e439c35ac4991	-0.0009235871069413361
178	0x3f2fdec8ec6df76a	0.00024315073661889823
179	0x3f51fc68913d600f	0.0010977765241104752
180	0x3f4d92e040220d30	0.0009025187466850434
181	0x3f64cdbdc4a471bc	0.002539511338126325
182	0xbf5efcb548294819	-0.0018913050013407205
183	0xbf3d0f579d201e89	-0.0004434193516549075
184	0x3f3a7cd3d35e4995	0.0004041688110813177
185	0xbf4c890a25bcf8ce	-0.0008708285854266641
186	0xbf5e0a1a8816058f	-0.0018334635827560208
187	0x3f6c8f7be090a55d	0.003486387202901993
188	0x3f5c68d193df0d84	0.0017339750915973126
189	0xbf26a45ae3efaac9	-0.00017274484159142945
190	0xbf57f094b8ca4863	-0.0014611675607381295
191	0x3f5b9b2c4d866f7b	0.0016849453587388364
192	0x3f11d01a4c24519e	6.795082575578599e-05
193	0xbf143be511d83079	-7.718644743465339e-05
194	0x3f32d3a712108931	0.0002872736823197496
195	0x3f2632b2b88af688	0.00016935760165453042
196	0x3f1ce5b4a2d5f267	0.00011023440375441396
197	0xbf54fc424b15dddd	-0.0012808463473826727
198	0x3f721180683cdd8c	0.0044112220673960915
199	0x3f586fd89a91a6ec	0.0014915099402749666
200	0x3f78938fc2330a52	0.006000100666997259
201	0x3f622be4c78e769a	0.0022181957578613744
202	0xbf645fbb8fbf2a7a	-0.0024870551405674042
203	0x3f6139ae48bc8783	0.0021026996600008187
204	0xbf15422285d50aee	-8.109412870730876e-05
205	0x3f53f7a075ae05e0	0.0012187067975165597
206	0x3f5dc3a5b3f66399	0.0018166654770992218
207	0xbf3b4d23711c8d07	-0.0004165851142820674
208	0xbf45aadf6be7d52c	-0.000661238758594839
209	0x3f54f29ac14ee3be	0.0012785445480700676
210	0x3f3bcd628f8a8e5c	0.00042422920481952563
211	0x3f632c43b5ee094b	0.0023404428933996627
212	0x3f47930170ed883d	0.000719428733514833
213	0x3f51f945a35beee4	0.001097028738000932
214	0xbf58d8bd2fefbe00	-0.0015165183574444852
215	0xbf50dbc32d7507d9	-0.0010289579420974442
216	0xbf580b80dc9ced27	-0.0014675863662450635
217	0x3f5fe7279e6572c1	0.001947201433345189
218	0xbf4ac187d78fd5b6	-0.0008165276805118169
219	0xbf30aa0f0ea2a6af	-0.00025427692038224985
220	0x3f35cc0e5c25de2c	0.00033259726128373707
221	0xbf51ee90e035f9d5	-0.001094476204201213
222	0x3f55307d8c00e52c	0.0012932992976984565
223	0xbf3c17737f687aac	-0.00042864389198086594
224	0x3f792b8d8412e5c5	0.006145050808464563
225	0x3f72156107fb8d90	0.00441491987996602
226	0xbf09faef5ff89a91	-4.9553327695674454e-05
227	0x3f696c62bfc44c64	0.0031034401600976026
228	0x3ebd17911654a1c7	1.7340217593563293e-06
229	0x3f57bb137f05f4bc	0.0014484110252788581
230	0x3f74d265a641f5a7	0.005083462780132753
231	0xbf45c037da80dc41	-0.0006637833330448499
232	0x3f3917d7550c1bec	0.0003828907693307893
233	0x3f6c155ddec8e380	0.003428157177293334
234	0x3f44ab3cc9921958	0.000630764657345388
235	0x3f25df5ef7f89f50	0.0001668742588531954
236	0x3f2fb606d63a4d78	0.00024193604905474084
237	0xbf3c094680b64ad5	-0.0004277989507609885
238	0x3f4be5558939c433	0.0008513133675035533
239	0xbf309c3a40ecc308	-0.0002534525128111008
240	0x3f6f4bd7306e7f82	0.0038203432954588288
241	0x3f55427560dcb00d	0.0012975832245940594
242	0x3f508d8086db3be8	0.0010102992195475339
243	0xbf419ff91ab1c251	-0.0005378691033808923
244	0x3f56e283919ba6d4	0.001396778569353098
245	0x3f5e7e7c1b880b15	0.0018612110126247684
246	0x3f501799d099b4b1	0.0009821893785571351
247	0xbf45e55f768c298c	-0.0006682125213910857
248	0x3f555c0148ecf6df	0.0013036739871518583
249	0xbf431e951bc30515	-0.0005834796970917456
250	0xbf3b362b6b4b6d43	-0.00041521606480695114
251	0xbf46071b7d7f36cc	-0.0006722339849091984
252	0x3f3c8b7daf1f0803	0.00043556040247605415
253	0xbf4ecde7ebdeacea	-0.0009400732449099923
254	0xbf436d0026db1c68	-0.0005928278676145095
255	0x3f71417312fdc0ab	0.004212808140309369
