data/processed/deep_mlp_b4.npy (npy, 2176 bytes, 1 tensors)

array f8 [1, 256]
0.0003920410886701183 0.0 -0.0004521133681984047 0.0004949848603909349 -0.0015674675266437147 -0.0018159192626308626 -0.00025637413665042835 2.0758273912275266e-06
-0.0002879955219114449 0.0025018042433247235 0.00020743107515984813 -0.0003291524286422551 -0.0003923665790974481 0.0028453528978326895 8.431487121003588e-06 -0.0017431915433369675
-0.0007221495399747297 0.000305400472234335 -0.0030926827119758466 -0.0008294571635205334 0.0 0.0004895886378321228 -0.00025805358172065115 -8.981068930642586e-05
-0.0007230152153734002 6.713127635070346e-05 -0.0004621653611456574 0.00020008945313096754 0.00014967952137321476 -0.00128042840076948 8.480458689375527e-05 0.0004145289265694369
-0.0005333296605068743 -0.001060980858184871 0.0007744441125801597 0.0007840866870536798 0.0011414158712258374 -0.0004008663297722695 0.0012138129022835134 0.0008885055100288474
0.003036470415053114 0.0005210398453334336 -0.00027489848496822794 -0.0002930017575917915 -0.0014088094942661224 0.0 0.0 0.00032553604854449483
-0.0025788230878162188 -0.0028321577063443 0.00023419362791705873 -0.0013990742747282843 -0.0016616420258303607 0.0006731960012039751 0.002567257164940254 0.0006439034967858155
0.0 0.0007578539608829466 -0.002577020887235809 0.0022094478943502057 -0.00013951934982294947 -0.0007078356151311859 0.0006174054737903278 0.002618207881661552
-0.00044951281694153997 -0.0017765425341430515 0.0005265460959181091 -0.00046470795143069716 -0.0007430947050676374 0.0006102917892528235 8.472477177294515e-06 -0.0008893690948998609
0.0 -0.0007170407287396713 -4.3773849416638605e-05 0.00015451465287543326 -0.0023101841215559457 -0.0005197651303041543 -0.0007727019409349391 0.0013087281293180958
-0.00047846620156849126 -0.00038489100275733207 0.00015344854373083042 0.00035651428628888224 0.00013105082034299467 -0.0022354754119947944 0.001762556924854545 -0.0006480931697178709
0.0 0.0007840251818268158 -5.7755267657552946e-05 -0.00020944109091767184 0.00046622575304409937 -8.834365320165474e-05 -0.00019075699140608376 -0.0008963384004986402
0.0020160212345770256 0.0005878901477609182 -0.0017921587630950896 -0.0017021487627528345 0.0005439375131737511 0.0032932127847572065 -0.0008371286462511401 0.0006618464985475042
0.0 0.002300471953163598 0.00015255124928794764 -0.0008453004657143632 0.000723009641168692 0.001076729673153257 -0.0002916408621963763 0.0006495361415692583
1.9054375437444914e-05 0.0021848716325311734 -0.0024891266868765894 -0.0011057553822181676 0.002026126821179935 -0.0010678924790901475 -0.0008311060953575605 -0.0007300785826936961
-0.0030437912932265725 -0.0003160743508397809 0.00037180223832072705 0.000630723023823236 -0.0017742550062922356 -0.0005028990401898901 0.00022020639544437437 -0.0008916020080507173
0.00021726791968887176 0.00025987615216351375 -9.932761169244646e-05 0.0010640064482933516 0.0002433958729099549 -0.0018613417699423138 0.0014455930365029786 -0.00041985188950160204
0.002207912638480892 0.0 0.0 -0.0003376287259279169 0.000835410033288924 0.0 -0.0008962360283071147 -0.0002659110729409529
-0.00023030620584143653 -0.0003266091137046228 0.0016465126767513496 -0.000671962027316478 0.0 0.0002058783615616031 -0.00034099295352924474 0.0007409090430234222
-0.00022463577260846765 0.0011414365447280249 -0.0009579246149243782 -5.512102518252393e-05 7.653360996027743e-05 -0.0007654598180132522 0.00223468328949642 0.0
-0.00017280095565315286 0.0021138168755646196 1.1195513116708357e-05 0.0009075527535536583 -0.000673698337772977 -1.0522072470760896e-05 -6.36016655114935e-05 0.00026207400101968276
-0.0008645937334495927 -5.3643979131248605e-06 -0.001159586551552407 0.004938583614784842 0.0011462862691979277 -0.0016384228869056015 0.0022825359889683604 0.0024667288233219827
0.0011480145833541056 0.0017371632687472746 -5.106344789543551e-05 0.0005316808776786888 0.00033490887813517636 0.0 0.000437232086403265 1.3340278196721953e-06
0.003219167842149759 0.0011255806717530754 -0.0015863126765912209 0.0003925165276989058 0.0012340125863211319 0.0005656655281648704 -0.0020334808864108456 -0.000552360895639332
-0.0005543069922903743 -0.001767413151289531 0.0012864497726984487 -0.0006074792682377404 0.0014621184292348426 0.0011600966043829038 0.0004636516648701973 -0.00018353052521533794
-0.0001367658416741048 0.00032154091222875455 -0.00043053288468330493 -0.0010222282746657344 -0.0006625994882951347 0.0009950772682312257 -0.0016345886779792923 0.0008926359476418366
-0.0004896280581637578 0.0007359692716312075 0.00044069715825233825 0.0003206874854422518 -0.0003118022233379778 -0.0015576240143469306 -0.002765554856338644 0.0014074107285605903
0.00023184193151396556 -3.132109671865362e-05 -0.0011138332426026555 0.0006744429340381333 0.00020350309741634656 0.00028765141861627856 -0.00027874632913441527 0.00014658833281124616
0.0010980771816316683 0.0006235392803100051 -0.002442232915488082 0.00029545035030323054 -0.00012017913890937957 -0.00013795393719283642 0.0 0.0008442362641727388
-0.0023512663467847466 0.00014974708944229647 -0.0004617321631884 0.0 0.0007710499701826959 0.003087226510402056 -0.0026291627192292196 -0.0008527257559051794
-0.0013501447310235283 -0.0002923541814877084 -0.002054001016840694 0.0 0.0005808143470128966 9.864641347853731e-05 0.00012024073639028282 -0.0012980573131647266
-0.0021582667878464884 0.002543063323447671 -0.0010910994152170273 -0.0007014474779907308 0.0 7.66143298683047e-06 -0.0007496031622668539 -0.007563943035004111
00000000: b20a 8fa7 5bb1 393f 0000 0000 0000 0000
00000010: e238 6821 34a1 3dbf 3655 c9e4 3b38 403f
00000020: f22f ed70 6fae 59bf 095d 1776 84c0 5dbf
00000030: d4e4 4e88 3ecd 30bf 2bf1 4c2d ce69 c13e
00000040: 14cc 1659 c3df 32bf 4d8e feec a97e 643f
00000050: 825e 335e 3b30 2b3f a955 9aea 4292 35bf
00000060: 757e 11a0 d1b6 39bf b961 8934 234f 673f
00000070: 6ba9 20c4 9eae e13e 11bf d5aa 798f 5cbf
00000080: beff 1854 d4a9 47bf 3295 590a c503 343f
00000090: 32db 5a63 d355 69bf e736 04b2 fd2d 4bbf
000000a0: 0000 0000 0000 0000 9ecc 0f98 f70a 403f
000000b0: f1eb b0b1 6be9 30bf a493 c3e4 178b 17bf
000000c0: c156 2e5a 17b1 47bf c57b bd8b 1a99 113f
000000d0: 22f2 881c d949 3ebf 892c a050 e339 2a3f
000000e0: ef2c 614c 699e 233f 1f90 cb86 81fa 54bf
000000f0: 9b81 83b5 233b 163f 8606 d02e a42a 3b3f
00000100: 2323 95b9 e479 41bf 7502 9b85 1362 51bf
00000110: 411a 6c11 8260 493f f4c8 cc56 65b1 493f
00000120: ce9d a2f5 71b3 523f 57bc c4c6 6b45 3abf
00000130: 2056 00ae 19e3 533f 6654 cf0d 531d 4d3f
00000140: 7bf5 17a4 f0df 683f a946 3d8c cc12 413f
00000150: 013a ae00 0804 32bf ae54 6ef7 c033 33bf
00000160: b413 11ad f914 57bf 0000 0000 0000 0000
00000170: 0000 0000 0000 0000 698a a2ae 9655 353f
00000180: 1cff 601a 2f20 65bf 5645 3a17 7733 67bf
00000190: ee79 17f2 3bb2 2e3f cbe7 4b90 24ec 56bf
000001a0: 1383 268a 6e39 5bbf 3e4c 8c67 2d0f 463f
000001b0: 54fa 0ab2 ed07 653f 44d9 f03a 7419 453f
000001c0: 0000 0000 0000 0000 8bcd 12fd 56d5 483f
000001d0: 5932 d18d 671c 65bf 3ab4 594e 8c19 623f
000001e0: 7e33 dc16 7e49 22bf ff02 b268 c131 47bf
000001f0: 0015 be28 2c3b 443f ec4a 3aa7 c772 653f
00000200: e7c2 0fd9 9275 3dbf efd9 6105 5c1b 5dbf
00000210: 7cd1 8221 fd40 413f 4f36 1e74 8174 3ebf
00000220: ce5c 61ba 8759 48bf 5052 4fa3 7fff 433f
00000230: 2123 8565 a0c4 e13e ca0e 9d96 9124 4dbf
00000240: 0000 0000 0000 0000 9f4b 6b3d f97e 47bf
00000250: 44ac 6803 3af3 06bf a622 ffc2 a640 243f
00000260: 3089 fea7 ceec 62bf bcaf 3d1e 1b08 41bf
00000270: 6878 6ec8 e451 49bf 0d19 f220 3471 553f
00000280: be53 1fb0 545b 3fbf d642 f544 6639 39bf
00000290: d2d6 31f4 e01c 243f e52d 3e33 515d 373f
000002a0: e0e9 97f9 552d 213f 530f 23b9 2150 62bf
000002b0: dda8 5f16 b3e0 5c3f 2356 fe7b 993c 45bf
000002c0: 0000 0000 0000 0000 aaa2 f141 e1b0 493f
000002d0: 8e9e d6e2 c747 0ebf b59c 9845 ad73 2bbf
000002e0: f5fe a35c f88d 3e3f 52e1 bd67 a428 17bf
000002f0: 2fd8 4214 be00 29bf 579c e20e 085f 4dbf
00000300: 3358 a828 e783 603f dbb6 a87a 9443 433f
00000310: 42ff b5d1 db5c 5dbf 447b 3651 54e3 5bbf
00000320: 1e51 42ea e0d2 413f 9e98 b226 5efa 6a3f
00000330: 6bae 3f14 586e 4bbf 0f58 7a88 f8af 453f
00000340: 0000 0000 0000 0000 b707 bc79 70d8 623f
00000350: 5903 d940 c5fe 233f 813a 82ed e4b2 4bbf
00000360: c7c4 ba61 0bb1 473f 0f9f e6ae 21a4 513f
00000370: c599 1ef7 eb1c 33bf da77 283e b448 453f
00000380: bdda a7b5 defa f33e 854f a506 02e6 613f
00000390: bb4e e7b6 1364 64bf a462 0ecd df1d 52bf
000003a0: a58e e78d 1899 603f 9358 7ed1 107f 51bf
000003b0: 426d e1bf d23b 4bbf 1454 6ed1 57ec 47bf
000003c0: 81a1 ed01 4bef 68bf 8a76 fdff d8b6 34bf
000003d0: e24b 4474 ce5d 383f 8cc2 4c61 e3aa 443f
000003e0: ccb7 83ce c311 5dbf 5aa1 2477 9f7a 40bf
000003f0: 4e7c 9a88 e6dc 2c3f f99f 99bb 4c37 4dbf
00000400: b4cb 1438 4d7a 2c3f 43e1 1593 ff07 313f
00000410: 016d 0f60 c309 1abf f956 7b39 c46e 513f
00000420: 4399 d5a0 02e7 2f3f 6045 d481 087f 5ebf
00000430: cbb0 2ab4 41af 573f 6b63 7322 f283 3bbf
00000440: 4ff2 6312 5416 623f 0000 0000 0000 0000
00000450: 0000 0000 0000 0000 ac68 0756 7820 36bf
00000460: 93ec c762 ed5f 4b3f 0000 0000 0000 0000
00000470: 7b7f 2d37 2c5e 4dbf 0729 a75c 3f6d 31bf
00000480: 6713 8b3e cb2f 2ebf 287f 4176 9767 35bf
00000490: b498 5786 f9f9 5a3f e8ac 3a77 d304 46bf
000004a0: 0000 0000 0000 0000 7d8f e3a8 21fc 2a3f
000004b0: 5824 6595 e958 36bf b8dd f60d 3247 483f
000004c0: 82b2 fe97 8671 2dbf cc00 5328 88b3 523f
000004d0: a533 5272 a763 4fbf b225 fc00 38e6 0cbf
000004e0: 289b 4468 1510 143f 901c 4071 2415 49bf
000004f0: 4d56 a674 784e 623f 0000 0000 0000 0000
00000500: c119 10e8 3ca6 26bf 9384 35cb fe50 613f
00000510: 2e42 399b 8b7a e73e 961a adb2 1abd 4d3f
00000520: 0454 ff29 6413 46bf dff7 f4a0 fe10 e6be
00000530: 206d 1a4b 3cac 10bf d07b 7543 df2c 313f
00000540: 9d73 9de7 bc54 4cbf fa76 6a78 fa7f d6be
00000550: 090d 3694 a8ff 52bf 0d33 d3f1 7a3a 743f
00000560: d08e 6f82 dfc7 523f 707d d72d 0bd8 5abf
00000570: 4f03 962d d3b2 623f e301 faf3 1a35 643f
00000580: c845 d045 1fcf 523f c14f 55db 3076 5c3f
00000590: 6c11 b9b5 9ec5 0abf 170e a3fd 0f6c 413f
000005a0: 6b4a c1ad d6f2 353f 0000 0000 0000 0000
000005b0: b382 0983 89a7 3c3f be3d 7919 9b61 b63e
000005c0: 7a99 4693 155f 6a3f 55ea 250b 0771 523f
000005d0: 44d5 4c44 7afd 59bf da98 4ca6 55b9 393f
000005e0: 68d9 deec d237 543f 291d d378 2589 423f
000005f0: d201 efbc 84a8 60bf a2fa bdfd 8919 42bf
00000600: 52be b033 dd29 42bf fc54 bb6b 11f5 5cbf
00000610: 5f6e e8ec c213 553f 50b6 87cb e7e7 43bf
00000620: 4a46 88b5 91f4 573f 7e32 773e cc01 533f
00000630: 1732 c3bc c862 3e3f 095d 0d35 430e 28bf
00000640: 5710 68a2 19ed 21bf 9d1c cdb3 8f12 353f
00000650: a167 d9a8 2437 3cbf bf20 8f40 89bf 50bf
00000660: cd2e f890 49b6 45bf ff2b bd14 a84d 503f
00000670: 4a6e 843a f6c7 5abf 47ca e619 f93f 4d3f
00000680: 8343 9e3f 4c0b 40bf 8813 ecf9 c11d 483f
00000690: 7987 d3e1 abe1 3c3f b441 2043 3e04 353f
000006a0: 5863 205a 2c6f 34bf b190 de0c 2685 59bf
000006b0: c47e 39f5 c9a7 66bf dafa 46c3 1b0f 573f
000006c0: d8e4 0207 5363 2e3f 5b7b 4bb0 d86b 00bf
000006d0: c348 6956 c13f 52bf 6986 1f2c a319 463f
000006e0: 01a0 cb4b 6eac 2a3f decd 836f fdd9 323f
000006f0: 574a 155e 9644 32bf e532 d830 b036 233f
00000700: b491 5965 abfd 513f 0db8 8968 a06e 443f
00000710: 2c20 0ad0 bb01 64bf c9c1 9697 d55c 333f
00000720: 4a7f 96e2 1581 1fbf 6efe 144c f714 22bf
00000730: 0000 0000 0000 0000 0c28 8692 f7a9 4b3f
00000740: 2539 0982 f642 63bf 9184 22b4 ada0 233f
00000750: 0504 588a 9442 3ebf 0000 0000 0000 0000
00000760: 92f6 e733 0944 493f 087e b81c 624a 693f
00000770: 3a72 a3fc c089 65bf 53fe f59d 2ef1 4bbf
00000780: 3437 bcdd ea1e 56bf 0084 f9a5 e328 33bf
00000790: bd5c 2f66 8dd3 60bf 0000 0000 0000 0000
000007a0: c155 0f50 3908 433f 19d8 a17a 0cdc 193f
000007b0: 0882 2c1f 3885 1f3f d708 566d 7244 55bf
000007c0: 208f a2a8 36ae 61bf 03a5 c9b9 30d5 643f
000007d0: 48ce 8513 67e0 51bf 3c98 29fd 2afc 46bf
000007e0: 0000 0000 0000 0000 3b3a f154 3311 e03e
000007f0: fda5 9088 2090 48bf 2c28 6d7f 5efb 7ebf
