data/processed/deep_mlp_W4.npy (npy, 524416 bytes, 1 tensors)

array f8 [256, 256]
000000 59 dc 80 12 4b 8a b0 3f a9 1e 2c 1c 0c a8 b2 bf
       0.0646101875471329 -0.07287669837762202
000010 29 ff fe a9 5c 56 b5 bf 01 b3 bc 1d 4c ed c0 bf
       -0.08334902906699128 -0.1322417397690501
000020 6e 45 7f 22 be 55 4e bf d1 69 ef a4 68 45 a2 bf
       -0.0009257486717563609 -0.035685796865169934
000030 9c bd bb 33 93 70 7b 3f fe 44 50 00 77 2a 8e bf
       0.006699156768930872 -0.014729432770794745
000040 12 33 be ad 35 22 84 3f 51 86 4d 2a 57 85 b7 bf
       0.00983087479087311 -0.09187836439880327
000050 33 a2 8a 13 db 45 c1 bf 96 6e e2 d0 26 f5 ad 3f
       -0.1349443288247741 0.058510983465763264
000060 ab 8d 92 77 b6 aa ab 3f 74 47 1d 22 c6 34 a3 bf
       0.054036810013055124 -0.037512008346893305
000070 44 05 c8 ce 01 73 8c bf b1 c4 96 11 49 87 c1 3f
       -0.013891233561482814 0.13694108351550008
000080 04 f8 76 00 db 8e a2 3f b5 91 f1 58 4d dd a0 3f
       0.03624615078614116 0.03293840132463136
000090 0f 33 36 4f 21 74 9b 3f 4f a9 9d 81 c8 6a 9d bf
       0.026810188731860637 -0.02872765818703132
0000a0 b0 2e 68 c6 ba 53 b9 bf cb 29 09 68 35 f0 a8 bf
       -0.09893386215133648 -0.04870764632194698
0000b0 0f 15 d9 f8 f0 a8 ae bf 52 f6 d0 57 a8 08 c1 bf
       -0.05988266980834044 -0.13307670867827653
0000c0 10 d3 f0 a6 78 8f 95 bf a3 21 08 c2 7c 65 c6 3f
       -0.02105511206555649 0.17497214769560995
0000d0 50 84 25 10 6a 2a b4 bf 0a 2e 5e 5d c4 50 a0 3f
       -0.07877219099238286 0.03186620368714095
0000e0 30 56 2c 41 f4 99 96 bf 83 48 b8 7b a8 03 c1 bf
       -0.022071663358550875 -0.13292413750656715
0000f0 9b 50 29 61 46 0e 81 3f a5 e0 02 0d f3 31 91 bf
       0.00832800849926967 -0.016792104405539594
000100 71 44 9a 01 59 27 ca bf 3c 27 f9 c9 9e 6d b4 bf
       -0.20432579591991698 -0.07979767256724996
000110 5b 2d 64 6b 72 db 92 3f 49 9d 0c 40 ec 7b a4 bf
       0.018415248684545343 -0.040007956331744206
000120 56 43 c5 3e 28 fb b6 3f 5c 01 5c b9 9e a7 b4 bf
       0.0897698548553881 -0.08068267846465943
000130 87 68 d6 cb b2 60 be bf ce 18 da e9 00 90 a2 bf
       -0.1186630008363939 -0.03625491003644897
000140 22 5b 4c b0 01 80 aa 3f 6e c7 23 e7 70 8b a7 3f
       0.05175786282614171 0.04598572560816093
000150 4f cd 79 0c 29 1f 9d bf 9b aa e6 fa 15 ee b7 3f
       -0.02843917978902982 0.09347665191186609
000160 d5 11 fa a8 0f a2 9f bf 2f 55 51 b4 15 60 a1 3f
       -0.030891651810195448 0.03393619371551392
000170 73 12 78 27 6a ef ac bf 37 c6 94 a8 d7 58 9d 3f
       -0.05651408893394185 0.028659219421746065
000180 9b e7 9f 78 85 e2 bf 3f df 5c 8d 06 f8 d6 c0 3f
       0.12455019183098985 0.1315603286736637
000190 0c 45 4a 4e 51 84 68 3f 50 96 1d 38 09 d3 b3 bf
       0.0029927814487754664 -0.07743890399941589
0001a0 95 ea d8 bb fc ff ae 3f 58 79 2f 16 fd f2 9e 3f
       0.06054677765901776 0.03022380302342617
0001b0 c9 37 6b 52 db 3f b1 3f d6 18 0b 57 a6 6d 96 bf
       0.06738062631777021 -0.021902655661300972
0001c0 c1 28 08 07 f8 c2 c2 3f ae a6 fa 10 6d d6 b5 bf
       0.1465749773345291 -0.08530313171891166
0001d0 a3 a8 d4 24 f5 df a5 bf d2 5a 73 a0 a2 13 aa 3f
       -0.04272428583711132 0.050931055151229324
0001e0 c5 12 8e a9 02 ff a6 bf aa 9d b4 88 56 3b b4 bf
       -0.04491432494891038 -0.0790304263833749
0001f0 b6 2a 52 56 cc c5 a1 3f 9a 3b 3f 95 f4 9a b4 3f
       0.03471220544550617 0.08048943179822601
000200 97 52 04 74 98 2c 74 bf 24 7c 76 ce 08 92 a0 3f
       -0.00492534210231512 0.0323641540555786
000210 30 22 78 35 ea ff b4 3f 88 79 80 e9 41 41 84 3f
       0.08202995114709988 0.009890093744669995
000220 50 e5 fe 25 5a cc ac bf 1c 35 1a c5 79 34 a1 3f
       -0.05624658311666997 0.03360348254237008
000230 21 f7 8e 1b 69 dc a8 bf 23 5e 05 3e 94 35 2f bf
       -0.04855659924895251 -0.00023810801122679898
000240 53 27 fb cb 80 0c d0 bf 0f 11 da 32 f2 04 9e 3f
       -0.25076312942529916 0.02931574283003707
000250 12 85 4b 28 73 47 93 bf 21 c6 65 e4 8e 06 b4 3f
       -0.01882724698487432 0.07822506977188272
000260 08 3d 15 07 97 48 9e bf 1e 2a 9b 2d 8a 07 92 bf
       -0.02957378369074795 -0.017606886895729194
000270 7a d6 59 13 73 bf bd bf 0c 1e 35 34 47 f7 9a 3f
       -0.1162025377505759 0.026333916245929997
000280 9f f4 68 16 03 99 af bf 0b 0d 93 b2 e8 77 9e bf
       -0.06171426437911375 -0.029754291438405505
000290 b7 b3 0b 65 b3 f3 b0 bf 0d 1e 23 8f af d4 b4 3f
       -0.06621857850014022 0.08137032742080681
0002a0 e6 c8 22 ee 1d 60 97 3f fa 6e c9 91 1f de 67 bf
       0.022827594432507058 -0.0029135338393596584
0002b0 7a d7 95 d0 c3 a4 b2 bf ba 50 53 8c 37 ff ad bf
       -0.07282661287703532 -0.05858777606923256
0002c0 9f e6 11 4b 49 75 b0 3f b7 da 11 ad 24 fd b6 bf
       0.06428964693796012 -0.08980015969596421
0002d0 bb 59 00 4e 6f b3 ba 3f f0 77 43 38 b7 91 90 bf
       0.10430045751886656 -0.016180861290983672
0002e0 1f 2d 75 d0 2e 96 ae bf f3 a9 f5 19 b8 02 9d bf
       -0.059739554354189865 -0.028330685219239937
0002f0 fc 25 f5 35 d6 e5 b3 bf fd f7 2c bd 50 e7 9f 3f
       -0.0777257806522797 0.031155835672727495
000300 1c 58 24 b5 ef 07 b4 bf 24 3e 44 28 7b c1 c0 bf
       -0.07824609920894016 -0.13090457407132405
000310 0a ae 5f 1a c3 49 b7 3f 95 f8 a3 91 d4 75 c0 bf
       0.09096927064791074 -0.12859589682915798
000320 3d b9 ca 78 04 30 8c bf bc b1 82 5c 3e 64 be bf
       -0.013763461052204046 -0.11871709593351104
000330 f9 9c cc 43 70 ba 9b 3f 2c 5e 8f 79 bf d1 cb 3f
       0.02707839406789689 0.21733849940822958
000340 de ae b6 3f f8 b9 af 3f 5a e4 1d 05 54 7a be bf
       0.06196571138147332 -0.11905408024712597
000350 1a 12 7b ae 43 0c 9d 3f 39 1f c1 14 2e 8a b7 bf
       0.028367097401103526 -0.09195220953654094
000360 70 65 99 e7 5d 34 ad bf 9b 7d 67 ee c4 9b c1 3f
       -0.05704015209330293 0.13756620064576172
000370 25 4b 82 af 97 48 a4 bf 60 a8 35 ce a0 9a a5 3f
       -0.0396163369888625 0.04219534413535153
000380 14 5e 25 a5 08 b9 84 bf 4d bf be dc db 06 a1 bf
       -0.010118548908095305 -0.03325545377390302
000390 24 7a 37 0e cf fe b0 3f 94 f4 a9 43 af a6 b7 3f
       0.06638807389342866 0.09238715555143734
0003a0 93 5d af 6e 5f 4a a8 bf 46 b9 06 c1 95 f1 a1 3f
       -0.04744241930137174 0.035046272099281725
0003b0 94 1e cc 1e 6c 67 b4 3f f9 86 c0 46 73 61 c1 3f
       0.0797030997456381 0.13578644709291846
0003c0 3d 10 64 cd a1 c1 be bf e6 0b fe 0d 5b 67 c2 bf
       -0.12014209045816045 -0.1437791651079287
0003d0 bd 60 f6 fc e4 16 94 3f a0 84 c2 fd 95 4e c5 bf
       0.019618585528946342 -0.16646075144402506
0003e0 48 6b ae b3 e7 3e a2 3f 7f ef 90 74 78 c8 aa 3f
       0.035636177715068273 0.052310718755022904
0003f0 03 37 d9 88 c4 c1 8f 3f a7 61 55 3f 48 7b aa 3f
       0.015506301332745226 0.05172181866754793
000400 50 60 13 4f ef d7 aa bf 0a 26 46 4a 94 f7 ad bf
       -0.05242870178489112 -0.05852950483956583
000410 a6 03 82 a0 2d c6 b1 3f 5c 59 33 ef 84 36 b2 3f
       0.06943020981454015 0.07114439811571088
000420 91 42 a6 dd 48 5d 98 3f ca 72 7f c6 90 07 b3 3f
       0.023793352631005297 0.07433419080866624
000430 df b3 13 d9 f7 9d a6 3f 42 49 dd 44 f0 e9 78 3f
       0.04417395138612056 0.006082476187503185
000440 80 59 63 54 fc 3a ab bf 42 e9 ac e0 91 8f c9 3f
       -0.053184399892120204 0.1996939036415118
000450 b7 81 23 c8 f4 4b cc bf 52 78 ba 2b 9e be c6 3f
       -0.22106799862286916 0.17769219527412133
000460 9e d4 42 b5 d4 f4 bf 3f 01 68 d7 94 a3 e0 77 bf
       0.1248295729190709 -0.005829466810121532
000470 93 e5 56 06 d8 21 bb bf bc 6d c6 38 44 f4 ba bf
       -0.10598516611835 -0.10528971086608058
000480 ed 2c 57 8c 0f 6e a4 3f 70 bb 06 48 7e 3d ad bf
       0.039902196771061195 -0.05710978154399171
000490 99 c9 c7 8d f5 15 b6 3f d6 1c c2 58 48 07 a3 bf
       0.08627257071910889 -0.037164936861751194
0004a0 2c 4a 3d 62 68 d3 83 3f 03 e5 77 1f ca 0a 71 3f
       0.009680572031048738 0.0041606803347289415
0004b0 01 f8 47 23 70 29 7b 3f c2 20 3b 60 a5 ee 94 bf
       0.006631315267894068 -0.020441612242195324
0004c0 04 99 5a 10 ee ba 98 bf 5d 80 52 85 53 1b 83 bf
       -0.024150581119692496 -0.009329464441464258
0004d0 94 a5 90 ad c8 01 89 bf c0 3a 00 0f fa c8 8f 3f
       -0.012210433766159302 0.015520051558295278
0004e0 55 5e 21 2c 45 20 c0 3f 0c 25 30 cd e0 7c ce 3f
       0.12598480849077257 0.238185978116498
0004f0 93 80 ed 6d ad d2 b1 3f 91 76 f7 ad cf 64 90 3f
       0.06962093290121833 0.01600956439312157
000500 62 21 a2 e8 c7 12 c6 bf 0d 2e 34 ff bc 09 b0 3f
       -0.17244814738320274 0.06264859419405173
000510 d3 58 25 20 42 bc 9a bf 94 51 3c a5 17 00 b5 3f
       -0.02610877343371316 0.08203265937874554
000520 b5 2f c1 cf b9 70 bd 3f 0a 6f 62 38 fb 6c a4 bf
       0.11500130960592865 -0.03989396155631482
000530 a9 51 24 ee e5 44 8e bf dc 3b 8a 05 bc 47 c0 bf
       -0.014779850320828585 -0.12718916197306285
000540 53 6e 94 1b c7 1a c2 3f 5f 76 b8 ac ad e5 c2 3f
       0.1414421925227197 0.14763422902699383
000550 26 ea 06 43 ed ed c0 3f 38 28 fa 7f e8 92 a7 bf
       0.13226094982913245 -0.0460426956388606
000560 79 44 52 e5 59 35 a7 3f 6a 01 0c 6a 51 94 b4 3f
       0.04532891201336837 0.080388153448444
000570 33 17 db 24 13 a7 c4 3f 60 ad 8e ec 9a 6b bd bf
       0.16134871768570633 -0.11492317462277901
000580 05 95 ec db ee e0 8e bf 28 69 6a 7c e3 96 8c 3f
       -0.01507746323256721 0.013959672197689857
000590 ef 42 fa 04 5a 49 b9 3f 37 73 97 81 02 b9 8f 3f
       0.09877550717852633 0.015489596919843513
0005a0 1f da 26 98 ef 55 b8 bf cf 91 98 c3 c6 72 a2 bf
       -0.09506127800600737 -0.036031924606763625
0005b0 ef 99 60 a0 5a 85 b2 3f 04 60 4b a8 cf 1a b9 bf
       0.07234732070410364 -0.09806535586119486
0005c0 4d 6a 55 0f bc dc 9e bf 4e a4 57 1e d7 7b bc 3f
       -0.030138910709278034 0.11126465311794329
0005d0 1b bd 8d 67 b7 f7 c0 bf bb b3 b1 0d ed d1 ab 3f
       -0.13255970531779657 0.054335983201645864
0005e0 de 90 38 33 e3 d2 c4 bf 1a 10 a5 fe bc 72 88 bf
       -0.16268577576659643 -0.011937595864431261
0005f0 79 19 f7 60 38 11 9a bf b9 73 05 ab 07 f5 c5 bf
       -0.02545631496266185 -0.1715402207436492
000600 36 8a ca 71 f7 58 9a bf 19 53 c4 95 da 54 ae bf
       -0.025730005569707802 -0.05924113348206656
000610 7f 0e 64 12 3e 22 91 bf 44 05 6c 7f b1 1a b7 bf
       -0.016732187149513408 -0.09025105820548612
000620 9c 34 ef a8 f0 17 c0 3f 9a 32 7a 3f 5d 73 96 3f
       0.12573059319257573 0.021924454688405072
000630 bd 99 95 88 ee a4 b1 3f 3b 56 c1 5e bf 94 a2 bf
       0.06892290911273498 -0.036291103665160716
000640 95 51 9c 97 0e 0b b2 bf 3d 9f a5 85 b8 ae b5 bf
       -0.07048121644431256 -0.08469727766862163
000650 54 62 14 fa 11 c5 c1 bf 7c c9 55 8f 23 d3 c1 3f
       -0.13882660590094764 0.1392559480551191
000660 d0 79 e5 8e 4c d1 ac 3f a7 b2 84 a4 65 72 91 bf
       0.05628432506886194 -0.01703795258179022
000670 ab 84 f3 35 7e 27 b2 bf d6 c2 04 71 8f db 81 3f
       -0.07091511552018186 0.008719559322885411
000680 3e 47 cf 2a e8 e5 cd bf a3 19 d7 d2 3c 9b 88 3f
       -0.23357870188061186 0.012014842209180204
000690 4f 8d a2 e2 7f b7 a0 bf b1 53 99 e0 6a 00 bc bf
       -0.032649990477944806 -0.10938137038586039
0006a0 08 75 f6 01 ed 17 be bf d3 92 01 f0 1c b1 a5 bf
       -0.11755257890623139 -0.042366890237450903
0006b0 53 b5 39 f9 07 37 72 3f 2f ad 48 24 2b 8f aa bf
       0.004447013041141662 -0.05187353914183245
0006c0 5f 2d 10 cf 51 75 c1 3f f3 06 1f 29 e0 b6 b9 3f
       0.1363928090143913 0.1004467106240801
0006d0 ac 2f 79 ea b3 8d 93 bf 79 f8 5e 76 4a e6 78 bf
       -0.019095240770454033 -0.006078997486779974
0006e0 1d be 9b ca c4 8c a3 bf a0 4a 5d 6d 85 e5 b7 bf
       -0.038183355076281546 -0.09334596557645591
0006f0 1c d9 82 e8 6d 64 b1 bf fd 43 a4 4e e7 4a af bf
       -0.06793867994824548 -0.0611183436868785
000700 1f 61 00 a9 de 4a b8 3f c7 80 2c 2b 96 b2 a1 3f
       0.09489242197048896 0.03456563260101713
000710 bd bd 2a 7f 56 95 9c bf 56 c3 d3 e2 3a 15 82 bf
       -0.027913428794531948 -0.008829555556504037
000720 c4 6b bf b9 73 24 95 3f 88 7c c1 39 8b 51 9e bf
       0.02064686604704115 -0.029607940101751967
000730 50 18 82 1b eb 07 c0 3f e9 15 da 89 5b 7d a4 bf
       0.12524165003941556 -0.04001890237581646
000740 b6 05 04 86 6c 6f bf 3f d0 15 a0 af 0a 70 af 3f
       0.12279394409053776 0.06140168565620352
000750 6c 11 3e 77 1f bd 56 bf f7 09 99 18 81 0b c1 3f
       -0.0013878638537515265 0.13316358281197413
000760 ef d9 64 37 d8 9c 93 3f b4 7a 83 43 08 a7 c6 3f
       0.019153002148607653 0.17697242065965713
000770 52 20 66 b6 fe e0 92 3f d7 54 60 6e 89 f0 ab 3f
       0.018436412699458345 0.05456952545515897
000780 7a 7f 79 06 87 e3 96 bf b2 82 5d 04 a2 2f ba 3f
       -0.022352323312929447 0.10228932005476102
000790 5c cf b9 d1 ed aa 99 3f 2f f8 ce 9f 59 4e a2 3f
       0.025066104818008625 0.03575401378428499
0007a0 37 b5 49 c1 89 c8 83 bf fa 99 f3 0a 75 89 97 3f
       -0.009659839831523171 0.022985295098715476
0007b0 89 d4 9f 03 f5 ff b3 3f 34 c4 90 25 d1 ec b3 3f
       0.07812434519276414 0.07783229033590616
0007c0 8e 5a e6 88 bd ad b0 bf d9 31 b6 03 08 0e b0 3f
       -0.06515106766014808 0.06271410074823026
0007d0 81 ed 1e 4b c3 25 9f bf 29 ab d0 0d ba d6 8a bf
       -0.03041749139786765 -0.013104871317485571
0007e0 42 7d 8a cc e5 4d 95 bf a1 ef 8f 85 92 18 c2 bf
       -0.02080496846121816 -0.14137488862604378
0007f0 fe 98 d3 8b 3b e2 a4 bf 9f 4a ce 4f 62 3c b7 bf
       -0.04078851777903657 -0.09076513718017985
