data/processed/deep_mlp_W1.npy (npy, 8320 bytes, 1 tensors)

array f8 [4, 256]
0.9574637506439083 0.20051861111801278 0.4918503516924074 1.333011455578046 0.2886982233310886 -0.4321632177504631 -0.9398074927508484 0.4317663519316018
-1.19556215878441 -0.4135617988619876 1.0485833765106072 0.03756977425891477 0.5264499490978704 -0.3510853199102416 -0.30625415874733186 0.6534566566239051
0.8869044390344488 -0.058380912456508866 -0.05105600917712474 0.3709320025022315 0.16495500781069034 -0.010282683098312196 0.038447907705570085 0.553346428769426
0.29246607321361534 0.24530490889790738 -0.985044545947558 0.387814092655563 0.3703480042816169 0.10206040301595962 -0.8993659385308124 0.08147299538963367
-0.26198288977895656 0.41125626741952864 1.497692795504712 -0.1365415380812342 -0.9104080530254275 -0.0875692296273123 0.5293654123315954 1.393579771057265
-1.2518166899245844 -0.5138085828977116 0.938370341886838 0.009643525750838622 -1.0707134510841523 0.8888033084941049 0.5764733700309594 -0.35689762066833425
0.3559509577036496 0.7828734196694979 -1.0689859629251504 -0.9770041967824474 0.3496029559909753 0.9076081825461283 -0.7241667639969902 0.17368919956326864
0.16636596220877073 -0.6908961932807023 0.3803954398428657 -0.1311140272244241 0.7122296534276938 -0.36333164472617285 -0.06583254375079406 0.03891647680282808
-0.05738959073453955 -0.34334493213088996 0.19275045966795676 -0.055001612820523585 0.7844042426244918 -0.30044688713532286 1.3493066969773138 0.01769799594087834
-0.3753331081405524 -0.38391683377734315 0.7424199905610375 0.7077802157446478 -0.16996348074637305 1.1806588357368974 1.909772201071699 0.8662541369534936
-0.3875120294881258 -0.2847161290137419 1.0505031109630674 -0.7589680079527313 -0.04620273845657235 0.11903485340369671 -0.5881717575324673 0.10046079325161507
0.41541622895750624 0.018283374541877104 0.5260520617232665 -0.18205354657082867 -0.10780686535474528 -0.5941110054429946 -0.4869358787369586 0.4979600094443461
-0.3832268049977681 0.4159967290046818 0.02680542105834331 0.10796193835626722 -0.47598605577764014 -0.31439820857147893 -0.8931454313604004 -0.7631961898927615
-0.3068035152395624 0.7376791784284757 -0.20055305425325032 0.10005565774154625 0.4777267158518084 -0.8324413456451317 1.1987920401668961 -0.28392550706303676
-0.6613760972648045 0.6062535772933754 -0.7610544102812411 -0.7668005941472127 -0.09291128167787434 0.33087549188852383 -0.21192495654248558 -0.5455629454702248
0.14371482988365655 -0.8939039291176604 -1.0757660825375506 0.1943284279508019 -0.07423543228836174 1.4658296035831917 1.3311765582100668 0.4597529171986314
0.26265231249902243 0.23265477839104629 0.443946014237528 -1.0019733981875647 0.8279163819606398 0.6087832208713881 0.7599239174732277 0.726721676841493
-0.07043920885582167 -1.138892600022846 0.40474814436716494 0.46214764217024634 -0.016866573249994243 0.16829192308807864 -0.3342343257635685 -0.36621533747980733
-0.27879913592972355 0.47509456512111453 0.9456705927725486 -0.3626419087132382 0.8125508635765964 0.43713814234254733 0.2523657896880842 0.5101826907004726
-0.6157220485764457 -0.03733250103953338 -0.1388335801315313 -0.11576281669758959 0.33366301611144866 0.3612405093937052 0.4737572373970699 0.1857989240590332
0.23734312398842902 -0.5197810002372482 -0.627817966904913 -0.2795031841672295 1.021713652938569 -0.15023018183053627 -0.5887387973213914 -0.5595545757175651
0.911240068929957 -0.7442599439704292 -0.18238115278821695 -0.7235260545836049 0.6829850897177931 1.2583481701409 0.5994870301213379 0.009224225452361344
-0.6288802042059292 -1.1646104916302114 0.2861182645962551 -0.159635973452067 0.1666169087995056 0.06176483892964679 0.14483229351997381 0.9786515706145331
-0.1678044126243241 -0.7135054158063941 0.368574717594086 0.00034203483810477683 -1.057593278307756 -0.3928400306068537 -1.2548549223041048 0.25033987449724826
-1.5044736052120133 -0.2892751062603373 -0.06403774132934957 -0.28838955688800316 0.5712113714568556 -0.5323499586406104 1.0091584072782256 -0.7713027121385267
0.20757489636098655 0.3968858767169818 0.28849587726207276 -0.02965862655684447 0.12559306867797035 0.4803788395083595 0.8340150807219922 0.40592579550492475
-0.9651377504254063 -0.49929514173140077 0.5219538046523342 -1.3260388887047554 -1.1507332667788803 -0.27728663455911234 0.7917954623763426 -0.6360434183131007
0.5054580378647531 -0.817702214169104 -1.121173189359953 -1.0082679229838023 -0.3219067910187507 -0.07809669442964241 -1.1137255012879586 0.07865336399406499
0.9971437687665232 1.1709724389860487 0.19094998181437287 -0.2811038099861208 -0.5154930079086752 -0.368339627093645 0.32661519997372507 0.8482117695218614
0.47872998875397943 -0.07101164860404918 -0.9499804667903954 -0.40352146893705854 0.608779332809331 -0.6731894236226371 1.285604801298342 1.2563469987776008
-0.39419500805391827 0.6626607066403781 -0.2689921570690893 -1.610899017181575 -0.6256385157224298 0.27258733540277996 -0.43924224956292235 1.1231752376536217
-0.544085272053424 -0.8401726568927012 0.12328981292690584 -0.9835280478187293 -0.07594762817517423 1.0551936044405217 0.2729232674735716 -1.3278167081134624
00000000: eedf 0305 8ba3 ee3f dedf 7e06 98aa c93f
00000010: 15e1 c2e5 797a df3f c26a eed1 0354 f53f
00000020: 7bb3 e71c 087a d23f 716e b1e9 8fa8 dbbf
00000030: 22d2 bc29 e712 eebf 21ce 4356 0fa2 db3f
00000040: f706 45c9 0521 f3bf bd2d 3fe8 cb77 dabf
00000050: 83e0 d35c ffc6 f03f 4731 856f 583c a33f
00000060: 2366 4b90 add8 e03f 1eb1 c78f 2e78 d6bf
00000070: b25c 050b ab99 d3bf 9ab3 31ef 1de9 e43f
00000080: dd90 0a6b 8561 ec3f 5c35 6c5b 1ae4 adbf
00000090: 732c 5c63 0324 aabf 275c f294 59bd d73f
000000a0: 12de ede5 3e1d c53f daa3 fa5c 160f 85bf
000000b0: 95dd 63b4 71af a33f db89 dd91 03b5 e13f
000000c0: d916 e99e c3b7 d23f 09e4 a1b8 2666 cf3f
000000d0: 7355 be23 7c85 efbf 328c 3833 f2d1 d83f
000000e0: 83d1 a11d c8b3 d73f 668d 2b6d a120 ba3f
000000f0: b609 a413 9bc7 ecbf 85a4 b40a 6adb b43f
00000100: 8a94 ede1 53c4 d0bf c9e1 b5ce 0552 da3f
00000110: 615c 82b8 8cf6 f73f 465e 4d70 317a c1bf
00000120: bc4b b811 1022 edbf d19d 62e1 ef6a b6bf
00000130: d420 b3bb 8ff0 e03f 10ee 504d 1a4c f63f
00000140: 4e02 fdef 7007 f4bf 9164 7eb2 1e71 e0bf
00000150: 0117 3e3d 2107 ee3f 4d6f be1d fcbf 833f
00000160: 1eb3 7c6d a421 f1bf 86e1 d1a2 1371 ec3f
00000170: 3688 e947 7872 e23f fb9a 321e 69d7 d6bf
00000180: 9e4a 9486 e6c7 d63f f16b cc8e 4c0d e93f
00000190: 6e58 6a06 911a f1bf 1288 274e 9e43 efbf
000001a0: 113c a413 e55f d63f 89c3 b350 200b ed3f
000001b0: 7ef3 06c7 5f2c e7bf c375 e59b 723b c63f
000001c0: cf57 6dd7 7a4b c53f d249 6255 d21b e6bf
000001d0: 980c 6b1d 6658 d83f 8ce5 7c2d 58c8 c0bf
000001e0: d7d3 96d7 95ca e63f f6d9 ec5e d340 d7bf
000001f0: 0012 6cce 66da b0bf a391 4946 dcec a33f
00000200: 33dd ab1e 2b62 adbf 01f8 af05 5df9 d5bf
00000210: 2f0b 480c 0cac c83f ca32 95e0 2b29 acbf
00000220: 934e 1ded d619 e93f 0699 9b94 853a d3bf
00000230: 59a9 7c9e c296 f53f 1050 1567 6c1f 923f
00000240: 0776 2428 7505 d8bf 9d48 5de9 1792 d8bf
00000250: af66 6b91 e7c1 e73f 7a21 ecb1 22a6 e63f
00000260: b1f5 a803 5dc1 c5bf 1793 f384 fae3 f23f
00000270: 2c9b a64b 6d8e fe3f c1ad 8798 5ab8 eb3f
00000280: 5051 5d41 ffcc d8bf c87e b0ff c938 d2bf
00000290: 11ec 9e59 dcce f03f 81c0 9b46 7749 e8bf
000002a0: 7730 50a5 e2a7 a7bf e2f9 7372 1179 be3f
000002b0: 9b0c e193 4dd2 e2bf 61c0 8b6d ccb7 b93f
000002c0: a768 66f3 2d96 da3f 3c1c df7e e0b8 923f
000002d0: a008 2322 6bd5 e03f 2a3e 52d6 874d c7bf
000002e0: c19f fb10 3b99 bbbf 6a48 5215 f502 e3bf
000002f0: 0f27 9b1a f529 dfbf 57e0 d1a8 93de df3f
00000300: 799f 9ab8 c986 d8bf 795b 94be b09f da3f
00000310: 0b52 345b e172 9b3f 98f3 73c2 64a3 bb3f
00000320: 11b0 ba37 8e76 debf 4012 efa9 191f d4bf
00000330: b078 48ba a594 ecbf cead 806a 1a6c e8bf
00000340: ce1c 1036 aba2 d3bf 624b 495d 119b e73f
00000350: 48b8 90f4 b8ab c9bf 199b c761 3f9d b93f
00000360: 7d93 4013 1393 de3f 534a 6c08 5ca3 eabf
00000370: 0e8d f38f 402e f33f 5e80 d5e3 d52b d2bf
00000380: 6d78 8334 fe29 e5bf 97db f1e6 6d66 e33f
00000390: cc4d 54c7 8e5a e8bf fc4c 4d66 a189 e8bf
000003a0: e164 3ca4 08c9 b7bf 4662 2d66 102d d53f
000003b0: 7531 c762 5b20 cbbf 8d87 166c 4075 e1bf
000003c0: 0f77 265f 3f65 c23f ab70 aa69 dc9a ecbf
000003d0: 2b51 ea7e 5636 f1bf 2eab 5d01 c1df c83f
000003e0: 1a08 e2e1 1701 b3bf 1060 0ebe 0974 f73f
000003f0: dc6c 6bca 7f4c f53f 3bf5 e67f 976c dd3f
00000400: 92bb 19a5 4bcf d03f 4b4d 39bc a1c7 cd3f
00000410: 30be 158b 9c69 dc3f 5ad7 0a42 1508 f0bf
00000420: b5fe 0a7f 4a7e ea3f 84e0 fff2 267b e33f
00000430: e8dc 9ff6 4b51 e83f 0483 6ad1 4d41 e73f
00000440: 7051 64d2 4d08 b2bf 9112 6c72 e738 f2bf
00000450: 3f1d cbc2 64e7 d93f abdc 42b4 d393 dd3f
00000460: d06a 0492 7845 91bf 3910 ecf8 968a c53f
00000470: 90ba 965e 1864 d5bf 733d 7174 1270 d7bf
00000480: 7d28 be54 d8d7 d1bf 3df6 ec08 f367 de3f
00000490: ace7 97f9 ee42 ee3f a445 8568 8635 d7bf
000004a0: bdbc 2cab 6a00 ea3f fc81 4c42 12fa db3f
000004b0: f4ba 55d7 c226 d03f eb66 71a6 6a53 e03f
000004c0: 8ffb c1b9 feb3 e3bf 66da 15de 3e1d a3bf
000004d0: e231 207b 4cc5 c1bf f819 cfc7 a1a2 bdbf
000004e0: 5056 851f bc5a d53f ac86 7583 901e d73f
000004f0: 3e47 37e0 0952 de3f a896 3b57 42c8 c73f
00000500: b3fa ba6d 4261 ce3f 9d3c a3c3 0ba2 e0bf
00000510: 7954 76b4 1517 e4bf 4812 c852 61e3 d1bf
00000520: 30f7 536a f058 f03f e8c9 ea1a be3a c3bf
00000530: 4937 0cbf f2d6 e2bf 5417 61ff dee7 e1bf
00000540: 877c dbee e028 ed3f d66c e23a fad0 e7bf
00000550: fbea 50ff 4358 c7bf 20b2 c71c 2027 e7bf
00000560: 24cb ff8b 03db e53f 27c9 dbb0 3122 f43f
00000570: fde9 976c ff2e e33f ffc9 3095 26e4 823f
00000580: 1052 c560 c91f e4bf 7615 629c 3ea2 f2bf
00000590: 0eab 4efb c24f d23f bbf1 9e9a f36e c4bf
000005a0: 2b93 20ef b353 c53f 80b7 7d16 a49f af3f
000005b0: c356 0956 dd89 c23f 94fd 3e19 1d51 ef3f
000005c0: 7848 2c70 9d7a c5bf f708 4d4f 09d5 e6bf
000005d0: febc 8c69 ba96 d73f 6ac6 9971 646a 363f
000005e0: dfd1 eced e6eb f0bf 6207 0183 4a24 d9bf
000005f0: ff54 48c1 e213 f4bf 606d 7689 9105 d03f
00000600: 024b 41ea 5212 f8bf 3fd8 3bbc 7b83 d2bf
00000610: af21 b804 c764 b0bf c6e1 d578 f974 d2bf
00000620: 0a56 f011 5d47 e23f 906d ccc7 0209 e1bf
00000630: 14e5 3b49 8325 f03f 346f 7e06 83ae e8bf
00000640: c3a6 ab6f d091 ca3f 2f99 2f05 9466 d93f
00000650: 8dc5 7769 b776 d23f 5d77 6cbc d45e 9ebf
00000660: c3bf 4905 6f13 c03f dd3e 58e3 86be de3f
00000670: d44b 0265 40b0 ea3f cdf8 1230 b0fa d93f
00000680: c5c9 4690 68e2 eebf 6e6f 329c 73f4 dfbf
00000690: 4225 2077 d8b3 e03f b360 c38d 7437 f5bf
000006a0: a7c0 3349 6769 f2bf 9527 c370 10bf d1bf
000006b0: 04e2 0070 6356 e93f c2b4 0fba 775a e4bf
000006c0: 6824 c455 b62c e03f 8d23 77d5 9d2a eabf
000006d0: 8b3f 574c 53f0 f1bf f423 ad8b dd21 f0bf
000006e0: 374b f2f0 1e9a d4bf d142 801c 25fe b3bf
000006f0: 3d0c ccd4 d1d1 f1bf 312c 137a a022 b43f
00000700: 9c65 880c 9ae8 ef3f 2266 9f98 4dbc f23f
00000710: 6542 888b 0c71 c83f 01f8 aad5 9afd d1bf
00000720: 0c1a 4931 eb7e e0bf dc08 0c5f e092 d7bf
00000730: a1df 9070 43e7 d43f c8b7 4502 8d24 eb3f
00000740: be04 541b 83a3 de3f 08b2 63c4 d12d b2bf
00000750: 9583 966f 3d66 eebf 1063 14b6 4bd3 d9bf
00000760: 65b2 9ccb 1e7b e33f 371d cf8b c48a e5bf
00000770: e682 1257 d691 f43f 3cd7 824f ff19 f43f
00000780: 60a2 f5b2 7d3a d9bf 69ab eb39 8434 e53f
00000790: c280 5fe1 2a37 d1bf 2741 3f0c 3ec6 f9bf
000007a0: 8aaa 8410 3b05 e4bf 51f5 b626 1272 d13f
000007b0: ee3a 3986 8b1c dcbf ab63 1699 86f8 f13f
000007c0: 0f8d 3684 2569 e1bf 611f 8bc4 b1e2 eabf
000007d0: f575 73d2 eb8f bf3f b990 02d0 0f79 efbf
000007e0: ba9c 38c3 4d71 b3bf 9053 60b0 12e2 f03f
000007f0: ed73 0727 9377 d13f 0ce0 86bb bc3e f5bf
