data/processed/deep_mlp_W4.npy (npy, 524416 bytes, 1 tensors)

array f8 [256, 256]
0	0xbf6f1532dcbe574b	-0.0037942880062002186
1	0xbf819ac05104b2bc	-0.008595945808872123
2	0x3fb4f7f1f581d295	0.08190834277940902
3	0xbfc6dc2e82c550c3	-0.17859441170970144
4	0xbfafefe5eb5d6c44	-0.062377152424879984
5	0xbf4b04654e0e91e9	-0.0008244986203079205
6	0xbfa2ed42cb2bf632	-0.036966407109485636
7	0xbfaa6d616899b142	-0.051615757006262544
8	0xbf99453540a0318a	-0.024678070134585485
9	0x3fa91e0fb936e2de	0.04905747543256721
10	0xbf94fae2cef7932f	-0.02048830402590623
11	0xbfa92509ad0b296c	-0.049110700963484216
12	0xbfa1364654e6fd13	-0.03361720835118311
13	0x3f78f1481a8cdfeb	0.00608947911751299
14	0x3fa45532f27681fa	0.03971251687767459
15	0x3f98e754abf05846	0.02431995677405776
16	0x3fbd6e3c35b9905e	0.11496330558435505
17	0x3f7b5477db0bbdaf	0.006672352014660473
18	0xbfa9edae6f2d4c4e	-0.05064149005070161
19	0xbfab0e06aa52ce5b	-0.05284138516563238
20	0x3fab9be0d3813c09	0.05392363149496055
21	0x3fc03612860cd683	0.12665015740792648
22	0x3fa5d0b8a03b4c61	0.0426080413432366
23	0xbfbffe90c20c05b6	-0.12497811067080175
24	0xbfa8343c82f9db66	-0.04727353190258192
25	0x3fb3261078d8eb82	0.07479956579565619
26	0x3f82c5aec939b922	0.009166112438120214
27	0x3f8e2b492c5b8fd2	0.014730998674572424
28	0xbfb80858016d8d62	-0.0938773158537081
29	0x3fbd9722af2fb583	0.11558739449511361
30	0xbfc041bec73b3b94	-0.12700638511747953
31	0x3f966138aaf83766	0.02185524505153271
32	0xbfabb4a822f0cffd	-0.0541126768734159
33	0xbfb56abb5c515f0a	-0.08365984920362393
34	0xbfbbd345dd51657f	-0.1086925187422789
35	0xbf94d3afd4d0ec23	-0.020338771213783368
36	0xbfa2d75060d3bfeb	-0.03679896528217327
37	0xbfbcfba8dbba62a8	-0.11321502079443724
38	0x3f8dbdfb40c76614	0.014522517122645552
39	0xbfc1c3b4916a9384	-0.13878495312124184
40	0xbfb0917fb6e58aac	-0.06472013678789307
41	0x3fa65f8eda37fbb7	0.0436977998142462
42	0xbf685461afb5ffbe	-0.002969923776333843
43	0xbfb28aa921d75af5	-0.07242829395486779
44	0xbf954c5b3940d7a6	-0.02079908883043626
45	0x3fb07be4a3d54212	0.0643904590590483
46	0x3fb2cd75cd0889ef	0.07344757323929917
47	0xbfb6b6b4a37ff6ab	-0.08872536651321165
48	0xbfb1677f7d6c7dbb	-0.06798550426582654
49	0xbfb2a9a19d3a4346	-0.07290086830677209
50	0xbfb0a1eba97f5f09	-0.06497071159480695
51	0xbfb7fcdf950b14bb	-0.09370229138137891
52	0x3fada8ca5bddb191	0.05792839404498119
53	0xbf64420ddbd2d96d	-0.002472903316255762
54	0x3fa11381fe420d51	0.03335195759521049
55	0x3f9fcd05f1d2255d	0.03105553902108703
56	0xbf56112132e1edf4	-0.0013468574720992806
57	0x3fba8dc7239c5d88	0.1037258588734088
58	0xbfbb7b25587bd241	-0.10734780702825565
59	0xbf5d66f228e98969	-0.0017945637552193255
60	0xbf8a7a7fa37357d4	-0.012928960013976289
61	0xbf965506d08ab061	-0.02180872581327298
62	0xbfc978beab25157c	-0.19899733883555004
63	0xbfb193f24117a300	-0.06866373147171245
64	0xbf9be93e3414d116	-0.02725693886641619
65	0xbfaa4f19712d636d	-0.051384730401600055
66	0xbfc2095816eef676	-0.14091015929982448
67	0x3fb1a718c9c299b4	0.06895594526085952
68	0xbfb25ec6f3edea9f	-0.07175868468577072
69	0x3fac39e51bdf33f3	0.05512920346482266
70	0x3fa2e2a002cbc8df	0.036885261861145706
71	0x3f7f9c87570155ec	0.007717636748642214
72	0x3fb0dbf2f9c09c03	0.06585615727873066
73	0xbf837bc3cb2c2bc2	-0.009513406408151574
74	0x3f949aa9c81c998a	0.020121243323183026
75	0x3fbaf97e785c0c99	0.1053694766851997
76	0xbf909227f6acb5a8	-0.01618254130442201
77	0x3fb56c479a35702d	0.08368346705304992
78	0x3fa3772359e3d4d5	0.038018326495071676
79	0xbf7fc81e607f893a	-0.00775920740122365
80	0xbf843dfcb01b4b66	-0.009883855938289176
81	0xbf8cd52be6752dc4	-0.01407846734095742
82	0x3f93ce90f5e29991	0.019342675216330433
83	0x3fbe85ca0994115d	0.11922896131369982
84	0x3fc399f5bb74ce71	0.1531359830201953
85	0xbfa2106c2d2acef8	-0.03528154422147439
86	0xbfae054656a03908	-0.05863399321980195
87	0x3fb282b44f10c9a8	0.07230688982307376
88	0x3fb3ccc52207bf07	0.07734329300705776
89	0x3faf355df623d932	0.06095403318060945
90	0x3f773f7934edd30c	0.005675767387278052
91	0x3fa33546e0ba3926	0.03751584523444
92	0xbfc86bfc745195b3	-0.19079547576545294
93	0xbfa5126879c0baed	-0.0411560677169883
94	0x3fc17e5422ed891a	0.1366677446886307
95	0x3f84bd02c7b9d25f	0.010126134605550506
96	0xbf757cfaed8b9de6	-0.005246143519549195
97	0xbfbededac5a4d0cb	-0.12058799100197175
98	0x3fb75d53a4570ccf	0.09126780283172596
99	0x3f8179531a5b5c62	0.008532189599845977
100	0x3fbbc8e309313b56	0.10853404020711585
101	0xbf9253914509d046	-0.017896909559979933
102	0x3f8dd62e62a730cb	0.014568674455312089
103	0xbfa721c67ca9fc32	-0.04517956039216421
104	0xbfbac52799d0fbc8	-0.10457084183961662
105	0xbfbe2ae332a8dae5	-0.11784191119009398
106	0x3f948e808c7cbe47	0.020074852537787426
107	0xbfbd46a2b0a8a533	-0.11435906231840391
108	0x3fac1a66ce625f21	0.054888928120986565
109	0x3fc0f967f08a7e45	0.13261126752057542
110	0xbfbd6523d561e172	-0.11482452353982867
111	0x3f847bf7e383fe3f	0.010002075796818775
112	0xbfbc7ca5b3dbbdae	-0.11127696648667637
113	0xbfa4223e053af6d5	-0.039323747766940954
114	0xbf992d4744cecdc4	-0.024586785864540564
115	0x3fa4b00bdfa1b623	0.040405627297200895
116	0x3fb7e68e5ad11d27	0.093361756488879
117	0x3f8fb8b6d4cdbcfd	0.015489033097507926
118	0x3f828321ef15b61d	0.009039177998341913
119	0xbf6bed7fca617a94	-0.0034091468724420457
120	0xbf85da2860553722	-0.010670009078832591
121	0x3fccffe9165bdeb6	0.22655976859799914
122	0x3fc2633c7aa20026	0.14365344989710244
123	0xbfba9c2579d0fcd5	-0.10394510482818771
124	0x3fb053eadbacf5fc	0.0637804781262829
125	0xbfa09f80f2616b77	-0.032466916644543646
126	0x3fb5c515e264f929	0.08503853585441291
127	0xbfbae17ad17892f0	-0.10500304807699101
128	0xbf951297c2f556f4	-0.02057873847419152
129	0xbfa6827ed27f5c21	-0.0439643508868175
130	0xbf949ec5c29ded29	-0.020136919024918463
131	0xbfb025c9c42297c9	-0.06307660139518058
132	0x3fb1eb404f9e4541	0.06999589866452018
133	0xbfa99eb417c1302a	-0.05003893651937148
134	0xbf82c28af0bd2ca4	-0.009160123321313947
135	0x3fc183041bcec4a4	0.136810792520497
136	0xbfa123fe4bfa84d0	-0.03347773244355212
137	0x3fbc3823686f7bcb	0.11023160266584779
138	0x3f9bde825a5c70db	0.027215992703632046
139	0x3fa9498c20f2215e	0.04938924696131396
140	0x3fad247ad9f76f3b	0.056918944461101316
141	0x3fabc83f66706f68	0.05426214337805285
142	0xbf5dac99016f0148	-0.0018111700244248397
143	0xbf70009ed8503f5d	-0.003906841743642389
144	0x3fadb091a011f9ae	0.05798773840887193
145	0x3f846c7e0e671777	0.009972557844672754
146	0x3fbe1ea6236c920d	0.11765516629072455
147	0xbf577827a52d1b83	-0.0014324557457301163
148	0x3fb01aa9878af141	0.06290683325909631
149	0xbfc0a85c92325fa1	-0.13013798845781557
150	0x3f92b32a70fdf424	0.01826158823631742
151	0x3fb3f55acc2686e4	0.07796256527083362
152	0xbf78f1a613eb9ad6	-0.006089829198322424
153	0xbf9f9ce07840b0f9	-0.03087187513317333
154	0x3f8906822fca72b4	0.012219445308170186
155	0xbf9bf7d40a8fcf91	-0.02731257738555787
156	0xbf7991be32a44b41	-0.006242506942970406
157	0xbf94a7a5a7563462	-0.020170772875236394
158	0xbfa4b7724b049845	-0.04046208539720956
159	0x3f835c82cc10344e	0.00945379433871998
160	0x3faad4fcf48e2e90	0.05240622029586206
161	0xbfbd7d6ca3ad9f13	-0.11519507404375089
162	0x3fb303d57ec65268	0.07427725167355848
163	0xbf981f2d81235b4c	-0.023556433684315523
164	0xbfc1b5a2c1c8a1a4	-0.13835558378310708
165	0xbf8e511af0be3e80	-0.014803133460900897
166	0xbf806056e42c77d1	-0.00799625285941011
167	0x3fc107ebab514cb3	0.13305421700588269
168	0xbfb5b57576073112	-0.08480009204430797
169	0xbfc3d899973142b3	-0.15504760630076006
170	0x3f9a2289dcfb2f5c	0.025522379028913064
171	0x3fb4cd30138702f0	0.08125591732733617
172	0x3fa724a00568b3ff	0.0452013022043971
173	0x3fbad66599b6cea4	0.10483393671784796
174	0x3fa4531119ba1f86	0.03969624938059639
175	0xbfaa5a38e85f8d59	-0.05146959148967296
176	0xbf7fd1916375bfd1	-0.007768218921555063
177	0x3f92252733deca7e	0.017719852963362197
178	0x3fbfe3cddf61f055	0.1245697660796748
179	0xbfacf3c3c7d84536	-0.056547277588956765
180	0x3fb67747ba32fa90	0.08775757118108118
181	0xbfa8e4c409b70e6b	-0.04862034433929526
182	0xbfa4b3b3e041afe7	-0.04043352234370428
183	0xbfbbf9bb77e655d8	-0.10927936246147085
184	0xbfae1b9b6d944164	-0.05880437576900269
185	0xbfa934fffe437c2d	-0.04923248270801426
186	0xbfbd887b389d3e34	-0.11536378986533508
187	0xbfc0034189be082f	-0.1250993654794583
188	0xbf9b19d42a5d36d6	-0.026465716443729935
189	0xbfa427c72f078d27	-0.039365982523827996
190	0x3fc0dd40a6c75a89	0.13175209182255213
191	0xbfb3f156cf536d6f	-0.07790129243533327
192	0xbf86af6a275e9b4d	-0.01107676441809038
193	0xbfba4b9bf614222a	-0.1027162051942773
194	0xbfc6e291bf587458	-0.17878934710543848
195	0x3fb6ee0a47a4fa22	0.08956970452434423
196	0x3f9602ee6ea25d66	0.021495557310655576
197	0xbfadc4aa89e2071d	-0.058141068774615536
198	0x3fc2e6ddb7bcee5e	0.14767047378142
199	0x3f9cf4bae9092d63	0.028277321313266223
200	0x3f6d469d62dcc8b0	0.003573710818181551
201	0x3fbae17c55ff5a59	0.10500313853786149
202	0xbf88996fce9bd1df	-0.012011407368370306
203	0x3f7c1d7c2457b476	0.006864056520027187
204	0xbfa5faf239f60425	-0.04293019254237888
205	0x3fa0e5efdb4be7a9	0.03300427963217995
206	0x3f748de344956257	0.005018127217532773
207	0xbf8a449086b8b7c4	-0.012826089011550475
208	0xbf6747c412218297	-0.002841837836101323
209	0xbfbc86fdb5068a9b	-0.11143479985779907
210	0xbf9622e736df19c7	-0.021617520069207943
211	0x3fc6afab62d712f3	0.1772360069864117
212	0x3fa7abf073a7a4b3	0.04623366748621418
213	0x3fb7569f3eaadaca	0.09116549758878559
214	0x3fb40309c9bec779	0.07817135978146252
215	0xbfc690bf70615f11	-0.17629235255548584
216	0x3fc9b64b9decb55f	0.20087571345485863
217	0x3fb8baf92d8fc138	0.09660298693029723
218	0xbfa9faee692582e2	-0.05074257882620771
219	0x3f7757f5bf10b7cc	0.005699119517016581
220	0x3f8134d03bd70542	0.008401514841241412
221	0xbfc20ab3c795afd8	-0.14095160718295463
222	0x3f982e7b13deb6a4	0.023614810073630324
223	0x3f9e3dc4ddddfadd	0.029532505075162575
224	0xbfc2703db5e37685	-0.14405032521510833
225	0x3fa41d93d57b6bf0	0.03928815823538645
226	0xbf6a79aa16fafef4	-0.0032318422380227477
227	0xbfb26a8f8c5ffb1d	-0.07193848778841212
228	0x3fa5b618526465bc	0.042404899652136646
229	0x3fb6cbc5a768dba5	0.08904681527279353
230	0x3fb57cd7381d0228	0.08393616790727576
231	0xbfb6a1fb203d2b4e	-0.08840913331111475
232	0x3fc17fd49915d1fa	0.13671357607712747
233	0xbfa10daae30d1c8a	-0.033307399955952624
234	0x3fa8c0a0cec8ece0	0.04834463619450857
235	0x3fa9e5cdebd9a32c	0.050581393280316383
236	0xbf9dd5c4ac83fca6	-0.029135773686900145
237	0x3faa68c1e7321791	0.0515804857941894
238	0x3fac33bad8978761	0.05508216756767471
239	0x3fb6b711ed8bc5a9	0.08873092698538322
240	0xbf98920789af4284	-0.023994558123208623
241	0xbfb72fdd0efe2ae2	-0.09057408920322588
242	0x3f9dbf32de966f9f	0.02904967769209998
243	0x3fb36a424218af3c	0.07584013093645309
244	0xbfae43cdf7af4e95	-0.059111057743988095
245	0x3f931bf2a2e31647	0.018661299888455465
246	0x3fa960205d0ef387	0.04956151138274039
247	0x3f82b18663dcc951	0.009127664492187522
248	0xbf7a9e215a8f619b	-0.006498461044394689
249	0xbfaee4d1f46b9fe1	-0.06033950909278452
250	0xbf60a55ef1a0f07a	-0.0020319799778275
251	0xbf95ea684c5c37b4	-0.021402005825670492
252	0x3fb04330c133fab9	0.06352524487372592
253	0xbfb2938524bbadd2	-0.07256347796253884
254	0xbfc68a1ef6f090b1	-0.17609011705019875
255	0x3fb51bd5cbb1e572	0.08245598052044104
