data/processed/deep_mlp_W3.npy (npy, 524416 bytes, 1 tensors)

array f8 [256, 256]
-0.014590808053316529 -0.017690398874096562 -0.10128140456573974 0.008438715246444742 0.1977324261556568 -0.008947701005523228 0.04756030794610103 0.06558507846553752
0.058987540788980455 0.12223145766501019 -0.18176203296295543 -0.007276643087417985 -0.005752925914322932 0.1236076693668868 -0.07398730302912487 -0.1983591146584881
0.053102302433560095 0.039326062139679284 -0.1303076681899067 0.005509926079874324 -0.022261183069808763 0.0808500424178446 -0.2448618668201332 -0.14127942889330072
-0.017351071968863357 -0.04312375882550926 0.01546784131902218 0.021954934910325664 0.09533983306214328 -0.08061406984695454 -0.08187831926968486 -0.015260205571066433
0.016687389016567702 0.020578956315080128 -0.015410909585801614 0.00341173179574883 0.06716486139717161 -0.0041340174326253195 0.04349006308504403 -0.06052189866630326
0.04290881210560001 -0.20136349637749035 -0.03138199457337192 -0.054470402105258484 -0.09585998843976747 0.09912445342363875 -0.006726115729859435 0.0013686969590975488
0.1095814417910242 0.11073803084081958 -0.0640613580013052 -0.12138019150043736 -0.05802897623081205 -0.01534074952844642 -0.05669538511874372 0.061633096781424465
0.02221962146725742 -0.06619747223126209 -0.08083552595412057 0.09024444702344843 0.3144386755838194 0.1376182345092332 0.05298572053428869 0.05644718873420774
0.032786762141380266 0.05642077465818621 0.038494301288573694 0.0061818302764625865 0.008919810034659918 -0.06028445926107638 -0.031506439787590566 0.18518722985095368
0.10043554591096923 -0.153712596338066 -0.11280623075957245 0.01740066172362036 0.04078685950646333 0.036249488662117864 -0.09522171714671541 0.06767171899266054
0.06664058121828713 0.10835559859759446 0.08806092229663524 0.014429423987284272 -0.0626738634338169 0.03686626497345428 -0.22322253399293326 -0.03879640944920556
-0.04017686318233954 0.03137992025235573 -0.008908390782656917 0.07647309250592403 0.04571468570355102 -0.04045287977925426 -0.04771752218746124 -0.15906470263267064
0.03217461729503552 -0.1247186274470753 0.06553697750205224 -0.12256626937612708 0.005451876723940566 0.023496429911207074 0.0433248623943202 0.03135845801575095
-0.07367557934999756 -0.08335989809053833 -0.031436218111704745 -0.14758078388491536 0.05049241946941231 -0.2330281207847178 0.04804244541904893 -0.11550376057432975
0.0335928474646663 -0.18420587433018293 -0.10493490122538716 0.021890071987500297 0.04909466188433205 -0.03238245552957203 -0.0032071234209547403 -0.04693196253926822
-0.06517597877397162 -0.004719413859601359 -0.048559269366887904 -0.1124492701750471 -0.05445252503513993 0.14791450282774327 -0.10261045940585546 0.11969970482741853
-0.022739580304423336 0.009567722776071642 -0.0772967879451431 0.025282265089267838 -0.022106601556765727 0.08216180255877482 0.036562295323870425 0.06618458788670871
-0.0071522930619962784 0.1648158175036772 0.07924508008858022 -0.05229533337754538 -0.008095744772411454 0.10844296403050581 -0.05780145439490169 -0.04262959539776304
-0.07231190701214174 0.06955433995610637 -0.04834658939460064 -0.0014735596870084596 0.06851199717560974 -0.0598891965136888 -0.24190803589459975 -0.02819498110445309
-0.048609266816056936 -0.12536359625483878 -0.1598868347179153 -0.02388079004962022 0.05404172712807532 0.10798864893771148 -0.07681899128383773 -0.005716534571342115
-0.0449665783552896 0.013307181412958677 0.04068707269043675 -0.10502614637074822 0.10835114527922417 -0.037854411937461876 -0.0370200822276303 -0.08419017896748635
-0.015214237967734308 -0.0684503352700235 0.10852046192072407 0.02434500939287565 0.08893828332234764 -0.05183944881795284 -0.005368497039666314 0.08061830244948576
0.00860448183452456 -0.05054092199230982 0.009577922305711114 0.00677867077418045 0.04665418805772485 -0.03167976629836778 0.23572738013856961 -0.17047728595006942
-0.04839293716276395 0.03225589360097086 -0.0039141717581236656 -0.06559710882164152 -0.16333667202397956 -0.08034948149793215 -0.13533463658519346 0.004608386705777417
0.007586342435038394 -0.09330763835906383 0.0014126482660360448 -0.05847938007165264 0.23432549101301023 0.04719049031504917 0.03193058621440714 0.014437602305733876
-0.01738728303390548 -0.0928800795653911 -0.06730867090240375 -0.04609726786168456 -0.05367413260241674 0.05086020004233392 -0.04281268311337862 0.002573630373131225
0.10777496056244644 0.03239718712015568 -0.01727941632726015 -0.005097776568964628 0.06033793188218943 -0.0840982083047926 0.02254957861244184 -0.11629116896190465
0.006528557134409422 0.12213052123156654 0.14329095955893612 -0.06457969854376201 0.018514485946706207 0.006134416792546361 0.026225148035112836 0.009189846296368633
-0.010807780659008837 -0.039858528488213564 -0.0677287763879752 -0.034988411432292664 0.06277168746026597 0.036304889485599866 0.01376526122892709 0.1012324807042348
-0.21684207292347019 -0.04078992794006403 -0.0719192665168337 -0.08391784905806704 0.10403845328870263 0.026310101882110155 0.03280109663825432 -0.02176407388620486
0.09239177532987462 0.11515387869278779 0.0154936677602278 0.07958765792126964 0.022032403134649183 0.09814289908366917 0.03247127969556364 0.05984852509508582
0.1283615425609684 0.07355816517146663 0.03383085880268772 -0.0422212691247554 0.08551558968207341 -0.017624656868098287 0.03648615946250483 0.06768487112831487
00000000: 6027 4a1b c9e1 8dbf 2e42 7892 6e1d 92bf
00000010: 1f84 4d00 94ed b9bf 22a7 0730 5148 813f
00000020: 8140 d9cf 4b4f c93f 837c 8b19 2c53 82bf
00000030: d4b0 6e1e d359 a83f b875 1d07 2fca b03f
00000040: 4aca 1e6d 9d33 ae3f 47b0 3691 8f4a bf3f
00000050: af7c 9d71 fa43 c7bf bcab 5c01 1dce 7dbf
00000060: d482 884a 6190 77bf ee2e 7791 c0a4 bf3f
00000070: 2c4f d4f6 d4f0 b2bf 242e 29db d463 c9bf
00000080: 14c1 9698 3930 ab3f 1370 8aad 8b22 a43f
00000090: f096 a5f2 ebad c0bf fc20 1085 9391 763f
000000a0: 4938 05b5 a2cb 96bf 5c9a 10a0 96b2 b43f
000000b0: 5fd6 0337 a257 cfbf 4dde 58bf 7115 c2bf
000000c0: eb92 a0ba 7ac4 91bf 551c ac3b 5114 a6bf
000000d0: 20df d684 9aad 8f3f 8adf b3bd 5a7b 963f
000000e0: 9c0c 02f9 3068 b83f ba12 97a9 1fa3 b4bf
000000f0: 34c6 833f faf5 b4bf fa1d dd1e be40 8fbf
00000100: 34c0 53b8 7f16 913f 25b3 6f61 a612 953f
00000110: 478c 6145 c18f 8fbf 02ed 888f ebf2 6b3f
00000120: 5127 2463 b731 b13f 869a c9da d4ee 70bf
00000130: 756f 4d5d 5444 a63f c95c edee b9fc aebf
00000140: 5b53 68d1 24f8 a53f 2e57 c66f 47c6 c9bf
00000150: 9773 c000 4d11 a0bf 66bb 4867 8be3 abbf
00000160: 4dff 57bb 478a b8bf 393b b05d 3860 b93f
00000170: c8f5 6bf1 d78c 7bbf 687b 5b2b bb6c 563f
00000180: a5b0 bd84 870d bc3f 997f e2dc 5359 bc3f
00000190: 618e 8d3d 5366 b0bf 9268 e0b0 c512 bfbf
000001a0: 116e 4356 f9b5 adbf b49b 2a8c f86a 8fbf
000001b0: 1f98 d671 2d07 adbf 1e0a 0e8e 5f8e af3f
000001c0: 7f1f 208e bdc0 963f cba6 4f4a 51f2 b0bf
000001d0: b7f1 5314 a3b1 b4bf 2d7f 9c94 421a b73f
000001e0: 45b9 0e65 c31f d43f 0174 466c 799d c13f
000001f0: 7914 b3c1 f120 ab3f 410e 215b a5e6 ac3f
00000200: a825 472e 6dc9 a03f 449c f10b 2fe3 ac3f
00000210: 83cc 3b6a 86b5 a33f 8e88 de6d 1e52 793f
00000220: 024b 15a3 8c44 823f ee7b f7c9 9add aebf
00000230: 7b8f 00b1 9c21 a0bf 0b60 ec13 37b4 c73f
00000240: 1624 0bd9 24b6 b93f ccab 20b7 daac c3bf
00000250: 8bbb e57f dee0 bcbf 2d78 20a4 7ad1 913f
00000260: 21a5 5fe7 03e2 a43f a1dd 9900 4b8f a23f
00000270: 659c 0351 7360 b8bf 2f05 f00b ef52 b13f
00000280: f341 eb6c 5b0f b13f 17af 5048 31bd bb3f
00000290: 4bd4 511d 298b b63f 2c08 0181 2c8d 8d3f
000002a0: 7220 c3f1 640b b0bf d5f7 c594 22e0 a23f
000002b0: 416d 9d55 8e92 ccbf 6bb8 927b 1fdd a3bf
000002c0: 7818 d9d2 0f92 a4bf 254c 7866 0711 a03f
000002d0: 3a6e 92f8 8f3e 82bf cf40 5697 bd93 b33f
000002e0: f75b 1650 ea67 a73f 1fa1 5c67 3db6 a4bf
000002f0: ba8b 7b5a 6e6e a8bf 32ad e06f 3b5c c4bf
00000300: c944 1602 3179 a03f 8152 165a 8fed bfbf
00000310: f1cc 0c07 08c7 b03f 5c2d 90c6 8060 bfbf
00000320: 9dc8 b203 b554 763f 4a62 2ab8 720f 983f
00000330: 4fb3 2c26 ad2e a63f 2ae3 423f 370e a03f
00000340: a774 d21b 67dc b2bf efc4 1804 1357 b5bf
00000350: 643e 6671 6818 a0bf 74e1 2658 ede3 c2bf
00000360: 0253 a274 24da a93f 30cb e88e ddd3 cdbf
00000370: 8513 caf7 0499 a83f a754 3b8a a791 bdbf
00000380: 2203 7bea 1433 a13f 2257 fdde 0e94 c7bf
00000390: d7d6 f880 03dd babf eb70 2cdd 596a 963f
000003a0: ca1b 677e ef22 a93f 4868 ede6 6e94 a0bf
000003b0: ebad a146 d345 6abf ce8b 7c58 7707 a8bf
000003c0: dfa9 5179 5faf b0bf d6b3 ee02 aa54 73bf
000003d0: 7d66 b2b3 c2dc a8bf a663 dcb1 79c9 bcbf
000003e0: d9cc 6b8c 33e1 abbf a6e7 1fc8 dcee c23f
000003f0: e12c 60d7 ad44 babf 071a 93cd a3a4 be3f
00000400: 9ad6 ed66 0b49 97bf 3a06 5d03 3e98 833f
00000410: ab6b 4fe8 b8c9 b3bf 2fa9 e816 98e3 993f
00000420: 8a19 d9ea 1ca3 96bf a968 f84e 8e08 b53f
00000430: 1c8d 5d0d 4bb8 a23f b3ff 7820 79f1 b03f
00000440: 06d3 ae0c b94b 7dbf a259 0549 af18 c53f
00000450: 306f 59d3 6749 b43f 2811 2e35 74c6 aabf
00000460: 6f2f 4678 8094 80bf 2109 fe07 ebc2 bb3f
00000470: ff1d 93f8 2698 adbf 1474 26dc 8bd3 a5bf
00000480: b881 ba7b 0883 b2bf 1706 682f 50ce b13f
00000490: ba59 a558 e2c0 a8bf ef9d 85aa 8e24 58bf
000004a0: 48bd 4093 008a b13f e9ec d1f8 cba9 aebf
000004b0: 8048 67af d7f6 cebf 4715 0527 25df 9cbf
000004c0: 61d7 8356 50e3 a8bf 6a01 0311 ea0b c0bf
000004d0: db52 16fb 2b77 c4bf ab23 10b1 3474 98bf
000004e0: 41d5 4475 5bab ab3f 8cd5 86e3 24a5 bb3f
000004f0: 509a 46cf 68aa b3bf e862 7c90 386a 77bf
00000500: 0fe2 e5fe db05 a7bf 25c8 c3a7 cb40 8b3f
00000510: e79a 269d efd4 a43f 4e24 e357 fee2 babf
00000520: 875a 7591 e6bc bb3f 52b9 8f4a a761 a3bf
00000530: 9e01 edd4 4bf4 a2bf 2e4b 4fd1 7c8d b5bf
00000540: 2433 0a74 a428 8fbf 768e 620f f685 b1bf
00000550: 7075 e53a ffc7 bb3f 8021 a7ec e5ed 983f
00000560: 875b 3bca a8c4 b63f 0aad a142 b38a aabf
00000570: d3b4 6cf3 46fd 75bf a0c5 7aac 66a3 b43f
00000580: 8160 a000 3a9f 813f fa20 22ee 7fe0 a9bf
00000590: 1184 88f8 969d 833f 593a 9194 f3c3 7b3f
000005a0: 56d5 dbc7 0ee3 a73f 3190 6490 5438 a0bf
000005b0: ebc3 3b96 502c ce3f d1e5 ee1f 33d2 c5bf
000005c0: 7262 f184 f5c6 a8bf 5725 3d30 d883 a03f
000005d0: dcb5 127b 4e08 70bf eae1 19dd f8ca b0bf
000005e0: da4c 4a50 37e8 c4bf bdbf 489b c891 b4bf
000005f0: 3621 1337 a552 c1bf 53a6 0463 3ee0 723f
00000600: e4d7 794a db12 7f3f ce1b 3867 02e3 b7bf
00000610: 09b6 9d86 1325 573f 0ed4 cb61 02f1 adbf
00000620: 0b90 42b0 60fe cd3f ceb1 2b19 5a29 a83f
00000630: b0e3 10af 3459 a03f 40e1 e22d 7691 8d3f
00000640: 84d8 fccf f8cd 91bf 56e8 2e28 fdc6 b7bf
00000650: 4e57 431c 243b b1bf 1141 cda3 0f9a a7bf
00000660: d44b 5608 2d7b abbf 7e1e b31f 590a aa3f
00000670: e3e5 a643 8beb a5bf 5a5e 1b49 4b15 653f
00000680: 7b82 f1ca 2397 bb3f 2bb1 5336 5d96 a03f
00000690: 1e05 1400 b2b1 91bf 2517 56fa 67e1 74bf
000006a0: d6d8 4808 9de4 ae3f 653f 52ce 7587 b5bf
000006b0: b250 b79a 3c17 973f 1347 810f 42c5 bdbf
000006c0: 4421 1e36 b0bd 7a3f 7873 8822 f243 bf3f
000006d0: 8c1d 8fb0 5b57 c23f 9922 3b8d 4b88 b0bf
000006e0: 97cb 921e 76f5 923f 1b77 10f8 6620 793f
000006f0: 9103 93e4 c3da 9a3f f4a6 624a 20d2 823f
00000700: 2043 c8c3 6322 86bf dda9 a548 5668 a4bf
00000710: 8c9e 954f ac56 b1bf db6e ae45 00ea a1bf
00000720: f1ae c128 ce11 b03f 5314 0df2 8d96 a23f
00000730: caa2 6416 f630 8c3f 6cea ea31 5fea b93f
00000740: 1234 cd25 7bc1 cbbf b87d 04dd 6ae2 a4bf
00000750: 3a61 a411 4d69 b2bf c44b 41e1 a37b b5bf
00000760: 3fc2 669a 43a2 ba3f c567 8d0c 09f1 9a3f
00000770: 3921 ab2a 4ecb a03f 0aa2 4646 5249 96bf
00000780: 9f10 76c5 fca6 b73f 263a fe7e b97a bd3f
00000790: 1826 9ae2 24bb 8f3f 07e5 ef53 db5f b43f
000007a0: a794 a98b a98f 963f 0b24 e69d e41f b93f
000007b0: f213 b458 13a0 a03f c994 fe43 77a4 ae3f
000007c0: 3b86 aea9 266e c03f 28e5 c339 b5d4 b23f
000007d0: 0968 4e40 4752 a13f bb41 2cb4 069e a5bf
000007e0: a18f fb84 59e4 b53f 1325 68b3 320c 92bf
000007f0: a8d3 4b5b 50ae a23f 2e1a eeb3 cb53 b13f
