data/processed/deep_mlp_W1.npy (npy, 8320 bytes, 1 tensors)

array f8 [4, 256]
0	0xbfe3d72a1cdb7cbc	-0.6200151980991886
1	0x3fe301f0ea25a96c	0.5939869473634594
2	0xbfbc3aa400104a98	-0.11026978494218509
3	0x3fa195a0650e93d1	0.03434468492131482
4	0xbfcdf3e13c06fd25	-0.2340051215269138
5	0xbfe2df3742368258	-0.5897480290623873
6	0x3fd6297178a83f65	0.34627949507647876
7	0xbfdfa2db414b27fd	-0.49431496979070727
8	0x3febb587332adfb2	0.8659091948857081
9	0xbfe35e5f95818a35	-0.6052701873816831
10	0x3fd5ebca9449d916	0.342516560376127
11	0xbff051cdda62c0cf	-1.019971707410196
12	0xbfe7422a9f0c4d90	-0.7268269640357392
13	0xbfdf4bb8e586297d	-0.488996719498253
14	0x3fed0a83cdfebfc3	0.9075335524885236
15	0x3fdda5b1efd73efb	0.46323822423890676
16	0xbfef1d03e830ae56	-0.9722919020618501
17	0xbfb4f1d96b003a26	-0.08181532728506422
18	0x3fe0d68af0ac17fc	0.5261892986898142
19	0xbff3e22557de4cf9	-1.2427113945348636
20	0x3fb2e8e320f1a2f3	0.07386607698721175
21	0xbfdd15efdb11be3a	-0.45446392434584804
22	0x3ff3fde673116c76	1.2494873518797056
23	0x3feaad3d9c8b564b	0.8336475427156044
24	0x3fdb799c05c6505b	0.42929745258266444
25	0x3fe038d218b92af3	0.5069361193539791
26	0x3fa1695af032db50	0.034006921597600326
27	0xbfe1ce07945f72d4	-0.5564000986010691
28	0xbff852d630cdd3d4	-1.520223799362829
29	0xbfd205fb968eb447	-0.28161515906214557
30	0xbfe413b6646e802c	-0.6274063073688061
31	0xbfe6ea0e2553316c	-0.7160711983683945
32	0xbfe57e043092ae22	-0.6716328571978389
33	0xbfdea6647991a0e9	-0.4789057910152353
34	0x3fe43b46fbd50539	0.6322359961124341
35	0x3fb84a7464631362	0.09488608790259215
36	0xbff0b245c3349051	-1.0435235619743433
37	0xbfd178999a4a1296	-0.2729858404857536
38	0x3fe564602208cfec	0.6685028710112397
39	0x3fd34edf262b6c8a	0.301688945078873
40	0xbfd96ac85e720353	-0.39714249823741915
41	0x3ff5a85cb4697cef	1.3536040351244158
42	0x3feaa99de958dd1a	0.833205180889226
43	0x3fdee5a54d90ad00	0.48276646208496743
44	0x3fe057ff304ca5b0	0.5107418006274909
45	0xbfa0f7a2cfdcb9c0	-0.03313931262379155
46	0x3fc938236a025a2d	0.19702570606450945
47	0x3fc4b5eeb09c5ea3	0.16180213569235943
48	0x3fd372e0b5e7862a	0.30388658298588445
49	0x3fe980c82554d74d	0.7969704369668108
50	0x3fc69314957e2a72	0.17636353778319208
51	0x3fe6ceda6a768c33	0.7127506331784218
52	0xbfdab6b47266159e	-0.4174014203238928
53	0xbfef5c1c6422617e	-0.9799940067050981
54	0xbfef31a3f2d2e015	-0.9748096220637331
55	0xbfdce9cf644f4952	-0.45177063747282376
56	0xbfe6e04698c26e4f	-0.7148774131378078
57	0x3fd9eca2cf70166c	0.40506811387635966
58	0x3fe207c3ef9dedd9	0.5634479217546257
59	0xbfc4be7c7ab02d5a	-0.16206317892679573
60	0x3fe99c176c079880	0.8003041372255808
61	0xbff681f746bc7337	-1.4067299616937825
62	0x3fe34985ff222736	0.6027250273775511
63	0xbfbf09de2efa508f	-0.12124432227057212
64	0x3ff9a3fc8c912fff	1.6025357714561321
65	0xbfe634a808251c8c	-0.6939277800637611
66	0xbfe0d6f79475035e	-0.526241102175941
67	0x3fe40ef95eb6d4a6	0.6268278932463047
68	0x3fe3837b195fb4d8	0.6097999091704436
69	0x3fe628286db9cdca	0.6924020903665504
70	0x3fe28737b81e7da5	0.5790060611797584
71	0xbff9fcb105bf9fb9	-1.6241922592689504
72	0xbfe238e01a49e1e1	-0.5694427979897762
73	0x3fded3870c0dcde7	0.4816606157030194
74	0xbfed2846b489d085	-0.9111665273799338
75	0xbfd27e457ac381fa	-0.28895699490206506
76	0x3f938da713d761a0	0.019095049463290104
77	0xbfd2c6bdab756339	-0.293380181732164
78	0xbfc92210298eb7ae	-0.1963520243565972
79	0xbfcbb91f61188bdc	-0.21658699265489545
80	0x3fe249b32d69cc58	0.5714965712526334
81	0x3fe6fe3bae3a158f	0.7185343172902082
82	0x3fce8ac9bf4dd38c	0.2386104759313209
83	0x3fe0e684035c8cc2	0.5281391206412069
84	0x3fc5343988f31651	0.16565627276411246
85	0xbfe1f2e6e6b385a2	-0.5609011178859655
86	0x3fea6c0423c4f735	0.8256855677243268
87	0xbfc0f4af4dabc839	-0.13246718685656036
88	0x3fe9c9c5f6286ec8	0.8058805282375596
89	0x3fb85624c679142d	0.0950644478371749
90	0x3fcb4666c2592ffd	0.21308598031680495
91	0x3fd506839948379b	0.3285225865264409
92	0x3ff375dee7b58030	1.2162770320064844
93	0x3fd96f1c1126201f	0.3974065940351483
94	0x3fe5cf114aea74d8	0.6815268004608255
95	0xbfc06ac983c7e5ca	-0.12825888571368999
96	0x3fbe05bb2ecc9007	0.11727495091014371
97	0xbfaa3fb2bfde0575	-0.051267229005143834
98	0xbfb230a012dca630	-0.0710544630097949
99	0xbfb2c369f503796c	-0.07329427940155647
100	0xbfbb7fc7e2b4cb51	-0.10741853031940464
101	0x3fdfe862e0acd778	0.498558730515803
102	0x3fcd3135c1372542	0.2280642693934088
103	0x3fdda8b6240e8c33	0.4634223320119332
104	0xbfd56e3523d074f3	-0.33485153672684403
105	0x3fcaba5eb24888ba	0.20881255822411565
106	0x3fdc64610f4883a7	0.44362665646081684
107	0xbfc54b1fe11fb205	-0.1663551186787943
108	0xbfb19a4ecc103393	-0.06876080019010393
109	0xbfc0b26f9046b812	-0.13044542832125267
110	0x3fceee12d420494d	0.24164042813988332
111	0xbfd4a873fcd53ad5	-0.322781559855611
112	0x3fe2980947dba737	0.5810591128804167
113	0xbf9df1798b2c2d95	-0.029241465682429874
114	0x3fa4a2a405512a4c	0.04030335011392036
115	0xbff1176f04ce6c39	-1.0682211101291286
116	0xbfe453d8422c1907	-0.6352349560191052
117	0x3fd4492a496b68a5	0.31696564836387103
118	0x3fd7feab7d74f8aa	0.37491881610538746
119	0xbfc5f6fc1d97621e	-0.1715998787392587
120	0x3fc8ffb20c3ba18d	0.19530320737181875
121	0xbfe43bf616453119	-0.6323194918600478
122	0xbfd82fe3bc2b86a2	-0.3779229486081964
123	0x3fcad3d7bd489148	0.20958992712361124
124	0xbff9c9b20e1c401c	-1.6117420722184823
125	0xbff7713f9ec2af11	-1.4651485635358237
126	0xbfbee76f4f7af603	-0.12071891489446078
127	0x3ff6b3d0871dfdb1	1.418900039483429
128	0xbfa62295c01d4aac	-0.043232612325160374
129	0xbfc8ec71e2212a51	-0.1947157243869975
130	0x3fd0effd25b43a75	0.26464775735886487
131	0xbfc607285442719e	-0.17209343065486576
132	0xbfdcc51bae0b9071	-0.44953052517508413
133	0x3fe9f26ba0a3831a	0.8108423364138588
134	0x3fe07d7ec1558e56	0.5153192306574492
135	0xbfe5a665f37e9bfc	-0.6765622859719538
136	0x3f9be07a9e93dc55	0.027223506859595698
137	0xbfdbeabc0326ad0d	-0.4362020521900412
138	0x3fe27a94a8d2de36	0.5774634644830658
139	0x3fc5dc6fc5afb218	0.17078969147350231
140	0xbfc6529b36a96d08	-0.1743959443000238
141	0x3ff1e4a65c0936a3	1.1183227152973039
142	0xbff62c041336a1e2	-1.3857460737727867
143	0x3fefde89fb4e978a	0.995915404161438
144	0xbfddbbb9805e2b06	-0.46458280120775475
145	0xbfc5bada5ecb126c	-0.16976480129791882
146	0x3fe09a179370271e	0.5188100700044946
147	0x3fe7b7df58d539f0	0.7411953673379781
148	0x3faaab12b175c813	0.052086433565719535
149	0x3fc8e9d9696bae27	0.19463651320926198
150	0x3fca828df02f920d	0.20710920551131587
151	0x3fe6c880f330abaf	0.7119755506331468
152	0x3ff65a448cd1f46d	1.3970380306994017
153	0x3fc74b350fee096d	0.18198264386962695
154	0xbfe4234e6997de64	-0.6293098509185708
155	0xbfee4ece1d6c3ef4	-0.9471197676338918
156	0x3fe57d0a950e0fa5	0.6715138350705173
157	0xbff60d25a952312b	-1.3782097448448194
158	0xbfdf8557275184c0	-0.492513454815775
159	0xbfe7de61fe6fedd0	-0.7458963365056039
160	0x3fdc89f736763301	0.4459207565167134
161	0xbfc7fa538f9aff9a	-0.18732685577378733
162	0xbfd873423bfbac62	-0.382034834458585
163	0x3fdc959951bdc4ed	0.44663079245135756
164	0x3fd58c0a6fbb5eac	0.3366724101192442
165	0x3fcada9a8c6b8868	0.20979625565002213
166	0xbfc11fbd53dfd613	-0.13378111453464267
167	0x3ff7c72ec75b2c80	1.486128596053078
168	0x3fa16cf1442bf004	0.03403428990529281
169	0x3fee5c70b84f87b6	0.948784217817084
170	0x3fde218dff133260	0.4707980147329973
171	0xbfe975660a9ca3a8	-0.795580883718789
172	0xbfefcfefdd980b69	-0.9941329315191584
173	0xbfe4206400709ed2	-0.6289539345352415
174	0x3fe447766a299c25	0.6337234567153059
175	0xbfcbf73c429cf570	-0.2184825253733993
176	0x3ffe661419aab0af	1.8999215128524545
177	0xbfb3390b9b05a089	-0.0750891927215226
178	0xbfbfeaf4ed084b92	-0.12467890536235718
179	0x3fe5e33c79efe078	0.6839887982923889
180	0xbfeb66ae830cbe2a	-0.8562843856397582
181	0x3fe64a807e3c430c	0.6965944734130018
182	0x3fe6fb5d30a866bf	0.7181840849254612
183	0xbff06719df29b3ff	-1.0251711575795068
184	0xbff80bf1c6c5f6c2	-1.5029161228734869
185	0x3ff11bc9d1f95fac	1.0692842676271352
186	0xbfc7a238e6b93bf1	-0.18463813081549987
187	0x3fda6a5defa4dbcf	0.41274212267620397
188	0xbfb19110508578d0	-0.0686197468362224
189	0xbffccf682541dfe3	-1.8006364302982483
190	0xbfd8e9667fea3893	-0.38924562923137634
191	0x3fbfcef6d6e5faa8	0.12425177332441228
192	0xbff0d7caafc8537d	-1.052683531427845
193	0x3fdd7374f0578391	0.4601719233597175
194	0x3fe4252ea01991b3	0.6295388342810412
195	0x3fe8aaff5c17a019	0.7708737181355928
196	0x3fd154814fd9fa22	0.2707827834891835
197	0xbfd674f197f6efab	-0.3508876785306209
198	0x3fc69361ab180bca	0.17637272695728107
199	0x3fe1203d098bc988	0.5351853548475427
200	0xbfd863dec6335e31	-0.3810955939820558
201	0xbfe7359a2ed90e1e	-0.7252932467458242
202	0xbffa1f43ca7a4939	-1.6326330098423354
203	0x3fd6cfa411245e69	0.3564233939555153
204	0x3fd5a5445791f42d	0.33821209480066977
205	0xbfcc7966df19d22c	-0.22245489019009435
206	0x3fe7cd16ed89feb2	0.7437853469309259
207	0xbfc5b3d9b8ab2ee6	-0.1695511008932648
208	0xbfeeb2d6b539b0d7	-0.9593308963353832
209	0xbfe4e92dac1275c8	-0.6534641609938996
210	0xbfe073186cd3f68e	-0.5140497327372076
211	0x3fe92d1998280544	0.7867553684047057
212	0xbfe45c7f86d2d046	-0.6362912781974124
213	0xbfefbe91ca65e886	-0.99201287775874
214	0xbfbf8cab9f0e9aef	-0.1232402098963623
215	0xbfddd3de122fee68	-0.46605636383148985
216	0xbfd36f17b3effb3f	-0.30365555355085755
217	0x3fdca04154d0e0c3	0.4472812011986315
218	0xbfe1d2be58e71bac	-0.5569755302793644
219	0x3fc78d5835aac507	0.18400099392378186
220	0x3fd81aa8307a4800	0.37662701353212924
221	0x3fb0914d5b1a6221	0.06471713518329426
222	0x3ff09b2168eeec8f	1.037873659034435
223	0x3fdcf01cdabd0669	0.4521553169362052
224	0x3fc871403e5a98e0	0.19095614475845135
225	0xbfb210b96e444df8	-0.07056769315777689
226	0x3ff0cbeb8b67ad5f	1.0497851796634092
227	0xbfc63b5676884ea2	-0.17368584430424955
228	0x3fb14d6640b92126	0.06758727150111507
229	0xbfd14fec70203464	-0.27050314855370616
230	0xbff05f95dc00f8b6	-1.0233362764261478
231	0x3fedb7dd095a6370	0.9286942656209316
232	0xbfd35112a8dd04d0	-0.30182329645692807
233	0xbfd7e4897daf8ca3	-0.3733237960243036
234	0xbff1225bc85defb2	-1.0708883120378059
235	0xbfbc2490ce8787f2	-0.10993294756147501
236	0x3f479891da9b7ad8	0.0007200920274178192
237	0x3fe9b5dd8ba798e9	0.8034503677015695
238	0x3fdcdded2b16a173	0.45104531486369764
239	0xbfcd99bb9f11a47e	-0.23125405566250729
240	0xbfd18c722e0a5896	-0.2741971444714947
241	0xbfe8f7410d1c3d25	-0.7801823860226348
242	0x3fc6f6e3999e7794	0.17940945626190496
243	0x3fb76c166828da79	0.09149303477247796
244	0xbffb4051b4909eb8	-1.7032029202763805
245	0x3fd4a7a7c4a6976b	0.32273287014174085
246	0x3fb49eacd2e374b5	0.08054618977208146
247	0x3fc268a3d37eaf77	0.14381835772416782
248	0x3fc410cdbe9a234b	0.15676280791037764
249	0x3fd8e86c27321bdf	0.3891859419604184
250	0xbfd3120c9182433d	-0.2979766293511153
251	0x3fd0a103c8b0252a	0.25982756231731463
252	0x3febeff5254cf486	0.8730416992690528
253	0xbfcbc0df74be29c5	-0.21682351303418393
254	0x3fd9bb0e25e1e520	0.402041947359594
255	0xbfe62491177f9a62	-0.6919637164072123
