data/processed/deep_mlp_b2.npy (npy, 2176 bytes, 1 tensors)

array f8 [1, 256]
000000 64 53 5a 27 db f0 2c bf 71 45 15 9d 1d c3 64 3f
       -0.0002208011170991244 0.002534444655488848
000010 af ea 69 b4 14 e2 1d bf 70 a9 f4 4c 34 49 e6 be
       -0.00011399508830748738 -1.0626771113371388e-05
000020 73 a6 5a 94 0d 90 39 bf 3b f8 17 cf 5f 33 55 bf
       -0.0003900559571357938 -0.0012939868578310104
000030 6e 7b fa c5 c5 df 67 bf 7d c7 b7 a8 96 6d 66 3f
       -0.002914320255356476 0.002737802749600725
000040 a1 0e 1b 3d 92 24 d0 3e 68 76 f5 5a c3 13 35 bf
       3.8487568915811035e-06 -0.00032161254326532615
000050 99 f7 51 c5 33 61 38 bf a6 b6 84 b8 62 27 33 3f
       -0.0003720046418677014 0.0002922645585553364
000060 c0 5a 2b b3 21 99 6a 3f 01 44 a5 01 a8 2d 2a 3f
       0.0032468469811236245 0.00019972492084233132
000070 0c 76 8e b3 e9 5f 64 3f 9d d8 2f 7e 1a c2 47 3f
       0.002487141082794469 0.0007250432357739537
000080 66 b4 54 21 1f 86 4b bf ae d7 15 c8 ab 53 31 3f
       -0.0008399631503032245 0.00026438659559546273
000090 29 fb b1 11 e0 6b 55 3f 7f 28 14 94 a4 9e 5e bf
       0.0013074577498454842 -0.0018688780986076123
0000a0 8a 2d d0 c9 e6 99 4c bf b7 cc 10 a7 7d 5f 40 bf
       -0.0008728386779934133 -0.0004996646440588369
0000b0 65 ef 04 45 55 09 0b 3f 17 72 b2 15 f3 3c 41 3f
       5.156794998348208e-05 0.0005260645806575728
0000c0 8b 3b d9 ee 12 d7 63 3f 3f 85 5f 10 1c ab 14 3f
       0.0024218911919783918 7.884367741397157e-05
0000d0 f6 4e 5b 60 d8 89 21 bf 2a 03 7c 39 31 32 3f 3f
       -0.00013380781472582093 0.000476014154159587
0000e0 8a 9f 6b fa 87 eb 4a 3f 4d 2f 93 84 53 55 47 bf
       0.0008215345340802799 -0.0007120759775260749
0000f0 ca ea 66 cc e6 57 48 3f 4a a6 bc 23 b3 ec 00 3f
       0.0007429005570921074 3.2281128794342336e-05
000100 d9 1a 41 c4 64 75 58 bf 00 00 00 00 00 00 00 00
       -0.0014928325699813865 0.0
000110 6f 65 09 4c f9 cf 43 bf 53 71 e6 9b 03 11 65 bf
       -0.0006046263952825102 -0.0025715895164479057
000120 15 e1 1b b3 47 9d 58 3f 57 12 bd a8 87 ac 31 bf
       0.0015023422424161371 -0.00026968299856758776
000130 1b 2c b2 cb a8 fc 3a bf f5 2a 90 5a 17 fc 62 bf
       -0.00041178818691695187 -0.0023174720886393004
000140 5e 14 a1 59 8e 93 3b 3f cb 8c 5e c7 0e 18 4e bf
       0.0004207823309381793 -0.0009183952486079503
000150 6e f3 bd 8c 10 32 4f 3f cd 95 39 a2 3e bd 68 3f
       0.0009520130929413348 0.003019926387241445
000160 2d 89 e2 37 15 78 65 bf be 9e 8a 0e 43 08 68 bf
       -0.0026207365436487135 -0.00293362710029385
000170 aa 5b 82 ed 79 f4 41 3f 7f 29 1b bc 88 56 50 3f
       0.0005479426718178932 0.0009971938419988944
000180 3f d9 d1 f5 88 bd 53 3f b5 e0 9a a2 40 ec 3a 3f
       0.001204856634357279 0.00041081026084156407
000190 d4 e6 cb e9 21 82 54 3f ef af d4 d5 db 77 49 3f
       0.0012517291244748445 0.0007772277273594401
0001a0 79 fa a5 b9 41 0c 40 bf 00 00 00 00 00 00 00 00
       -0.0004897423671506716 0.0
0001b0 9c f6 d3 d1 ec 2b 5b 3f 53 fa cb c3 a9 81 32 bf
       0.001658421773128727 -0.00028238672875594456
0001c0 49 65 cf a4 e1 41 4a 3f 81 0b 04 df 01 67 4f 3f
       0.0008013107086483419 0.0009583243500233958
0001d0 d8 d9 8d 91 63 48 2f bf 86 40 bd 04 08 d5 60 bf
       -0.00023866858898786872 -0.0020547062503411566
0001e0 15 0b 00 1f 44 2e 16 3f 55 34 be bb fa 40 70 bf
       8.46127584282315e-05 -0.003968219210844633
0001f0 e2 44 fa 48 c3 1b 46 3f 36 91 a7 09 13 2a 1c 3f
       0.0006746963062644019 0.00010743848034839163
000200 09 3d 67 c3 a8 c9 3d bf 24 95 8d 83 35 ee 41 3f
       -0.00045452470967873075 0.0005471955583799299
000210 4c 40 fd 81 0f f8 5e 3f b0 fe 70 60 3f df 3e bf
       0.0018901969378539883 -0.0004710702637033921
000220 75 9c 60 ed 7c a1 1f bf c5 43 67 d8 36 eb 29 bf
       -0.00012066197390990677 -0.00019774479387859984
000230 bd 29 45 79 ea 84 4b 3f 60 84 36 3f 73 dd 46 bf
       0.0008398194209260839 -0.0006977856377724627
000240 4f 17 93 d1 e3 4d 79 bf 28 8c b7 2f f5 46 67 bf
       -0.006177797237972473 -0.0028414524838225215
000250 4a bf 54 a5 bf 77 5b 3f f3 2e ad 01 f2 ad 52 bf
       0.0016764995137456711 -0.0011401046128466901
000260 45 7f 9e 72 41 64 43 3f bb f2 ae e6 48 a5 27 3f
       0.0005917853898047351 0.00018040194421855234
000270 10 91 53 42 3a 84 42 bf 68 25 a3 27 86 82 34 bf
       -0.0005650791614724444 -0.0003129556204269552
000280 4b fa 0b 0b f3 0a 51 bf 13 ef 35 c7 d7 6b 4a 3f
       -0.0010402081936146275 0.0008063129047708194
000290 68 ec 83 7f b5 1b 59 bf 85 3f 7e ee 87 9d 4c 3f
       -0.0015324852411698012 0.0008732713440497841
0002a0 30 88 43 ff a3 e5 04 bf 49 70 43 07 c4 2b 5b 3f
       -3.985792855744385e-05 0.0016583837833002038
0002b0 6e 8e 87 16 69 62 41 bf b7 f5 f9 6a 7f 04 63 3f
       -0.0005305302739170967 0.0023214806204225574
0002c0 0b 75 f4 3f 80 83 34 3f bf d5 bd 1c cb 0a 4a 3f
       0.0003130138502046165 0.000794743705667393
0002d0 70 cc c4 9b 69 f9 6b 3f 61 88 c4 9a 5b cf 47 3f
       0.0034148276010000297 0.0007266232765099739
0002e0 63 10 78 94 cc 6c 53 bf 94 48 16 83 d9 2b 44 bf
       -0.001185607705225266 -0.0006155788488959751
0002f0 45 05 dd 88 0d a8 2f bf a5 7e 37 d2 b3 2b 58 3f
       -0.0002415195962673177 0.0014752632204064
000300 9c 31 0f e3 fa 8a 59 3f 90 fa 7e 50 00 9d 0b 3f
       0.0015590143268467754 5.2668163390991456e-05
000310 b3 c8 b0 69 38 83 40 3f c0 2d 36 26 a4 33 40 bf
       0.0005039239362132547 -0.0004944373617247685
000320 8d 79 56 68 6e 14 39 3f 72 ba 02 16 2c 1c 3a 3f
       0.00038268752572347895 0.000398407710245608
000330 dd 7b d1 96 b5 fc 44 3f a4 53 0c ee 5e 13 43 3f
       0.0006404768624966823 0.0005821431660445364
000340 ba 34 6a 9a d2 71 63 bf b4 47 5f bf 38 dc 36 3f
       -0.0023736108153743192 0.0003488195937936215
000350 27 28 75 16 ec e1 2c 3f 84 d9 e4 d2 93 c5 47 bf
       0.00022035605364073668 -0.0007254573627395876
000360 a6 0b c2 2f 30 6e 50 bf 00 00 00 00 00 00 00 00
       -0.0010028334209273098 0.0
000370 8d f4 46 d8 49 89 26 3f ef d8 aa ec eb 7e cd be
       0.0001719381945245773 -3.516171863306089e-06
000380 0d eb 52 00 51 fc 22 3f 8f 90 0a 87 be 30 3b 3f
       0.00014484871659255945 0.000414892688278331
000390 d0 86 0f 65 16 35 3d 3f 64 93 ad 2e 78 17 46 3f
       0.00044566914317388257 0.0006741844966709873
0003a0 0d 5b 19 1b 2e 71 62 bf ec 9c 0d 10 06 7d 55 3f
       -0.0022512341027253247 0.001311546249974256
0003b0 ad c6 a7 42 2b 6a 42 3f e1 0c 4f f9 a0 77 56 3f
       0.0005619727356231584 0.0013712951670051198
0003c0 00 00 00 00 00 00 00 00 14 cf 24 f8 f4 71 33 3f
       0.0 0.0002967093534096282
0003d0 a5 1a 74 e8 c8 10 33 3f b9 c3 96 79 9b f8 58 3f
       0.0002909174440478924 0.0015241163549541816
0003e0 4f 0d 03 db a5 32 45 bf d7 6d c2 ce 5c 4b 3a bf
       -0.0006469068375953099 -0.0004012204724490298
0003f0 28 a2 f1 b0 3f 32 55 bf c1 28 25 6c 59 71 35 3f
       -0.0012937185272453664 0.0003271907154568481
000400 f7 14 94 64 57 91 5c bf e5 5a 0b b0 0a 82 40 bf
       -0.001743636459935969 -0.0005037834344772922
000410 e5 a0 cd 8b d3 59 43 bf 94 2e 7d 91 7b 9b 2f bf
       -0.0005905421199772469 -0.00024114497568416117
000420 a7 1d 50 6c 82 2b 37 bf 0e 36 90 b5 d8 e7 54 3f
       -0.0003535455146565732 0.0012759796429721057
000430 8d b0 d6 3e 1a 0e 61 3f ad 34 4b bb 05 49 42 bf
       0.0020819199186999427 -0.0005580213533790311
000440 fc a7 1b e3 02 96 00 3f ab f6 61 27 30 9c 62 3f
       3.1635249241393466e-05 0.002271741915193489
000450 30 8f 24 42 1c c7 50 bf e3 2e 36 1a 03 22 22 bf
       -0.0010240341148994407 -0.00013834274168932686
000460 d8 fd 5b f0 76 a3 1e bf 3d 22 fe 88 ee fa 50 bf
       -0.000116876730398722 -0.0010363892979247246
000470 4d 2d cb 7a 42 9e 53 bf 01 d2 59 79 a2 ea 5a 3f
       -0.0011974000182587042 0.0016428553257387126
000480 e2 3a a5 d4 72 32 57 bf 00 00 00 00 00 00 00 00
       -0.001415836467078151 0.0
000490 b5 ee 1b 59 15 a3 2b 3f fe 98 ff 65 08 08 59 3f
       0.00021085391613683493 0.0015277940765315297
0004a0 b5 04 23 fd 16 c8 48 3f 64 85 98 33 fd 30 54 bf
       0.0007562744379116167 -0.0012323830291126265
0004b0 01 3d 28 81 63 2c 5a 3f 1c 0e 90 2d 46 52 33 bf
       0.0015974971507864424 -0.00029482091264318596
0004c0 15 f6 52 ca cf 0f 73 bf 34 e9 32 a4 65 f0 72 bf
       -0.004653751069040553 -0.0046237917296656945
0004d0 fa 83 f6 5c 7b e7 20 bf 00 00 00 00 00 00 00 00
       -0.00012896901033079817 0.0
0004e0 9c 40 53 31 b2 85 60 bf 00 ae 68 e3 6b ab 69 3f
       -0.002016876251765677 0.003133497924201256
0004f0 63 8d 56 cc 6b 8b 3e bf 53 b4 fb 3e 33 b7 47 bf
       -0.00046607381622206493 -0.000723743460154256
000500 4c 77 7f f3 c1 92 57 bf e6 1d be b0 7b 2e 5f 3f
       -0.0014387983373959799 0.0019031722940513417
000510 7c 06 78 48 7d fd 51 3f 86 ae 19 1a 9d fa 67 bf
       0.0010980342357246589 -0.002927119102244027
000520 3f c3 5e c7 97 4b 36 3f 4f 4a 83 5e cf fc 20 3f
       0.00034019904648645635 0.00012960463869278674
000530 4b 8e 7c c2 e0 1e 48 3f f3 75 c5 2d 87 1c 58 3f
       0.0007361028155838471 0.001471645365277549
000540 d3 57 0e 10 01 8f 53 3f a8 b8 6f 19 ed eb 4e bf
       0.0011937628152955862 -0.0009436519347880883
000550 c6 6b e7 88 fd f5 58 bf b9 fd 19 95 f5 c3 3d 3f
       -0.0015234924245450684 0.0004541849676584459
000560 f7 6a 79 46 f8 76 36 3f 55 bc 65 c1 2c e2 61 bf
       0.00034278451355411417 -0.0021830438737917937
000570 ea 41 3e 4d 2a c1 3a 3f e8 1e 4b d9 66 cf 73 3f
       0.0004082420612059589 0.00483646560014226
000580 e7 5b 3b 63 16 75 58 3f 57 a5 39 90 b7 2d 66 3f
       0.0014927595738549683 0.00270734646055774
000590 8a 5f 84 ac 3e 7c 30 3f 2c 84 cf d4 d6 0d 4a bf
       0.00025154619335542776 -0.0007951067906298895
0005a0 ba d5 17 e8 96 cd 44 bf c0 1f ad d9 7f 9d 59 3f
       -0.0006348597382259049 0.001563429693037563
0005b0 19 c9 da 7e 03 df 44 3f 52 96 68 80 c9 3a 47 3f
       0.0006369368618009157 0.0007089122671614745
0005c0 7b 2f d3 ca 2e 19 42 3f 50 cb 7d f5 8f dc 00 3f
       0.0005523184278444082 3.216089561321764e-05
0005d0 b6 22 86 a1 e9 fd 3c 3f ed df 25 3f b8 9b 32 bf
       0.0004423804653233375 -0.00028393982133634207
0005e0 a7 b3 de fa 77 79 20 bf 58 1e 03 41 3f 52 2c 3f
       -0.00012569036101464407 0.00021607420104018354
0005f0 a2 1f 8c f0 e0 e3 61 3f f9 94 02 1d b0 2a 5e 3f
       0.0021838563301379158 0.0018412322861334747
000600 e5 2f 9a 44 04 fa 41 bf 76 ec bb a9 b2 cb 45 3f
       -0.0005486031379446891 0.0006651518228574366
000610 5e 6e c8 99 89 19 39 bf 3b d2 f4 aa f9 b4 52 bf
       -0.0003829918803448291 -0.0011417806779948764
000620 65 1a 46 e1 a8 05 4b bf 0f 4a 25 9c 26 c6 5f bf
       -0.0008246492966897499 -0.0019393326807245514
000630 7e 94 1e ae ad 90 53 bf aa b7 c7 85 f9 29 52 3f
       -0.0011941619963889145 0.0011086403602535802
000640 53 cf 60 57 db e0 4b 3f 61 38 f5 d7 69 d4 4d bf
       0.0008507796289962489 -0.0009103314222700492
000650 34 25 68 5c 53 34 68 3f a6 e4 5b 6e 73 2a 69 3f
       0.0029546383041220373 0.003071999980303791
000660 ec 91 76 e3 cf 97 62 3f 7e a7 b1 c3 d3 24 4a bf
       0.0022696552584469034 -0.0007978471761706932
000670 91 ee 01 f6 7f ba 47 bf 28 6f 5f 16 39 91 54 3f
       -0.0007241368112000536 0.001255326985748215
000680 f8 ae cd 15 82 ab 45 3f 00 00 00 00 00 00 00 00
       0.00066131450476578 0.0
000690 fd 2a 3d fe 49 1c 32 3f bd da 60 c2 46 18 6a 3f
       0.00027634436104466404 0.0031854040162458673
0006a0 26 cb ff 91 24 91 43 3f 5a ad d1 a6 21 81 4b bf
       0.0005971363607371924 -0.0008393682779916187
0006b0 00 00 00 00 00 00 00 00 ac aa 3e 7d 98 cc 50 bf
       0.0 -0.0010253419068059584
0006c0 95 11 19 13 d7 68 6a bf b3 df df f1 e7 4c 40 3f
       -0.003223819797115899 0.0004974491637303929
0006d0 02 68 1b f5 93 df 33 3f a6 86 16 26 2c 54 42 bf
       0.00030324327700059783 -0.0005593505449505611
0006e0 78 a6 ad 7d f2 ad 2f 3f 20 fe 05 5b 39 79 62 bf
       0.0002416952619015871 -0.0022550697541985493
0006f0 3e 4d c0 07 e3 46 61 3f b7 48 35 d3 85 08 4b 3f
       0.0021089967904203413 0.0008249906008279882
000700 68 bb b2 9a 2d 20 23 3f 31 b0 c8 34 5f 9c 43 bf
       0.0001459174794482224 -0.0005984749673806409
000710 4c 7b c6 78 16 26 4e bf bd 20 31 3d 34 0e 48 3f
       -0.0009200677609902757 0.0007341151307480792
000720 38 75 8a 4c ab 3c 58 3f 31 f9 77 d6 ec 56 20 3f
       0.0014793083993603472 0.00012466088377034162
000730 19 44 de 92 47 a0 26 bf 28 50 60 21 ea 3c 76 3f
       -0.00017262338354531793 0.005429186412602184
000740 0e cc af db 69 a8 63 bf 2c e9 6f 60 6a 3a 50 bf
       -0.0023996417562499655 -0.0009904898486171139
000750 b2 ea 19 4b d7 6b 3e 3f 60 21 ec 50 64 29 48 3f
       0.0004641914957585299 0.0007373561691972723
000760 2e fb 44 3f 49 68 0e bf df fe b2 56 44 be 32 3f
       -5.799745113898299e-05 0.0002859989969685571
000770 ff 0b 66 db 83 b3 60 bf 5e 99 0a 75 76 a5 21 bf
       -0.0020387244541679723 -0.00013463088045746313
000780 5b 80 11 d3 26 f0 50 bf 3e cf 78 0c 25 71 44 3f
       -0.0010338191171044484 0.0006238394643731449
000790 fd fa ef 5b 5d b0 47 bf 0a 51 f7 c5 45 1b 57 3f
       -0.0007229286055688563 0.0014103108768397953
0007a0 c0 89 12 79 f3 92 31 3f c9 ec e6 e4 7f d1 1f 3f
       0.00026815838016083435 0.00012137740234312572
0007b0 73 3e be ec 7f 4b 1d bf ba 9a d7 f2 4e de 2a 3f
       -0.00011175125399475755 0.00020498956420952013
0007c0 21 36 10 e6 44 22 3c 3f c0 e6 17 04 6f bc 54 3f
       0.00042928869339750776 0.0012656292095684502
0007d0 86 91 9f ec bc 24 66 bf d9 74 20 aa a0 c6 6a 3f
       -0.002703064911644573 0.0032685411433833575
0007e0 5b 09 24 3e 0b ff d7 be a0 68 d8 7f 6a f3 5b bf
       -5.721155476703185e-06 -0.00170598411876325
0007f0 f4 53 d2 d5 6a 48 47 bf cc 6d dc 21 57 c3 ef 3e
       -0.0007105371147583237 1.514580167909828e-05
