data/processed/deep_mlp_b1.npy (npy, 2176 bytes, 1 tensors)

array f8 [1, 256]
0	0x3f54eb447cbaf27d	0.001276795274789993
1	0xbf67d8a7a4ebfafe	-0.0029109262753758127
2	0xbf6e4bc23b3e4a93	-0.00369823394607611
3	0x3f4c008c24333a1a	0.000854557445927831
4	0xbf7505155c8c2e3c	-0.005131801074422845
5	0x3f40ca76e4ae32dc	0.0005124168904885001
6	0x3f65e3d686c0eb63	0.0026721181839354665
7	0x3f59ef5b617c01a4	0.0015829460516557448
8	0x3f6f805c1cf05752	0.003845386417661447
9	0x3f726e6925e6e910	0.004499827131832626
10	0xbf52afc677203509	-0.0011405408990897167
11	0xbf5edb07f3c1be88	-0.0018832757623633862
12	0x3f65c06a937ead8a	0.00265522781042699
13	0x3f60b5f679ee2e14	0.0020398916235018303
14	0x3f7090fdad4628b0	0.004044524121477419
15	0xbf34e58bcb4d8b93	-0.00031885779326595274
16	0x3f47a9c8876d3a98	0.0007221440454062309
17	0x3f3a344c47d0bfbf	0.0003998457175979873
18	0xbf11612ad67bfa8b	-6.629775964126832e-05
19	0xbf5fde011551e73c	-0.0019450197771945918
20	0x3f6601bddb385258	0.002686377347126883
21	0xbf00d89e051f656c	-3.2131502521524604e-05
22	0xbf30864c18e60c1b	-0.000252145365173985
23	0x3f72b354d4efe033	0.004565554975663177
24	0x3f5e006f28f88c3b	0.001831158213357011
25	0x3f6548a338604b0f	0.0025981128592403933
26	0xbf0400e20249df77	-3.815355038211306e-05
27	0xbf7be3b6d7614e83	-0.006808962081851558
28	0xbf5159caa95c1a9f	-0.0010590056530774062
29	0xbf4c1aea5f7ac0e6	-0.0008577007674457598
30	0xbf4943ff2a8c583b	-0.0007710452965479295
31	0xbf6f3e8f49f14437	-0.003814010487567045
32	0x3f48b83b62c1f711	0.0007543840379324614
33	0x3f1da0318167bc98	0.00011301328809286621
34	0x3f602924b58ad353	0.001972743699605686
35	0x3f74ce27acc0f171	0.005079417209398294
36	0xbf4a2d36c35d8b58	-0.0007988469503569058
37	0xbf55bdc542e5cad9	-0.0013269831066195419
38	0x3f62ce0054a864f2	0.0022954946955563377
39	0xbf44d3100f2f7d7d	-0.0006355122007980909
40	0xbf701bbc3868af2f	-0.0039327003819769465
41	0xbf4ea04c1db108b0	-0.0009346362743445549
42	0x3f67c458dbedb782	0.002901242783471981
43	0xbf442c12b99019c9	-0.0006156054906803428
44	0x3f676576b42d5c41	0.0028559988435677146
45	0xbf5f24f7887cdf88	-0.0019009034458132585
46	0x3f76f0aa2e8e49b1	0.005600609562764467
47	0xbf4d1e41427d1bfc	-0.0008886164332374542
48	0xbf4db4cba582d600	-0.0009065622680483609
49	0x3f48cd0f3913ebd4	0.0007568668681011644
50	0xbf71748a6b391069	-0.004261532496062961
51	0xbf6398bf65afb27a	-0.002392171690635711
52	0xbf5843739b419486	-0.0014809254617145508
53	0x3f61941c53b9a179	0.0021458199751586663
54	0xbf1ec168d78246da	-0.00011732294467694683
55	0xbf4c792cdf9a2932	-0.0008689374073623023
56	0x3f5f7461547bbc3a	0.0019198370445641226
57	0xbf25b613fdf33308	-0.00016564363520501385
58	0xbf69074715a221e7	-0.003055228077816208
59	0xbf7192c88cf4097e	-0.004290374184395039
60	0x3f60785ff3d1c95f	0.002010524184293746
61	0xbf5ab14f0664b4ac	-0.0016291877487433588
62	0x3f76f2148f689986	0.005601959527245964
63	0x3f6d187854ad6d1c	0.0035517072878242916
64	0x3f602377c8ae902e	0.0019700374154627753
65	0xbf7014e8c6e96d96	-0.003926190648225433
66	0x3f690d2e352c6acf	0.003058042764121672
67	0x3f7b10b6f51d65c6	0.006607737233787108
68	0x3f44d04ccf9f4017	0.0006351828626467462
69	0xbf46b4941f88af14	-0.0006929133660995312
70	0x3f5731976a149104	0.0014156321197527641
71	0xbf4866f540cc9290	-0.000744695427418467
72	0xbf6e02cb95ca64c9	-0.0036634422561517594
73	0xbf7344446854008b	-0.004703776566430072
74	0x3f6934cd30e806ec	0.0030769355428227254
75	0xbf7b3b61dbd96a52	-0.006648428212054984
76	0x3f4817dc345b60e6	0.000735266229379608
77	0xbf72f798ec35e782	-0.00463065848759381
78	0x3f70dd24f71ac910	0.004117149730222161
79	0x3f72589f0c3edb8a	0.004479047089197228
80	0x3f715936d297cd65	0.004235471869367434
81	0x3f6485c5fd1693ce	0.0025051943745943777
82	0x3f654188aa32b582	0.00259472553587753
83	0xbf7f452830a1a058	-0.007634312622123295
84	0xbf5ea1bc7fba0a16	-0.0018696156320464666
85	0x3f5100729bfcf6d0	0.0010377043945050575
86	0x3f3285dc3ca2fdba	0.0002826368987704737
87	0xbf7911fece54b5c9	-0.006120677314624464
88	0x3f6afe956a496799	0.0032952230706486227
89	0x3f6daf8c0ff86012	0.0036237464517050533
90	0xbf662f3d84214483	-0.0027080728041615778
91	0x3f57475a272bd6b7	0.0014208202744020856
92	0x3f40f629bf879a54	0.000517626175732764
93	0x3f7cbab74ae8bebf	0.007014003741047935
94	0xbf7719faabde8b0d	-0.00564001005651239
95	0xbf3109de1d0b2972	-0.00025998757068337105
96	0xbf4f1c35ba9a534f	-0.0009494078014592263
97	0x3f551a03296a35e9	0.0012879401089408388
98	0x3f44a761f99192b2	0.0006303051369625694
99	0xbf6118f449184f07	-0.002087094421549088
100	0x3f5d28f8512cfbab	0.0017797875377280985
101	0xbf58200adba185ba	-0.0014724832567697258
102	0xbf787222b9ed26ce	-0.005968223237525284
103	0xbf6224c90c23275f	-0.00221480624268093
104	0xbf6827f8f78f4bea	-0.0029487478864011945
105	0x3f70e3cbde85ca18	0.004123493541885036
106	0xbf253418b5320639	-0.00016176988228626553
107	0x3f7351cef231fc95	0.004716690428835287
108	0x3f276e9de57ecd1a	0.0001787727112493108
109	0x3f5fad83c338afdd	0.0019334589714032826
110	0xbf54bb55454b2c56	-0.0012653668137996474
111	0x3f7b2cbd4124618b	0.006634463572730796
112	0xbf77d5d238ec78dc	-0.005819150143706344
113	0x3f541f685ded9951	0.0012281913002084208
114	0x3f65f300f039c347	0.0026793497398149044
115	0xbf78ee6f2f1a0bc7	-0.0060867636799483765
116	0x3f510e61818dc1c1	0.0010410263259609117
117	0xbf6fcaa219ffd5ae	-0.003880802731141406
118	0xbf2c0da6d6801dc1	-0.00021402989955297653
119	0x3f6448182024a38b	0.0024757834627461887
120	0xbf82f15a72211f8d	-0.009249407394363885
121	0x3f45e11d1bacf9ff	0.0006677047852930439
122	0xbf8600b729049d27	-0.010743552150030823
123	0xbf339b10f96eea69	-0.00029915966427621635
124	0x3f706b531a5c95a6	0.00400860273456286
125	0x3f3c68dfde877ec9	0.0004334971004293751
126	0xbf725c3d5d3dffd0	-0.004482497886669948
127	0xbf6016db9e6ac889	-0.0019640244894044184
128	0xbf4319f219594d8a	-0.0005829269527545683
129	0x3f5bc02b7ff861fc	0.0016937660983612482
130	0x3f5b91619f723068	0.0016826108310708191
131	0xbf4a9a8eb5872dfd	-0.0008118817159412092
132	0xbf654a3bcd7a8be8	-0.002598873903325128
133	0x3f5c1c21195acca7	0.0017156909210996136
134	0xbf5b287b95498b5b	-0.0016576010576947106
135	0xbf7e47998c1f2504	-0.0073925016349190055
136	0xbef17b90482aaca2	-1.6672773663611717e-05
137	0x3f55d91b1ef57107	0.0013335003712518516
138	0x3f78ae4dfa6a3493	0.006025604822423552
139	0xbf641d6fdf990277	-0.0024554429080867984
140	0xbf6bc1f643af1629	-0.0033883867122053335
141	0x3f53d873d370b3e0	0.0012112742531471474
142	0xbf63147d421f4383	-0.002329105992409487
143	0x3f7449e50922ce9d	0.004953283949521795
144	0x3f74c0bb2be24be5	0.005066615236631632
145	0x3f739695ad19d076	0.004782280609664116
146	0x3f54dd24eabee275	0.0012734280125938056
147	0x3f12d1f95cec1336	7.179340830638651e-05
148	0x3f5dcd8becd41a65	0.0018190256553808567
149	0x3f4b0606b1cf42c9	0.0008246929825138301
150	0xbf53ed6eab9f1962	-0.001216276241835589
151	0x3f662107d48ce964	0.002701297086244713
152	0xbf5227f4ee0bb205	-0.0011081592457983247
153	0xbf50f484e790cac5	-0.001034860410311354
154	0x3f46e6825988c164	0.0006988655541757924
155	0x3f659e2c7c636039	0.002638899694925836
156	0xbf569e761b6ea682	-0.0013805535688597164
157	0xbf72ea7d9499ae20	-0.004618158863745531
158	0xbf72d49dbb63b4c8	-0.004597297802530771
159	0x3f5b811eeb65a12c	0.0016787340115006029
160	0x3f5c86a1e4733284	0.001741083238630343
161	0xbf6211b2cb16fdf4	-0.002205704885198884
162	0xbf73b85d7df014cb	-0.004814496233852948
163	0xbf51b9a669b71331	-0.0010818600775206017
164	0xbf81885db9c63fff	-0.008560878974805062
165	0xbf59fee26c452536	-0.0015866480981279857
166	0xbf66a6289327591f	-0.0027647774197517984
167	0x3f7491e13fa1841d	0.005021934392147845
168	0xbf81dfd064e76591	-0.008727672652571157
169	0x3f73d5e4acd80492	0.004842656385791193
170	0xbf4be8fc81112958	-0.0008517487459667556
171	0xbeecd19a2bb25c41	-1.3741855005284838e-05
172	0x3f53cf1222556c8a	0.0012090375033355937
173	0x3f484d135c0cd2df	0.0007416100052980121
174	0xbf5340ffb2af474a	-0.0011751648951201115
175	0x3f86673bbc56e753	0.010939089474834829
176	0x3f78564bab33d62b	0.005941672879307395
177	0x3f6331e813a55468	0.0023431332348687224
178	0xbf709d1f5698e5da	-0.00405609361183098
179	0xbf53e737ed628564	-0.0012147947468651105
180	0xbf342697a16e38fe	-0.000307476061998893
181	0xbf758db3fcad9705	-0.005262091707526788
182	0x3f53ea2658d00431	0.0012154936296158265
183	0xbf851f8928ae8c59	-0.010314055971156021
184	0x3f52fec9e96185c5	0.0011593791764642352
185	0x3f6050e60fa4a259	0.001991700494859122
186	0xbf506ce6a9f6a2cd	-0.0010025265290584562
187	0xbf52df466fa8fa74	-0.0011518657544368456
188	0xbf60d209f4a3880f	-0.0020532793470105014
189	0x3f652999929bad63	0.002583312937408587
190	0xbf60bb94d653aa3d	-0.002042570779498902
191	0x3f4489c97017a3dc	0.0006267770369819919
192	0x3f8074f10d8f1981	0.008035548425948448
193	0xbf548cafb827b1b3	-0.0012542453774769646
194	0xbf3cb4392aad4eb3	-0.0004379882399707477
195	0x3f392b02e3d02ef4	0.00038403339914404246
196	0xbf4012d7971969bf	-0.0004905274092366559
197	0x3f556928941fbcfb	0.0013068100238305392
198	0xbf816f82160b1d64	-0.008513466165267665
199	0x3f5c0cc45a992351	0.0017120282667681572
200	0xbf80babffc50db22	-0.008168697249954674
201	0x3f6c1de2e73c87cc	0.0034322196678582047
202	0x3f4d82ee7c0d8f08	0.0009006180263040073
203	0x3f5122108c3e40ff	0.001045719299302361
204	0xbf680a312c28d6c8	-0.0029345474624971925
205	0xbf2c4d61628e26a0	-0.00021592916280282082
206	0x3f6f1e52ce3e35e9	0.0037986390397637304
207	0x3f62653ada19d5bb	0.0022455357982902025
208	0x3f40874c7ac02da1	0.0005044101176294066
209	0x3f574ded60090345	0.0014223878971650488
210	0x3f5d632e1b896107	0.001793665911597188
211	0xbf6b4bad9cbdac68	-0.003331984602416283
212	0xbf42f561f37f85b6	-0.0005785682942553358
213	0x3f425b40624c8dbb	0.0005601944327264166
214	0x3f30da1365853e2b	0.00025713895367560313
215	0xbf62722dd22073f4	-0.0022517104089403387
216	0xbf346278b46e5bcd	-0.00031104514021634556
217	0x3f423ddbdc692a04	0.0005566905536594229
218	0x3f2dcc97e7049e16	0.00022734979894177613
219	0xbf617a30b414f98a	-0.0021334601630364535
220	0x3f5c19bd3a1b8a89	0.0017151210708382955
221	0xbf57afb0f1f1ea8c	-0.0014456966380566342
222	0x3f69e8f5d23bfcf8	0.0031628419109207516
223	0x3f77355a9cff1bc3	0.005666116674496405
224	0x3f501691a3eaa686	0.000981943346838683
225	0xbf52113f82137692	-0.0011027450748807605
226	0xbf250a637067c8e0	-0.00016052688461304972
227	0x3f67dd2a6e199637	0.002913077231641716
228	0x3f545f0f05ae4e89	0.00124336688052021
229	0x3f6d1c90df10df63	0.003553660346849273
230	0x3f7372dab70fcce0	0.004748205524254007
231	0xbf60b935d3b9e747	-0.002041440134971237
232	0x3f4ea2ec79db4dbf	0.0009349493663769955
233	0xbf232f994f445d21	-0.0001463770528366904
234	0xbf3a6d3aadb0c82a	-0.00040323908405348835
235	0x3f7595eafd7bcb0a	0.005269926004745748
236	0xbf5dba2171b0c789	-0.001814396534211645
237	0x3f5435c8492f9e5c	0.0012335258404564597
238	0xbf6189b45b69977a	-0.0021408579444139294
239	0x3f478e34a3f0b9dd	0.000718856528583885
240	0xbf73f53ebee03524	-0.004872555828126655
241	0xbf4bcf00d395b00d	-0.0008486513171823709
242	0x3f3d439a7de37453	0.0004465343644264919
243	0x3f6265b800a21202	0.0022457689092922903
244	0xbf6e381ff43aaaf2	-0.003688871774860097
245	0x3f70053df177e8c1	0.003911249128117856
246	0x3f6dbc7d6bb165ee	0.003629918062455265
247	0xbf68914f752267cf	-0.0029989768891711464
248	0xbf636ad7ac55b093	-0.0023702823988767745
249	0xbf683b0035fe1d56	-0.002957821285182109
250	0xbf72d5bcb14fb709	-0.00459836681419091
251	0x3f73aa7e5727197d	0.0048012671636058464
252	0x3f30380bac7f6776	0.0002474812031302212
253	0xbf3ce8b5a096425a	-0.0004411166597373721
254	0x3f765271d2b349f3	0.005449719067842629
255	0x3f56ac8ae57f3111	0.0013839107905254148
