data/processed/deep_mlp_W5.npy (npy, 6272 bytes, 1 tensors)

array f8 [256, 3]
000000 85 f0 14 d5 4a b8 96 3f 98 d3 ce 62 7b 0e 9c 3f
       0.022187394385796217 0.027398994355923273
000010 b0 a1 19 b6 54 af a0 3f 4c 0a a3 80 08 3a c5 3f
       0.03258766863729379 0.16583353310677962
000020 20 62 d4 21 95 57 a0 3f 16 da 1b f9 8a b9 b6 bf
       0.03191820180854088 -0.08876865941770293
000030 3b 59 06 85 f2 a8 a3 bf 56 15 55 ed a9 52 77 bf
       -0.038398340929392615 -0.00569406869664609
000040 83 b8 f6 a9 9c 7d a3 3f 2e de 3c 86 52 3a aa 3f
       0.038067718265083726 0.05122621430058093
000050 4a 08 46 ba 06 4a ab 3f 6c 88 ed 31 af 07 a7 3f
       0.053299150694343725 0.04498050198050482
000060 dc 0a a1 d3 8d 54 ae 3f 6c 62 99 01 b9 72 99 3f
       0.059238845904948184 0.02485169479618536
000070 0f 8e 6d ae b7 61 9c 3f 5b 17 43 bd 98 d8 b7 3f
       0.027716512700307002 0.09314875240951663
000080 3a ca 37 3d 08 0b b6 3f 28 1e 7f 16 e5 50 b2 3f
       0.08610583777025563 0.07154685782654069
000090 2a e4 28 85 22 3f b2 3f 62 53 c1 91 b2 36 b2 3f
       0.07127586127252586 0.07114711817241706
0000a0 92 a7 54 da d6 3d b2 3f 3e a6 83 eb ad a3 a7 3f
       0.07125609236086763 0.04617064952783466
0000b0 f2 66 37 81 63 56 a0 3f fe fc cb 73 ce 1a ad 3f
       0.03190909340237437 0.05684514201674949
0000c0 dc b5 c1 9e 66 70 be 3f f0 1e 37 89 64 66 7c 3f
       0.11890260101218736 0.0069335868060489275
0000d0 aa cf 48 92 15 cf c2 3f dc bc 0d 39 7f e0 b0 bf
       0.1469447101859463 -0.06592555182372756
0000e0 d7 ac b3 cb 45 77 bc bf 9c 28 4a d0 5b fe bc bf
       -0.11119495604696127 -0.11325620494077032
0000f0 3d e9 32 5a 03 a1 b8 bf e5 b6 d9 d1 f1 df 73 bf
       -0.09620686485405812 -0.0048522420962464384
000100 32 62 56 97 7c 94 9b bf 1d bd 6d 48 f1 27 ab bf
       -0.026933619248298686 -0.05303911217822075
000110 74 2c 3d db 79 e7 ae 3f 55 f1 71 21 4a 5a 68 3f
       0.060359771740501694 0.002972740923324372
000120 47 52 f8 70 f9 3e b7 bf 32 a3 6f b1 3a 75 bc bf
       -0.09080466278130316 -0.1111637767022671
000130 d3 51 32 18 e5 ee bb bf 7b ad 7c c7 c7 9f c1 bf
       -0.10911399689422945 -0.13768861046387912
000140 dd 7b ae 6a 26 8a 5f bf f6 9a a4 83 a7 8a b8 bf
       -0.001925027386029169 -0.09586569751682447
000150 1c 3c b2 1f de af b0 bf b9 3e c8 0d 21 f5 a5 bf
       -0.0651835276969312 -0.042885811741255116
000160 44 00 da 69 19 d8 b0 bf d9 bb 4a aa 67 5a 9f bf
       -0.06579741319910776 -0.030618304985804066
000170 c9 c1 a9 6d 2d a9 b2 bf 2d 9a ba 5d 5b 5d aa bf
       -0.07289394309351062 -0.05149350661422534
000180 93 e1 c5 9f fb 28 b0 bf ea f5 05 9e f0 e4 ad bf
       -0.06312534952838282 -0.05838729790682946
000190 cd 9c 9d 4d cd 07 aa bf 11 6e 08 76 1f 2c b0 bf
       -0.050840774273461876 -0.06317326194442098
0001a0 b1 40 f8 70 d0 24 bb bf 67 7c d8 15 d0 15 9b bf
       -0.10603049047517989 -0.02645039685569053
0001b0 b2 85 e8 de 2d 22 a3 3f 86 30 74 ff 39 96 96 3f
       0.03737014146851027 0.022057443825403776
0001c0 93 0a 7a fe 08 e5 a2 3f ea f8 e4 9e 5c d4 72 bf
       0.036903649391225056 -0.004597055244003759
0001d0 66 1d d9 ad f5 1e 82 3f b4 e2 01 fe 63 78 b8 bf
       0.00884811341087639 -0.09558701468803116
0001e0 04 e9 cc 40 28 fa 53 bf 82 dd 0e f3 40 ab 75 3f
       -0.0012193101021709682 0.005290273388644963
0001f0 17 94 1f 13 91 72 6e 3f be 2a b6 b2 8d 53 b4 3f
       0.0037167390337225037 0.07939992535663529
000200 07 0b 65 b1 ed e3 a9 3f f0 63 7d c3 a6 d0 9e 3f
       0.05056708136046067 0.03009281700301253
000210 a8 f8 3c 01 c3 13 92 3f 58 88 b2 ec cb 0f a3 3f
       0.017653510046550608 0.03722989334461663
000220 ec 8d e8 61 39 65 8b bf 0c d0 84 cc 68 af 92 bf
       -0.013376663494518014 -0.01824725864680947
000230 d5 f4 89 8b 40 88 97 bf ad e0 b3 82 77 79 97 bf
       -0.02298069812467392 -0.02292429671521805
000240 44 b4 b7 29 5b 68 96 bf 5b 65 7d 76 7f 8a 85 bf
       -0.021882461949577228 -0.010518070033571794
000250 e3 9f c9 dd 4f 45 93 bf a6 3f 83 aa 2c 60 91 3f
       -0.018819091712799618 0.016968439013737367
000260 7b 75 16 38 7e a2 98 3f a3 be 11 88 a8 54 9f 3f
       0.02405736176807725 0.030596383385669623
000270 f3 8f e2 98 84 18 6b bf 6f f5 17 2c 81 7c 9d bf
       -0.0033075895108414187 -0.02879525977731617
000280 e8 42 79 20 16 57 a3 3f 8e bf 24 c0 ec d6 8b 3f
       0.03777379175574486 0.01359353028655599
000290 bb bc 1d 96 f4 40 98 3f ab 9d 22 de 0c e1 7b 3f
       0.0236852852462419 0.006806421532167854
0002a0 93 54 c4 7e a1 35 b8 bf 55 74 50 4f 34 b9 b8 bf
       -0.09456834168334387 -0.09657599388488454
0002b0 0b 91 de 00 42 98 c1 bf ed 7e 1a d9 a5 30 b3 bf
       -0.1374590400929566 -0.0749610571897354
0002c0 80 ab c0 7a ab b0 a0 3f 31 f2 ba ea fc 00 b0 bf
       0.032597883924913695 -0.06251507502288046
0002d0 44 1a a3 cd 1e 65 b9 3f 09 96 05 d6 8d f6 a3 bf
       0.09919922371327866 -0.03899043309756329
0002e0 27 e2 49 ca 54 e1 bd 3f 99 31 ec e5 0b 29 92 bf
       0.11671953142821022 -0.017734704883922345
0002f0 1c 7d bc c4 10 6a 94 bf d4 dd 11 ff 77 99 91 bf
       -0.01993585778029426 -0.0171869992668386
000300 9d 45 fb a9 97 c7 9a 3f 7e 3b 80 5c 11 12 a8 3f
       0.026152009725426962 0.04701284650956604
000310 58 6d 3a 54 d5 a1 b2 3f 6e 0b 0c 85 b7 d5 94 3f
       0.07278188043931288 0.020346515174434136
000320 92 b4 94 36 59 5e 93 3f 65 03 35 69 6c 3b 72 bf
       0.018914598423340374 -0.0044512018969847566
000330 85 da 66 f6 8c b8 c7 3f 10 84 89 49 75 b0 c6 3f
       0.18531953841530338 0.17726007548029132
000340 b5 0d 53 12 2a 8b c7 3f f1 d9 c7 e5 0b 20 b4 bf
       0.18393445868251282 -0.07861399040107366
000350 fa 4c 34 56 6a 60 65 bf e3 ce b5 fb 5f c3 9b bf
       -0.0026094509972921483 -0.027112483728571567
000360 f0 57 23 cf 1c 07 b8 bf b4 00 52 6a 95 f1 ab bf
       -0.09385852868157918 -0.05457751200538166
000370 92 5f 1c ce 32 5c a1 bf 75 87 e1 6d 87 3a 7d bf
       -0.033906543407453374 -0.0071358957485204615
000380 e3 b9 a1 60 32 76 79 bf 2b 8d 77 e1 1b 56 a4 bf
       -0.006216236865027788 -0.03971945884020508
000390 6e 2f 66 7e ea 4a 9a bf d1 11 3d cf 11 65 94 3f
       -0.025676406826775126 0.019916799806439848
0003a0 49 0c ab 37 41 d9 87 bf b6 03 9e bb 6c 82 b3 bf
       -0.011644849311215693 -0.07620887356280445
0003b0 4b 63 e4 1a 90 69 b0 bf ca 85 49 c0 15 17 b3 3f
       -0.06411076218172444 0.07457099861632979
0003c0 d3 22 e7 6b d2 59 b3 3f 97 c8 0e 98 03 78 72 3f
       0.0755893243250612 0.004508985556571108
0003d0 6e 91 18 24 34 bc aa bf 18 ec 2e 08 48 f1 b3 3f
       -0.05221713009476302 0.07790041160380701
0003e0 c5 9b 75 b0 74 b4 b2 3f 13 e5 ad c2 58 8f b6 3f
       0.07306603725520151 0.08812479737197902
0003f0 43 3b 85 28 30 ee 9e bf 73 10 7b f2 29 76 a7 bf
       -0.030205490563555825 -0.04582339367837642
000400 8e b7 c1 cf b5 5e a6 bf 76 af 55 a8 cd c8 b6 3f
       -0.04369133149235359 0.0890015159581575
000410 2a 13 c8 1a a1 a7 98 bf 38 85 f9 6f 94 7b b3 3f
       -0.024076955089202524 0.07610442861325317
000420 17 95 9d f3 75 d2 a2 bf 82 d4 cb ea db fd c8 bf
       -0.036761938083865235 -0.19524716343554266
000430 f4 07 ec 98 aa af 99 3f 12 f0 d1 8a 19 e5 9a 3f
       0.02508417662011904 0.0262645712832495
000440 fe 60 2e 42 c9 bc 83 bf 49 43 1f 41 e3 7c a3 3f
       -0.00963742478579421 0.038062192630269616
000450 05 c6 7a da 41 ea 9c 3f b0 88 ba 44 42 48 9b 3f
       0.028237370452819394 0.026642833180297643
000460 ff 7d 01 81 83 dd 95 3f a6 25 a6 b9 59 09 a5 3f
       0.021352820156947058 0.04108696356986323
000470 9b fd 25 58 66 87 a1 3f 23 d1 fd ac d2 a3 a2 3f
       0.03423614336042676 0.0364061199351531
000480 52 0c 45 ba 42 c4 a7 bf bf 05 c1 d1 7f e6 9b bf
       -0.0464192249660519 -0.027246472527854722
000490 67 3d 5f f4 0b f0 98 bf 32 b0 a0 29 38 54 a0 bf
       -0.02435320548084743 -0.03189254291677947
0004a0 37 34 52 92 05 1a a0 bf 5f ea 7c b1 1b e7 a3 3f
       -0.03144853030344346 0.03887259046174018
0004b0 7f 58 56 f3 1c e0 9f 3f 07 32 89 b1 44 db 87 bf
       0.031128361084107766 -0.011648689907041833
0004c0 1f 62 5b 83 6a 7f a3 bf 36 b8 29 a2 e3 15 8e bf
       -0.03808148244360531 -0.014690187822648065
0004d0 ea 52 f9 df 2a 04 b6 bf 75 4d 1b b7 1d d7 b4 bf
       -0.08600109069932285 -0.08140741081597531
0004e0 2b 2c a3 fc f4 7e a2 bf 2d 6b 4a eb 88 61 9f bf
       -0.036124854888463474 -0.030645503388409146
0004f0 33 ac ad 8c 4f bd 96 bf ba 4c 64 51 4c e8 a1 bf
       -0.022206538163498556 -0.03497541898300356
000500 a7 54 85 d2 85 d7 9a bf b8 28 14 59 89 07 9a bf
       -0.026212779020472834 -0.025419374525008392
000510 7c 92 44 a6 64 64 9b bf 02 fc f0 8e bd f6 47 3f
       -0.02675015702074511 0.0007313180520965858
000520 49 e7 ef 80 f5 71 90 bf 8d 90 e3 f7 4c 2f 81 bf
       -0.016059719080636446 -0.008391000094384782
000530 db 00 98 f5 55 06 b0 3f 0e a9 dc 14 42 94 a6 3f
       0.06259667631093484 0.04409986977255374
000540 11 33 1b a6 c9 e2 c6 bf 88 a7 bc 2b d0 d2 b7 bf
       -0.17879601107269896 -0.09306050365253615
000550 33 79 7d a8 2e 45 a7 bf d4 71 aa 30 84 ec a7 bf
       -0.04544969374431886 -0.04672635168137487
000560 1a 1b 48 5d b7 91 a1 bf e8 79 2e 66 40 5a ab bf
       -0.03431485189144308 -0.053422939751943066
000570 23 7b 7c 1d 11 06 b2 3f 8b e5 ec 6e e2 05 ad 3f
       0.07040507287863966 0.056685520210929395
000580 f2 cc f4 48 0e 6c b0 3f eb ea 9f e2 cf 82 9b bf
       0.06414880067022802 -0.026866195876190806
000590 a2 89 8b 68 82 d2 b3 bf c1 41 af 0b 43 6a aa bf
       -0.07743086864824147 -0.051591963936178604
0005a0 6f 49 82 1f 1c c8 81 3f db b5 81 30 95 66 80 3f
       0.008682460509849858 0.00800816110878604
0005b0 e0 59 25 de 76 33 5f 3f 18 e5 8e 01 be 5a 59 bf
       0.0019043598955100702 -0.001547513535326955
0005c0 1d 00 87 20 8f 92 b1 3f d4 5c 46 55 58 fb a8 bf
       0.06864256424069066 -0.04879261055901343
0005d0 c7 7b ef 4f d3 60 92 bf 66 89 bd ce dd bd 86 bf
       -0.01794748473536936 -0.011104328986850386
0005e0 45 fb 55 a0 10 64 a0 bf ae 95 20 44 7f 90 9e 3f
       -0.032013434955834565 0.02984808781925146
0005f0 9e 57 dd 94 47 02 9c bf bb 60 07 38 ba a0 9a bf
       -0.02735244604203723 -0.026003751439788596
000600 b3 d1 5d a0 32 2f 96 3f 55 5b 34 dd a7 c1 a0 3f
       0.021664420164101816 0.03272747588396522
000610 e0 6a ce d5 05 70 a5 3f d9 83 3b 95 d1 fa b2 3f
       0.04187029108944329 0.07413968938227757
000620 fe e6 82 12 08 c8 a1 3f de 74 af 67 b4 33 ae bf
       0.034729244479832375 -0.05898822560969007
000630 bd 3f 07 52 1d 1b b7 3f 76 31 73 8e 9d 0e a9 3f
       0.09025748493809167 0.04893963207141187
000640 bf e9 6b 2f 6b c2 b4 3f 8e 8d e1 f6 30 c6 a8 3f
       0.08109159381630258 0.048387079369400884
000650 78 d6 fe dd 58 d5 8a bf 81 cc 79 01 e9 ca 50 bf
       -0.013102239870799823 -0.0010249400565072455
000660 04 a8 21 73 e6 0b a7 bf f1 67 4a 52 d1 65 67 3f
       -0.04501266627706005 0.0028561676320579756
000670 95 75 11 93 5c 51 ab 3f 7a bd f9 40 6d ce b1 bf
       0.0533551148916828 -0.06955607258145405
000680 24 f6 be 16 0c 3e a4 bf 90 f2 99 31 82 3c 8e bf
       -0.03953588273678246 -0.014763848437035848
000690 4e 59 03 94 96 7e 98 bf 2d 8a fc 41 4f de b0 bf
       -0.023920395645143082 -0.06589217530248766
0006a0 3a e2 1a da fa 77 c8 3f 04 7a 38 c9 01 47 bd 3f
       0.1911614956823245 0.11436473047840684
0006b0 01 e8 c1 87 b7 2a a4 3f 57 43 05 d9 49 d0 af 3f
       0.039388404199556255 0.062135989896552495
0006c0 42 d6 0e a7 62 46 86 bf af fd c3 ee 8d 7c 75 bf
       -0.010876436923221825 -0.005245737480663078
0006d0 11 f5 8b d4 b9 a3 98 bf ff 1d 5a 27 0d e1 a3 bf
       -0.024062064740964454 -0.03882638078090039
0006e0 55 96 dd 54 4c ea a5 bf 70 9f e0 7f fd 22 a9 bf
       -0.042803178176467206 -0.04909507928851908
0006f0 6e 8d 31 61 26 b8 b0 bf 21 25 82 97 cc 2b b0 bf
       -0.0653099047936416 -0.06316832255301509
000700 53 54 d8 7e 03 1e b9 bf b6 6b 3d b7 3c 57 c9 3f
       -0.09811422201922086 0.1979747671819873
000710 12 99 77 b7 6a ff 93 3f 9d b4 a6 c5 05 fe b9 3f
       0.01952902550501629 0.10153232646435346
000720 cb 4d 29 38 48 fa b3 3f f3 b4 a9 8f 91 01 a4 3f
       0.07803775187613053 0.03907446745584222
000730 6b 21 6d 28 93 e6 bb 3f 24 4b 33 70 17 11 a8 3f
       0.10898704277963638 0.0470053982222878
000740 64 39 66 34 44 52 a8 3f 8c 24 0f ec ad df a7 3f
       0.047502643009567774 0.0466284132631439
000750 00 ad d2 b5 bc e8 98 3f 7f 6b f3 63 ec 41 c7 bf
       0.024325321767418195 -0.18169932251370466
000760 74 90 e8 5d c7 dd 9e bf 5a 45 78 b3 00 e1 b0 bf
       -0.03014289389297216 -0.06593326932513346
000770 3c 4a b8 11 81 ea ad bf 0f 51 59 c0 de d8 93 bf
       -0.05842974988276636 -0.01938198136333918
000780 5e 89 03 39 68 dd b2 bf 79 09 33 19 9b 63 87 3f
       -0.07369090454043234 0.011420451838038958
000790 51 8f fb 62 5c fc aa bf 94 89 7e a6 d4 2f 9c bf
       -0.05270661075863237 -0.02752620950890046
0007a0 01 45 a3 ed 2d a1 a6 bf 18 2c 35 5c 9d 58 ac bf
       -0.04419845128871636 -0.05536357641775441
0007b0 e1 ad c6 6b 73 2d 71 3f a3 f5 fc d1 36 5d a6 3f
       0.00419373594597114 0.04367991746265012
0007c0 96 f1 7d bd 4e 87 9f 3f fc 7e 8e 74 fb b2 b6 3f
       0.03078959495131669 0.08866855235691767
0007d0 6c bc 9c 27 3d 45 98 3f ee f3 b8 cf b5 e0 b1 3f
       0.02370162538789737 0.06983505555486122
0007e0 00 d5 53 7f a6 eb a8 3f 73 db bb 5e 09 f3 a4 3f
       0.048672869723228374 0.040916722120463066
0007f0 91 05 b1 df a4 09 aa 3f 00 f6 e7 69 d5 fb c2 bf
       0.05085482817276977 -0.14831035300441897
