data/processed/deep_mlp_W5.npy (npy, 6272 bytes, 1 tensors)

array f8 [256, 3]
00000000: 5c6a 830c 5bf6 66bf 7872 2338 a4f9 ab3f
00000010: b9b0 ca0b 1e80 c13f 4f16 c0ee 3718 d13f
00000020: 9c56 67b7 6ff1 b5bf 5f26 d999 8255 b23f
00000030: 73e9 e3eb 5ae1 aebf 7a93 d100 5195 c9bf
00000040: 208a 7bbb e638 c43f 6d0b 0895 ea35 903f
00000050: adc0 ec16 83c0 d1bf 38df 1ddf dd6f 963f
00000060: 92fe e31e 1a1b b33f 548f 4d6f 793c 9bbf
00000070: 4442 0490 6bef c13f 374d bdda 8bba b73f
00000080: f9cc 1141 a004 b3bf 843d 65a2 305a ad3f
00000090: d94b 9a2b f17e b3bf 6f56 e4c7 9f8e b7bf
000000a0: e884 d6b9 452c c43f c8b2 3e7d e9ee 993f
000000b0: 5bb2 29a5 1c9d ba3f b7a5 04f1 495f c13f
000000c0: 934f 9aeb baf6 b43f 024b 6b95 e7ae 903f
000000d0: d4ab dc8f 4d23 c2bf 20d9 d377 73f7 b7bf
000000e0: 3e33 cae5 ad6e ba3f cd25 b1e8 8e15 bebf
000000f0: 5501 7545 3cc6 c7bf 9daf f106 cf36 583f
00000100: ed3e eea2 a43c c03f a97b be90 1ef3 903f
00000110: 5275 dfe2 c69d be3f 2b87 bdf8 e238 c73f
00000120: 370e fa48 a802 c73f bbeb f3d8 c472 babf
00000130: e978 44e0 3ce0 a8bf 8eb9 98b5 6e09 d0bf
00000140: 33e8 69ec 0c80 b53f 90b0 8e1a 9eda b13f
00000150: f9c2 db56 9565 bdbf cfe8 ebc7 ac44 a7bf
00000160: 1ee6 4353 3c1c 9abf 5e33 4e48 0283 b93f
00000170: c2c5 c471 b9dd a4bf 3846 c4b9 4113 bd3f
00000180: 74ba ad62 2ee3 c43f c4d0 dd91 9fcb b2bf
00000190: 95c8 db28 936b a93f a762 6002 c58c 99bf
000001a0: 54ce 869a 8d7b 923f 21fc c32e 38f8 b13f
000001b0: 111e a1d3 f278 c43f 0831 9887 bb9e b2bf
000001c0: 0779 a505 043b b53f bcad aa2b a3ab c33f
000001d0: 1a5b 460c 1559 9abf 7fbc 6a0f 7679 b2bf
000001e0: 9a9e a3db 9c6a aebf 7609 f822 49c8 c0bf
000001f0: 95e8 0e29 8402 c2bf 6010 c9bd 3541 9c3f
00000200: 8d5d af68 96e6 b23f 0193 f35f a30a 75bf
00000210: c493 a4ab 3fa2 7cbf 636c e57e 4c75 b13f
00000220: 1995 2692 4fb2 a3bf 5ac3 50dd 5f13 b23f
00000230: 0d45 0d22 1d68 b13f d28e ab9d 39a7 b03f
00000240: 924d 8d5e d492 b63f 0d90 ff74 17af af3f
00000250: feb9 1853 b568 c2bf d26e a0cc a3bb c5bf
00000260: 13b2 b5d8 3362 c3bf 5597 1cec 93e2 69bf
00000270: ec51 0bac 931b b43f ba10 e9e6 9fde a23f
00000280: 627e 51bb 0766 7bbf 26bf 1f00 72ad 7d3f
00000290: 1410 5f9d 6f2b c53f 3437 7422 ebd1 a43f
000002a0: a4f1 41f3 2748 bd3f 9a8c 292f 616a b03f
000002b0: 377e 6b5f 7bcd a43f 1ad2 4976 623f 74bf
000002c0: a26e 0b01 f08c cbbf b1bf 5db6 02f5 99bf
000002d0: aa83 b7be 7df2 b73f a78f 3546 6fe4 ae3f
000002e0: bf1b f047 2699 79bf 35cf 1f51 5dbc 913f
000002f0: f33c 806a 6482 b03f 3268 65cb d0cf 87bf
00000300: 75ca 03ad 1d8f 643f 32d0 99ff 3be1 aa3f
00000310: 1b42 e43c 3582 a13f 7625 d1a0 f7d0 aebf
00000320: 2858 f080 3b02 c53f 5d00 21b7 fbb2 ba3f
00000330: daaf e07f 5522 adbf 70c6 d3ad 651e c83f
00000340: e758 079d be9b a6bf 251d ee38 ba65 bb3f
00000350: cb7b 4071 1d6f c93f 0dcd ca94 a460 a83f
00000360: 2601 7d59 4434 bb3f 3d06 fdec 745c a8bf
00000370: 3737 6460 c724 b03f bc6a 6129 0cc2 bf3f
00000380: dc24 8ff8 a1dc b8bf da5c 37f5 1332 c4bf
00000390: 011e 06ce 8152 b7bf d43f 463a 4705 b83f
000003a0: 4580 ff04 652d a5bf 113a d4a3 98b6 783f
000003b0: 99a1 073f 75c6 9a3f b4b7 1c91 9561 bb3f
000003c0: 3ddb b84d d98c c9bf 0f8d 54be dd79 b33f
000003d0: 99b1 0bd9 1f28 bf3f b5fd a2da 2cf2 b6bf
000003e0: 1e38 a0c2 a8ed bbbf 8952 ff97 bd05 cb3f
000003f0: baac 6eef 8fb7 a1bf 0b77 cb7d b152 853f
00000400: 0f46 1d40 3d98 c33f 8daf aed2 7bbb a2bf
00000410: b6d4 1819 1e37 aebf 2e10 ee7f 8dbc af3f
00000420: dec6 7375 f826 a9bf 0574 d312 da54 853f
00000430: f99f b4b8 b789 b4bf 93b2 07eb 137b b53f
00000440: 25bf 7d98 0a01 68bf 46a7 b2a3 284d 9cbf
00000450: fa1d 6b80 5134 8d3f 5654 20cf 271a a23f
00000460: 569b d474 2e21 bcbf 31e0 79cc 789e 8a3f
00000470: bf94 e8e2 3f7f 973f e7ec 685f 2fa5 67bf
00000480: 3105 279e abb3 b93f a007 d1a2 8f5d bfbf
00000490: fc4b 8c4c 252f c7bf 4c1a 7233 0d09 8ebf
000004a0: 61ae 5e79 87c2 c4bf 5baa 40df be0e b23f
000004b0: 58a9 8d91 4140 613f ae11 ae23 5146 8e3f
000004c0: be33 a870 6c53 b63f 0468 a0c0 4a99 873f
000004d0: 36fc e5ed dcd3 bbbf 2c16 2615 e015 ac3f
000004e0: 05c9 db85 ed06 b83f a936 7e8e 1173 a0bf
000004f0: 3620 4f07 8c27 a0bf 495e b91d 890f bf3f
00000500: 989e 5750 be31 bcbf fbed 3329 534a b73f
00000510: 6bb0 51e1 db76 a3bf f9d2 a53a cf05 c13f
00000520: 8852 814c 3a98 a3bf 99ec 1a83 3ea5 c0bf
00000530: a38c 1e6c cdd4 c8bf 5dc8 6557 4a48 be3f
00000540: 8227 31a6 350f a43f 125d 4ca9 53e1 b83f
00000550: 0534 c598 a209 b4bf f60c be8e 647c b3bf
00000560: 86c7 d527 7bab a43f 960a c900 bed1 c4bf
00000570: 86b6 64e1 4e85 c83f 4e68 0b4c 0a64 a6bf
00000580: 49b9 5a25 9f8a adbf 6887 df23 5fd8 983f
00000590: ede9 6147 f153 d23f 5174 4ef6 5d01 a73f
000005a0: da71 1f4e fdf5 9b3f 83a4 5560 f117 a8bf
000005b0: 2c68 b4f8 5214 b33f 95ca 7715 075c b43f
000005c0: f4b4 1613 8030 a13f ef2b 1092 bd66 bcbf
000005d0: 033a 74a0 43c0 a7bf fa9c 4008 5c1a a23f
000005e0: 799a a68b 4c47 b23f f7d3 235d 07df b4bf
000005f0: 4e48 30d6 ed46 c03f 579d bba1 ca60 a3bf
00000600: f9b2 57c7 c635 bc3f 05e9 2f36 d058 94bf
00000610: 4d21 b3cc dd58 81bf a8f8 6ecb a685 b0bf
00000620: 3e3a be80 73f0 b6bf b92c 5ad3 abc5 a93f
00000630: 0777 1f6c 4550 b5bf 910d 08d0 dfa0 493f
00000640: 61e6 49dc aa5d b6bf 6833 a95a fa41 a2bf
00000650: 82a5 c845 ca28 a03f 41da 5ead c83d c33f
00000660: 22fe a59b 4cf2 8dbf cecf 636d 0a62 b2bf
00000670: a5bf 1e2a 653c a1bf ef58 069f 2118 c0bf
00000680: 338a 9564 5c35 9f3f 2e55 a5de 9607 a23f
00000690: 593f 063c 8fab babf fb0e 6f67 cf94 9dbf
000006a0: a624 26be 6f07 a4bf d3f5 54ca 0c30 b03f
000006b0: 4e3c e746 249c 80bf 12c7 06dd 1a83 9fbf
000006c0: 1b43 6204 15d6 a5bf 3c62 1624 57d5 b7bf
000006d0: 075d a7fe 7e46 b4bf e02d a58a f3bc 99bf
000006e0: 593c 1fa3 18f6 a33f 3bb0 3ad5 542f c13f
000006f0: 2e46 a62a 59ed a0bf 4091 e387 598e b5bf
00000700: 98b2 89a7 204b 77bf 6b22 e1d7 247c 8fbf
00000710: bad6 5da1 1aaa ac3f e86b 0c2d 63e1 87bf
00000720: f7e1 dff0 03b6 c13f 01f5 c9fc aef6 653f
00000730: 6445 8d3e 0b81 babf 7df3 1d7d 88da a1bf
00000740: fd34 97a2 428c b2bf 3849 f130 e708 973f
00000750: fe36 e7ab d145 b93f dc52 a568 4219 9f3f
00000760: d150 5f9e d117 bb3f 926e 67f3 40bf acbf
00000770: ddaf f218 5e33 ac3f 4b37 6807 424e 7bbf
00000780: 76bc 7dba 590e ab3f 3257 63b3 e949 86bf
00000790: 94f9 19a3 4f6b b23f fe5c 1e18 449c b63f
000007a0: 36e8 92f8 8c6a c9bf 84d2 c508 498d b6bf
000007b0: 1bf7 d4db eea8 8cbf ac52 620e cd02 a23f
000007c0: e151 e95d 40d1 b43f 45b7 274c 5d93 a7bf
000007d0: 38bb 0b0e 938d be3f 3da9 410b 46f8 b03f
000007e0: 0460 75d2 4474 b8bf aa64 b580 3c63 aabf
000007f0: 1f40 85ba 8a92 b83f dd3d cd05 8d51 b53f
-0.0028030184076730923 0.05463898835453035 0.13672233176965223 0.2671031791254323 -0.08571527698162601 0.07161728149471845 -0.06031307343978911 -0.19986927547429528
0.15798648981497454 0.0158306745015681 -0.27737500418426003 0.021911112540208694 0.07463229421773068 -0.02659787885512739 0.1401190236288291 0.09269022074049792
-0.07428933704959552 0.057328719924608 -0.0761557322933152 -0.09202002172636424 0.15760108541602524 0.025325439709990488 0.10395983726784534 0.13572048443283588
0.08188980342884937 0.01629220818979161 -0.14170236134063308 -0.09361955333210803 0.10325133190253852 -0.11751645260769479 -0.1857371653695831 0.001477911162306867
0.12685068088148146 0.016552426895596693 0.11959498442543762 0.18142354150318715 0.17976859629935557 -0.1033137349767647 -0.04858579862251295 -0.25057571157494685
0.08398514530009109 0.06974208973287177 -0.11483128901069141 -0.045445823101503906 -0.025498335439783408 0.09965528741140647 -0.04075412286546111 0.1135750845462774
0.1631830198125105 -0.07341954528039013 0.04964885591279359 -0.024951055784273504 0.018049442822031317 0.07019377843606424 0.15994105657067384 -0.07273456631100228
0.08293175828791642 0.1536754573074698 -0.0257304466955147 -0.07216585041418176 -0.05940714055196601 -0.13111223418679757 -0.14070178990170193 0.027592506130773464
0.07383098655497218 -0.005137098486760251 -0.006990669930279251 0.06819608781863588 -0.038469778624213365 0.07060813096246701 0.06799490052550912 0.06505165194863174
0.08817794140241222 0.06188271811677746 -0.14382044370127284 -0.16978881351030012 -0.15143440324335752 -0.0031597985370294492 0.07854578924463568 0.03685474103670701
-0.006689100458146054 0.007245488466636895 0.16538806137225548 0.040664051013762054 0.11438226403146828 0.06412322427199726 0.04063020267289768 -0.0049432607817050615
-0.21523857165344845 -0.025348703747510807 0.09354387193844951 0.06033656818433935 -0.00624957040327606 0.017320116115981683 0.06448962783928262 -0.011626845557362573
0.002509649239180784 0.052499651862405364 0.03419653290086818 -0.06018804395768999 0.16413062854616212 0.10429356785698603 -0.05690257249838711 0.18842764842661408
-0.04415698687414409 0.10702098741432005 0.19870346097829236 0.04761232677756242 0.10626628098271293 -0.047580388955350085 0.06306120017344773 0.12405467996851888
-0.09711658781374716 -0.15777825807047102 -0.09110270767097718 0.09383053944316028 -0.04136195837031712 0.006033512353737184 0.02614768216327121 0.10695776741769586
-0.19961086554550347 0.07607828041777885 0.1217059998413731 -0.08963280046281492 -0.10909514190299816 0.21111268922563323 -0.03460359380491114 0.010411631251766381
0.15308347349723347 -0.0365866369896529 -0.059014263690565213 0.06198541819233615 -0.04912544664138151 0.010415748309634773 -0.08022640475667221 0.08390926826514038
-0.0029301840731291878 -0.02763808726437069 0.014259945613402703 0.035355800661058964 -0.10988130905444157 0.012997573604693087 0.02294635603370376 -0.002886383557123662
0.10039780245917453 -0.12252137875569113 -0.18112627256104463 -0.014665701992510403 -0.16218655992757916 0.07053749990942874 0.002105835021599816 0.014782556439748653
0.08721044302383427 0.011522850039956019 -0.10870152290407095 0.05485439546741264 0.09385571020155588 -0.0321279035989453 -0.03155171956274254 0.12133080459295188
-0.1101340242527108 0.09097785716942745 -0.03801619649388573 0.13298979152354898 -0.03827078040982196 -0.13004285241718064 -0.1939942148138459 0.11829056390505018
0.03917853978835152 0.09718821414240988 -0.07827202062362922 -0.07611683354302898 0.0403707967879106 -0.16265082395883174 0.19156824117219545 -0.04373199632910084
-0.057698224363195445 0.024262892307781142 0.2863734433264245 0.04493230468435939 0.027305562871207424 -0.047057669648730836 0.07452887126820035 0.07952923082465653
0.03357315285698262 -0.11094269577021952 -0.04638873418490521 0.03535735703217742 0.07140043649142482 -0.08152814887928615 0.12716458280971427 -0.037847835772306375
0.11019556395303799 -0.019870045955010535 -0.008470280465545566 -0.0645393606818937 -0.08960649388448247 0.050336236524424156 -0.08325609101981622 0.0007821171603272105
-0.0873667514623775 -0.035659621779450756 0.03156120397427299 0.15032299485547365 -0.014622305393230898 -0.07180848284389116 -0.033663903609862524 -0.1257364298332457
0.030476993216675474 0.03521415202946297 -0.10418029036941102 -0.028887978256320484 -0.03911923595576043 0.06323318423979822 -0.008110316671176811 -0.03077356313742203
-0.04264894178880337 -0.09309906607666901 -0.0792006847108163 -0.025134854638322213 0.03898694030032663 0.13425693904480504 -0.033060823875654996 -0.08420333449936823
-0.005686881596017067 -0.01537350448428861 0.05598529071623433 -0.01166036111094644 0.13836716901256782 0.002681104442955218 -0.10353155400414021 -0.03487040068919265
-0.0724527022313914 0.02249490009519059 0.09872160384039927 0.030369794499466404 0.10583219639312637 -0.056146650040060156 0.05507940344372717 -0.006666429448626786
0.05284386064055806 -0.010883165156353767 0.07194993717164372 0.08832192982514539 -0.19856416833300877 -0.08809334243944461 -0.013994089206444784 0.03517761993967858
0.08131792347678114 -0.04604617647770096 0.11934775441089307 0.06628835463348977 -0.09552412164828189 -0.05153836318158629 0.09598605207179432 0.08327561751979524
