data/processed/kernel_model_weights.npy (npy, 19352 bytes, 1 tensors)

array f8 [801, 3]
0	0xbfc007ac779cbc09	-0.12523418274346934
1	0x3fd23e4050f543fe	0.2850495138746395
2	0xbfc602fc5f077ae9	-0.17196612014864535
3	0xbf98142061c9073c	-0.023514276474322346
4	0x3f77393000e64bf4	0.005669772638060334
5	0x3f8d4ae303844f86	0.014302991432977096
6	0x3f8169afbb8d6cbb	0.0085023621665442
7	0xbf8057047b549a21	-0.007978472722766363
8	0x3f50ded96fea548c	0.0010296939287049193
9	0x3f81529ab55657d2	0.008458336504911932
10	0x3f8eb1186a267dc9	0.014986220111324127
11	0x3f8e87d6a9bc5afb	0.014907528929638305
12	0x3f6ab06a284dc12e	0.003257949198477792
13	0xbf72fcfddfcac267	-0.004635802932782518
14	0x3f5be7f80d6a1cc5	0.0017032549273226377
15	0xbf8a3a32385ddb79	-0.012806312890217818
16	0x3f9a17d24219d416	0.025481496128538415
17	0xbf935e8f2742eb70	-0.01891540219433402
18	0xbf8387a440b0d03f	-0.009536059593394096
19	0x3f79658695ccc83c	0.006200338099732913
20	0xbfa0d04cfa7a6067	-0.03283920819848234
21	0xbf7c9572f724e00e	-0.0069784632526577305
22	0xbf8735b3f1fc766d	-0.011332898924190727
23	0x3f7f170ff633fe0b	0.00759035334635839
24	0x3f8cecff069e9f70	0.014123909368052273
25	0xbf8c534e0b731771	-0.013830766415036529
26	0x3f7cf8f2e61ad641	0.007073353599186983
27	0x3f92112815417f6e	0.017643572137216727
28	0xbf9360f1fbe25969	-0.01892450427893647
29	0x3f96b585b3d625b5	0.022176827527379667
30	0xbf86abeb66d5e72c	-0.011070097995559879
31	0x3f9df9f76ab4f5c2	0.0292738589171131
32	0xbf8a4cd7a70257d0	-0.012841877731528145
33	0xbf8fd1e5c1a6a6f1	-0.015537066433199938
34	0x3f5e4a50f4e16d27	0.0018487730590298153
35	0x3f7943d8c3961d37	0.006168219313060156
36	0xbf5f566908dc5c85	-0.0019126916626584234
37	0x3f9d29b88cbd381f	0.02847946509364629
38	0xbf9421a4a6d88193	-0.019659588511900927
39	0x3f926e1f1f30ce72	0.017998205450750544
40	0xbf88cef8d040c8a0	-0.0121135176233092
41	0xbf569df7e7b3e733	-0.001380436034024557
42	0xbf8150cec350a695	-0.00845490964464383
43	0x3f85e4e5c5d57936	0.01069049367896167
44	0xbf90afa6a8014f71	-0.01629505539342752
45	0xbf51d916ac18faa9	-0.0010893556030990104
46	0x3f97d543cacf3587	0.02327447820043951
47	0xbf7dad46c7d289dd	-0.007245327459858034
48	0xbf827de04403c1e5	-0.009029151988642911
49	0xbf5613ebc0121fc3	-0.0013475229500574538
50	0x3f798cb50bfca2cd	0.006237704481272655
51	0xbf71b353f76befa1	-0.004321411127190007
52	0xbf595b0536c9b2cb	-0.0015475798528782776
53	0xbf875f79518c96d4	-0.01141257076376282
54	0xbf8cdfd6f662a605	-0.01409881534012226
55	0xbf8222786a082dc3	-0.008854809509123101
56	0x3f77913337774662	0.00575370794781946
57	0xbf85cc8be3513e95	-0.010644047617602662
58	0x3f3d4f728636d3f5	0.00044724031451021047
59	0xbf7184bae9b7b3bf	-0.004276971939799644
60	0x3f8648f5997186dc	0.010881346459601308
61	0x3f43816987f0a648	0.0005952611244357054
62	0x3f66471ca11ffc52	0.0027194556396348624
63	0x3f891b242930c216	0.012258799082787635
64	0xbf603f8d5d78e192	-0.001983429054032545
65	0xbf74da4b2f355eed	-0.005090993584722742
66	0x3f8fa72b1bc66f73	0.015455567155008265
67	0xbf83972c019dffb4	-0.009565681266167171
68	0xbf9060227500cffd	-0.01599172438746165
69	0xbf74b6dece455517	-0.005057211241667823
70	0xbf90cb756a12e832	-0.01640113315509257
71	0x3f62fcd8fa800d4b	0.0023178327428482796
72	0x3f6952bc3efc5514	0.0030912090950418
73	0xbf86b8ebf668bd23	-0.011094897706327494
74	0xbf90895b6dcfb728	-0.01614897592292333
75	0xbf491500478112eb	-0.0007654429782709393
76	0xbf818d22b162ffc2	-0.008569975889599738
77	0x3f82893d904536bc	0.00905082794693201
78	0x3f913f4c6ee02eec	0.016843027369801186
79	0xbf83b6e3ed07a63d	-0.009626179381444827
80	0x3f880a734f6a0200	0.01173868261435107
81	0xbf63b049f81e9b43	-0.002403397055747021
82	0xbfa5b16016c13e72	-0.04236889150399471
83	0x3f6d1c2856b3edfa	0.0035534656395819183
84	0x3f70f9f87a6ab8fd	0.004144640558179311
85	0xbf93a332471058c7	-0.01917723234881732
86	0x3f89e76bbc1be40b	0.0126484314709945
87	0xbf67d835d27477bc	-0.0029107142651260947
88	0xbf7f2aaf785d0784	-0.0076090673736092275
89	0x3f33b6d275ffc5e7	0.00030081403929135695
90	0x3f7074b4eef2653a	0.004017550250091257
91	0xbf826044fc9547a2	-0.008972681959367016
92	0x3f5551b44a74e20b	0.0013012180950920961
93	0xbf89b1b6e4d29c5a	-0.012545994623293467
94	0xbf8e2b979ebd02d0	-0.014731583148774346
95	0x3f7a732405967606	0.006457462988149759
96	0x3f4a53471a6658e9	0.0008033845122550595
97	0xbf932cdd1e269ce1	-0.018725829091320704
98	0xbf45c9585c898672	-0.0006648713543421904
99	0xbf7e26bc9aa11675	-0.00736116097875127
100	0x3f9e0722d4d74f2b	0.029324096909319735
101	0xbf5d7793d26d0bea	-0.0017985290121067484
102	0xbf7bdbc40d997ffa	-0.006801381905091825
103	0x3f95f1a94ca1f57e	0.021429677297864817
104	0x3f78ed0c8acbd8c5	0.006085442536223511
105	0xbf5a0aa85720cc05	-0.00158945502745378
106	0x3f87ac00584749a6	0.011558535284085302
107	0xbf94b41f43b751c4	-0.020218361385404796
108	0xbf9392a22456a06f	-0.019114049404067076
109	0x3f96955a174f5ac2	0.022054107353904902
110	0xbf921167977f9b28	-0.017644518491489652
111	0x3f462ca5a3a46c13	0.0006767090592662027
112	0xbf902f26cdafdff9	-0.01580486898816955
113	0x3f7f7cf65c57477d	0.007687532755385249
114	0x3f89e73f66d525c7	0.012648101163580073
115	0xbf74e3320e196066	-0.005099483039508445
116	0x3f5ea30012058295	0.0018699169814554762
117	0xbf9005ac9c4418df	-0.01564664558193207
118	0x3f75e8b4f2ba8b62	0.0053488796508272835
119	0x3f804c817fc42d4f	0.007958423339479962
120	0xbf6fad9a7d98d1a4	-0.0038669602770601986
121	0xbf78ad5b0acb621f	-0.006024699815235595
122	0x3f836c0354392c4e	0.009483362205307124
123	0xbf6c75663f72ff97	-0.003473949148968768
124	0xbf43451ab2291e9f	-0.0005880718566197602
125	0xbf6a7e4a2aaf0cfd	-0.0032340477532400978
126	0x3f954f86d15aa777	0.02081118252559785
127	0xbf94cd2f96014815	-0.020313972025469768
128	0x3f8df92d95447f62	0.014635425679955186
129	0x3f85f9addf241c1d	0.010730131504272983
130	0x3f8088b2754261f8	0.008073229030103754
131	0xbf83f18120a934ed	-0.00973797684596397
132	0xbf8725605a8d3104	-0.01130175854054772
133	0xbf8b5561e04e9dcd	-0.013346447618302637
134	0xbf66ff5a9666466a	-0.0028073090827057017
135	0xbf88c6b2d47b282d	-0.012097737416656507
136	0x3f68ad2c9486ef34	0.0030122633654324996
137	0x3f233566439327a2	0.00014654992427259617
138	0x3f8512fc602ba6c5	0.010290118870631368
139	0x3f76fcc84594990d	0.005612165748323028
140	0xbf63453b93612127	-0.002352348669806176
141	0x3f8ff4593bb8b009	0.015602776656201927
142	0xbf790526d31c5c9d	-0.006108428629679666
143	0x3f69eb4a70057ad2	0.0031639531954817746
144	0xbf4fe1e5ac3bd5dc	-0.0009729739617500527
145	0xbeae06aec06c25f6	-8.948476314118179e-07
146	0x3f79135aa17e5430	0.006121973063177896
147	0x3f7be5c6fc280a0c	0.006810929570294732
148	0xbf93eecef44e7045	-0.019465669308928808
149	0x3f8f4e68afc64919	0.01528627191945424
150	0xbf84c531a3800fcd	-0.010141742517596608
151	0x3f8a3740e7223540	0.012800700238836726
152	0xbf8f66d5fd63d9af	-0.015332862658834793
153	0x3f77562a2ece83a2	0.005697407509530546
154	0xbf7c1e4e77f4e292	-0.006864840047733483
155	0x3f8406e1ff19ce48	0.009778752896841728
156	0x3f6e17d64d8ccb6e	0.003673475799950968
157	0xbf8885de0fa8c386	-0.011974081852800255
158	0xbf44c19e93644283	-0.0006334327979705265
159	0xbf99df2891200eef	-0.025265344484082183
160	0x3f757f8799308b08	0.005248574906576271
161	0x3f92fe9f27cf5cc8	0.018549429707346105
162	0xbf52dfb7c429af6b	-0.001151971301307032
163	0x3f6cfd97248c20e0	0.003538890076360088
164	0xbf87698594775d2b	-0.01143173560460172
165	0x3f911fe70d54b2a0	0.016723261059427785
166	0x3f8c19719ac1531e	0.013720405135396126
167	0x3f3392d72152fb0c	0.00029866935922122427
168	0xbf94d8876508201a	-0.020357242146957423
169	0x3f8b4d9045ef4d61	0.013331534513702338
170	0xbf8c4717b8762a64	-0.013807473484822093
171	0x3f5eb6d907e1df2a	0.001874648994570858
172	0x3f996784ef52b5a6	0.0248089572020739
173	0xbf929f9931511ffc	-0.018186944613518094
174	0xbf7b66374288df6a	-0.006689277514446571
175	0x3f600fae4321bfa9	0.001960602146077368
176	0x3f89f18f08767c14	0.012667767949833965
177	0xbf7a3c67eca52f18	-0.0064052638575267315
178	0xbf92e8e13a021b70	-0.018466490903417065
179	0x3f85fc29240ff1df	0.010734864628823835
180	0xbf7e18ea0e8b19d5	-0.007347978863157374
181	0x3f851354b870ed76	0.010290777090736763
182	0xbf6038d28aecbeea	-0.0019802200471515834
183	0xbf715078e4b39860	-0.0042271349331937935
184	0x3f83dcbaf8d4aef9	0.009698353499139044
185	0xbf61a8cb481bd9fc	-0.0021556825967039544
186	0x3f8cd679ac318e5b	0.014080954139166815
187	0x3f4b9004e003119f	0.0008411430171908935
188	0xbf7d74623db9c4bf	-0.007191070322378922
189	0x3f6cbb004d6938ec	0.0035071378618233198
190	0xbf81c6dad608d06a	-0.008680066735088771
191	0xbf72591f713643be	-0.004479525395610416
192	0xbf8c7d9ec61a26dd	-0.013911476536367423
193	0xbf7f2a1e847767db	-0.007608527382638254
194	0x3f7cb5ce63cd7c20	0.007009321413391084
195	0x3f8d839c81d131cd	0.014411184989648352
196	0xbf2df54347c4d3ce	-0.0002285618428544953
197	0x3f88c4c64bd4d49d	0.012094067753972754
198	0xbf82c4839e214323	-0.00916388346027614
199	0xbf4860e41a3484f6	-0.0007439721852372783
200	0xbf97aebd695e3ab3	-0.023127517276914044
201	0xbf8e5c6aab077bb5	-0.014824708313367777
202	0x3f90e15e25a9a7ed	0.0164847097861766
203	0x3f4eee65a2883a18	0.0009439464820973379
204	0xbef44b420daa0dbd	-1.935384430363866e-05
205	0xbf950fedc25d0933	-0.020568575847627456
206	0x3f8fdb2e908ab9dc	0.015554775034016304
207	0x3f7f39136dcac5f9	0.007622791189235916
208	0x3f8ef681db8297fa	0.015118612777154528
209	0xbf7674f70de96098	-0.005482640319847708
210	0x3f71a01cca43fc89	0.004303085767104816
211	0xbf706f2ba1a85156	-0.004012270389030034
212	0x3f82064c97c47adb	0.00880107725293782
213	0xbf5ada11df4121a4	-0.001638905957422756
214	0xbf694ff0066d3418	-0.003089875029593358
215	0x3f73f2c90dd8df59	0.004870210044422973
216	0x3f78629c5d29806f	0.005953417583981587
217	0x3f83ef0dd80cc811	0.009733303218670416
218	0xbf8f1f03fb70f89a	-0.01519587622726375
219	0x3f885bb8e179e4f4	0.011893696194635407
220	0x3f7748ed824fa168	0.005684783715857435
221	0xbf93b82316776b58	-0.019257114645238133
222	0x3eb834b0c61edba7	1.4427794430124377e-06
223	0x3f93be053e0e9d62	0.01927955809847271
224	0xbf8aeecc2067ead8	-0.013150782336187758
225	0xbf72d9fcc5d158e5	-0.004602420228442682
226	0xbf746e9e08da86ab	-0.004988305399508934
227	0x3f9997ba37b3a1d3	0.024992856645356398
228	0xbf8b8ce89d17dfd4	-0.013452355665307815
229	0x3f7997002b69f0da	0.006247521078531737
230	0x3f87f67f50561303	0.011700625075499632
231	0xbf8ab965519ca3cd	-0.013048926880928758
232	0x3fa1ae2a8d357b26	0.034531907784858526
233	0x3f735403f1400180	0.004718795204098902
234	0x3f67b022dc7c74e0	0.0028916054615267667
235	0x3f779fc052f6ae2d	0.005767585054325103
236	0x3f84da21d55a5f44	0.010181679080502833
237	0x3f7c4e7dbaa42923	0.006910792473954683
238	0x3f8454dfdc0d0d8d	0.009927510168956011
239	0xbf58b1dff30da32f	-0.0015072524076577656
240	0xbf6ca046c5097d5c	-0.0034943945141063092
241	0x3f654317cbbb4d61	0.002595468975280888
242	0xbf888c7b6309f177	-0.0119866981124168
243	0xbf88a395e1932690	-0.012030764528748322
244	0x3f6e21e79dc6e2b5	0.003678276420228189
245	0xbf7c3f4a9cbb0ea7	-0.006896296934147428
246	0x3f870967d779cfe1	0.011248408568668768
247	0xbf695dd83700a355	-0.003096506399760927
248	0xbf7c3c66c628d64b	-0.006893540822195353
249	0xbf8d4518de115451	-0.01429194858261887
250	0xbf9a74305b20d5b5	-0.025833850442912715
251	0x3f951955e006b28a	0.020604459570380963
252	0xbf837f37ace58715	-0.009519991840253131
253	0xbf97a45087670294	-0.02308774782591401
254	0x3f9b4b2ca3bfc3a2	0.026653954977465262
255	0xbfa16a65e2d78305	-0.03401487726273981
