data/processed/mlp_W2.npy (npy, 3200 bytes, 1 tensors)

array f8 [128, 3]
0	0xbfa2d0144f6d3ac9	-0.03674376935543006
1	0x3f76f3c3dbc91dba	0.005603566238796482
2	0xbfd184b6520fbff7	-0.27372510923214527
3	0xbfa851420ac3768c	-0.04749494916334837
4	0x3f997877724591f5	0.02487360606154883
5	0x3f6fef113124689b	0.003898175790834802
6	0x3f69b743ca15c851	0.003139145280038704
7	0x3fb3186460d8684c	0.07459094395054072
8	0xbfc711fdbfe3c83d	-0.1802365481340206
9	0x3fb3c1fa0c53df8a	0.0771786003205063
10	0xbfa28370ceab1ea3	-0.03615906260307369
11	0x3fa53fece385183a	0.041503336690354733
12	0xbfa7823df59eca72	-0.045915542824691694
13	0xbfcd45bfa2ef0f41	-0.2286910577369046
14	0xbfb25c6031b91f93	-0.07172204221671867
15	0xbfc04219478122e7	-0.1270171736853378
16	0xbfaa6853ae2a047a	-0.05157720089938152
17	0xbf8aaf44ba7be2b7	-0.013029610577619406
18	0xbfc870e530272a67	-0.1909452901002908
19	0xbfc2746351197277	-0.14417687854701786
20	0xbfc680263280d568	-0.17578580347041428
21	0x3fba9cdb7a798bd3	0.10395595302683995
22	0xbfd06a0c41c468f6	-0.256472648835952
23	0x3f9bd7a250fddfb5	0.027189766114559883
24	0x3fb1716a497df222	0.06813682836759274
25	0x3fbc81cb3d2a0895	0.11135549777285043
26	0x3f8ac52ab2fe2cc7	0.013071378314427297
27	0xbfbaea2258752cde	-0.10513510379421429
28	0xbfb0d0d06e6e7de7	-0.0656862516029758
29	0x3f841c4ba40d98c1	0.00981959432983748
30	0xbfa4097e45cb3972	-0.03913492776847506
31	0x3fcccee83238ddc5	0.22506430103542932
32	0xbfc412017b148657	-0.15679949292921222
33	0x3f9136265dc40353	0.016808127854349774
34	0x3fb2823512b2450a	0.07229930597738501
35	0x3fb655f484e638b4	0.08724907154666789
36	0xbfc9844c28e3e793	-0.19934989925951338
37	0x3fba2aa881dcd547	0.10221341295694684
38	0xbfa3b00a94c3aec5	-0.038452463779177694
39	0xbfd00f78169d406a	-0.2509441586344169
40	0xbfd02c826cca130c	-0.25271664260826365
41	0xbfcf85d0e3004eed	-0.24627123912852458
42	0x3fc091ccd9f4659c	0.1294494690162481
43	0xbfa6b0df8a64f67b	-0.04431818546661944
44	0xbfa851b1ab08ea8b	-0.047498275879168515
45	0xbfc4be9c21a10bdb	-0.16206695215268394
46	0x3f4c644a9f15842b	0.0008664478647625364
47	0xbf3db05437f3dcf2	-0.00045301490895561993
48	0xbfb712eef1f8272d	-0.09013265044646053
49	0x3fa836309b0ae511	0.04728843586549137
50	0x3f9c1b243e23cfd2	0.02744728688499249
51	0xbfc04b55b42c5b74	-0.12729903504870388
52	0xbfa915290127ad5c	-0.04898956431483256
53	0xbfa9b11af5b8e1b9	-0.050179331298241654
54	0x3fc0c11d7296b9e6	0.13089340300707802
55	0xbfbf618ef097c104	-0.12258237241599451
56	0x3fcb7acd85ce9426	0.2146851447443236
57	0xbf94c9037175bb44	-0.020298055458108935
58	0x3fd0f01ab3b96f1a	0.2646548037644024
59	0x3f8fedeed92b4f17	0.015590539934613496
60	0x3fd5f6988fddf12a	0.34317602204807207
61	0xbfa48c129b8e807a	-0.040131169785355206
62	0xbfa292824690ab7e	-0.03627402411833368
63	0xbf78b491e96cbba3	-0.006031579940823403
64	0x3fc288849a49dbc8	0.14479119809740681
65	0x3fc535a71d8d7474	0.16569985335346227
66	0xbfcd072e890573b4	-0.22678167047970776
67	0x3f9a0da6e23f4b6e	0.025442702826534207
68	0x3fc453713717d4f7	0.158796455288815
69	0xbfc15936062bd088	-0.13553500462842671
70	0xbf906861f2de1e20	-0.016023188065018457
71	0xbfc88806733aed18	-0.19165115953897138
72	0x3fab240ee3feb516	0.05300947697774398
73	0xbf938d508fe8431d	-0.019093760283854445
74	0x3fa717b090410f27	0.04510261307635082
75	0x3fc535ef44906db4	0.16570845458850914
76	0xbfa7c1b87af7f8af	-0.046399846087284195
77	0xbfa2d252256d0d5c	-0.03676087099895639
78	0x3fb364c1014841c3	0.07575613290123955
79	0x3f8ea91230d3c05b	0.014970914950453265
80	0xbfc8da747cc7bd1c	-0.1941667184141601
81	0xbfabc3c4fe8f1fff	-0.05422797782335919
82	0x3fbecad608f4979c	0.12028253286970741
83	0x3fc64bf67f80cd97	0.17419320321787943
84	0xbfb2199ef3dacf01	-0.07070344403728869
85	0x3f919868a2f14a95	0.017182955689643526
86	0xbf928c483d2c8c6a	-0.018113259061589927
87	0xbfb402165004671b	-0.07815684751076583
88	0xbf955e175be9f788	-0.02086674211977127
89	0x3faa91b957ff4d59	0.051893035880903944
90	0xbfabffaaf3b731d3	-0.05468496537250513
91	0xbfd0291233747a0f	-0.25250678086186523
92	0x3f7208a6bfc19483	0.004402781833140359
93	0xbfd0808b1f8b33ea	-0.2578456695599117
94	0xbfa7e5e21722065f	-0.046675744365541
95	0x3fade9336b53fba5	0.0584198063388535
96	0x3fabfe0f38560987	0.054672694804156534
97	0x3fa426663eca515d	0.03935546413882449
98	0xbfb05c63a3137e62	-0.06390974742270708
99	0xbf940959d296a79d	-0.01956692073660059
100	0x3fb601cfcf2f4de6	0.08596514518949724
101	0xbfc27d5e7f7c8745	-0.1444509623043421
102	0xbfc2c0f75ee60d78	-0.14651386388514331
103	0xbfb374d1a967daeb	-0.07600126634484254
104	0x3fb24ed0cc33ae4d	0.07151513085744306
105	0x3fc3409207fa76db	0.1504080332714953
106	0x3fabbfdeef830b56	0.054198233353892775
107	0xbfc24beaac179c4b	-0.14294179346981858
108	0x3f8781b9908fd4eb	0.011477899288346602
109	0xbfa683554c72b0d2	-0.04397074278071646
110	0x3fc71d4d067f6b7b	0.18058169190666348
111	0x3f69e260204e974e	0.0031597020592525676
112	0xbfd3f32217ecfcdd	-0.31171467148301507
113	0x3fb0390cd8e5b229	0.06337051673262607
114	0xbfc35c70c4f06415	-0.15125856033481058
115	0xbfcd693cd25b0451	-0.2297740962149271
116	0xbfc26ffad91b0101	-0.1440423545918819
117	0x3fc3c908be82a67f	0.15457257559073764
118	0x3fb84d295d9f0b06	0.09492739234614697
119	0x3f7447e4b76a4662	0.00495137541169441
120	0xbf93929bd047cc37	-0.019113955104284677
121	0xbfb50e3f73bff658	-0.08224865508960855
122	0xbfc475f85bbac5de	-0.1598501632593487
123	0x3f9522a68973a8bd	0.020639993800536816
124	0x3facbad5497c3d61	0.056112923832297275
125	0x3fb8894acd63d07e	0.09584491266633852
126	0xbfb14d834de96c14	-0.06758900310653387
127	0xbfab8082e739dde9	-0.05371483872016453
128	0xbfa98212f7b23caa	-0.04982051156650276
129	0x3fbf5e65be4895e8	0.1225341405448358
130	0xbfc413691dcdb97f	-0.15684236483816602
131	0xbfccb654210005ac	-0.22431422816593505
132	0xbfa114ae4136b061	-0.03336090608658605
133	0xbfc0c83aaa7a8604	-0.13111050914908173
134	0xbf8920218e65ddd5	-0.012268316419734507
135	0xbfc1d69c298dc288	-0.13936187771789244
136	0xbfa71726d5f09cff	-0.04509850846835128
137	0xbf99fa1b32b97194	-0.025368142100306537
138	0x3fafd8c0e9234424	0.06220057340545562
139	0xbfc5a4af589d13da	-0.16908828570208706
140	0xbfa4e58b695b75ad	-0.040813786135667975
141	0xbfb78dea78cb0a1c	-0.09200921486903052
142	0x3fa21320f03c2a02	0.03530219013744686
143	0x3f9f795b434b258c	0.03073637579180892
144	0x3fb364b4bb943184	0.07575540141642106
145	0x3fbc6cac7ff9f250	0.11103323101446816
146	0xbf9f42b145be8bf9	-0.030527849084716483
147	0x3fa07afa87a580e0	0.03218825250474011
148	0x3fd8b425d949abe1	0.38599535197744045
149	0x3f96369315d65c42	0.021692560394140033
150	0xbfcb1beda6c66ea8	-0.2117898048717184
151	0xbfd088e14332a555	-0.2583544880131588
152	0x3fa5c93f6bdfdd07	0.04255102340533239
153	0xbfabd12404f47375	-0.05432999191746194
154	0xbfb4432b0dac9749	-0.07914990505068177
155	0xbfc585cda0a55a76	-0.1681458506015649
156	0x3fc3f4536279b4aa	0.15589372928972028
157	0x3fc0812e1c1a8b51	0.128942264292244
158	0x3fbc2814bc66027a	0.10998658752033377
159	0xbfc28dd2fc42f5b1	-0.1449531299348741
160	0x3fa7fe74da262fce	0.04686322367623995
161	0xbfb07ad10f0a74d2	-0.06437403313835269
162	0x3fd9348542f48527	0.39383060015286947
163	0xbfbf6bef025d154d	-0.12274068649010879
164	0x3fb4f44f3e3dec51	0.0818528677900059
165	0x3f8a93a7731ce720	0.012976940346209498
166	0xbf978ac73dd9da9c	-0.022990334653935393
167	0x3fc61791a185b30a	0.17259426485852486
168	0x3f97301d99bd8d4f	0.022644484051295873
169	0x3fc5031304e5671d	0.16415631999080285
170	0xbfd497b991278894	-0.3217605512164792
171	0xbfc1c04ccc9b836b	-0.1386810301837856
172	0xbfa777d03f94712f	-0.04583597923394433
173	0xbfc366f0ed019880	-0.15157901356286985
174	0xbfadc5a807f0dd83	-0.058148623437257484
175	0xbf7ee2279e04ced1	-0.007539896731305355
176	0xbfcf78cac049a3d1	-0.24587377919240663
177	0xbfc7d574515539a8	-0.18620161029180093
178	0x3fc5b1f34765a972	0.16949311243235915
179	0x3f80a86ebf1f9c87	0.008133759696603583
180	0x3f911bf00bbb04ac	0.016708136287665695
181	0x3fa3674fb987306d	0.03789757861849883
182	0x3fb3d7366c01ce6d	0.07750263344660775
183	0xbf609b9014646e77	-0.002027303128796561
184	0x3fcb7485ce777c3a	0.21449349004157786
185	0xbfb6623837c6404b	-0.08743621217422619
186	0xbfc5a66740c15cf5	-0.16914072667962157
187	0xbfad396a5b85aefb	-0.05707867018904086
188	0xbfa2998505a36c9f	-0.03632751172855219
189	0xbfcb301e63ae924c	-0.21240596644669762
190	0xbfa1c679647cb11d	-0.03471736289643188
191	0x3f56d5bd0eecf765	0.0013937326691144333
192	0x3faec25174acdaef	0.060076280109958684
193	0xbfaa2704ee382f2e	-0.051078943328404555
194	0x3faac6ed641656ef	0.05229894491928443
195	0x3fa4cd1fbdd3e85e	0.04062747184976055
196	0x3fd078f4a60755fd	0.257382547509536
197	0x3f7055c06075d812	0.003988028976314355
198	0x3fa5e7eef970893e	0.04278513712803765
199	0x3fb3750ecaa1cf5d	0.07600490996429472
200	0x3f9d4e76f9c86981	0.028619631763015633
201	0xbfb22c40c9e85380	-0.07098774842627442
202	0x3fc28f9c76c745e3	0.1450076656315523
203	0xbfc3b5230e93872c	-0.1539653607533692
204	0x3fa6ea4bbb4d30b1	0.0447562852992588
205	0xbfb9e85aa48101be	-0.10120169178208635
206	0xbfc36d8ac02ec2a7	-0.15178045638960677
207	0xbfc9c7e726595c1e	-0.20141305325043474
208	0xbfd38e4249345bb3	-0.3055577959907467
209	0xbfc45ed92d89813e	-0.15914454196446032
210	0xbf772de4fc9a248e	-0.005659002761270971
211	0xbfad90f69e2d5236	-0.05774660759803789
212	0xbfc6ae34bb2895e7	-0.17719134462929206
213	0xbfb25e437b4b3853	-0.07175084838965633
214	0x3f95d1b37e9f7d37	0.021307758906798226
215	0xbf78ce44803c22e7	-0.006056087094983487
216	0xbfb2b20343ed0918	-0.073028759082295
217	0x3fabb884ca56b66d	0.05414214105563251
218	0x3fa831854488dcac	0.04725281201938833
219	0x3fb48f40539cbabe	0.08031084100069116
220	0x3fa775ad75359be0	0.045819683606900474
221	0x3fab9c5fe7bb6515	0.053927418744658485
222	0xbfcf35026ba970e1	-0.2438052201931731
223	0x3f8456535aab757e	0.009930278019448787
224	0x3fa4ac7ab654c613	0.0403784129688455
225	0x3fa26f2b202c7eaa	0.0360043980383556
226	0x3f40b6c9c4dd8784	0.0005100712967129749
227	0x3f82f9b3b73f5c11	0.009265331296701292
228	0x3fa860e71772c007	0.04761430894120627
229	0xbf7067d09f65d5d5	-0.004005255634515111
230	0x3fa0b8e13d5b8937	0.032660521259247614
231	0x3fb1945d067dc5f4	0.06867009552458808
232	0x3f83c1ed38b9b647	0.009647229474661801
233	0xbfa85afd91bec1aa	-0.047569202462344265
234	0x3fba0724882209d4	0.10167148898657469
235	0x3fc6644c9ef5a4f7	0.1749358917398138
236	0x3fb13e80059fb748	0.06735992562582027
237	0xbfa1363fadbb5b4e	-0.033617010076048545
238	0xbfc498899eafc1ba	-0.1609050774418515
239	0xbf6a4d4e22dd9cc5	-0.0032106901261844422
240	0xbfcad1f897f12098	-0.20953280848539602
241	0x3fa5511ecea64d53	0.04163452408388459
242	0x3fb9d56d911441d4	0.10091290275546011
243	0xbfa8dd5fe8066873	-0.04856395442330177
244	0x3fc17ff23a6e19ea	0.13671710827857392
245	0xbfa57d641c01ebaf	-0.041972282809147436
246	0x3fc01246775471c4	0.1255577166238152
247	0x3fc055ad193733d2	0.1276146290896621
248	0xbfb51a0a665fa440	-0.08242859839778394
249	0x3f8eef779fd7d845	0.015105185094380977
250	0xbfb5ff4f782899c3	-0.08592697795447805
251	0x3fbe7349102938a6	0.11894661564403694
252	0x3fc40ad73dda2015	0.1565808345806096
253	0x3f9417891ba403b2	0.01962103110509234
254	0x3fc0c34b56176cc8	0.1309599085205717
255	0xbf9e5f6a6f30159f	-0.029660857235304424
